streamlit/dcrkt_model_fold_0.pt (torch, 655181 bytes, 44 tensors)

memory_key f4 [98, 64]
000000 c7 9c 84 be dc 78 81 bf ae af 7e 3f 7e dd 01 3f
       -0.25900862 -1.0115008 0.99486816 0.50728595
000010 eb 93 94 bf b2 b1 5d bf c7 05 49 bf 83 d6 14 bf
       -1.1607641 -0.86599267 -0.7852444 -0.5813982
000020 20 65 5e bf 3d fc 22 40 dc 71 5c 3f 90 28 ba 3f
       -0.86873055 2.5466454 0.86111236 1.4543629
000030 18 56 8e 3f a2 dd b6 be f3 de 52 3f 83 ce ac bf
       1.1120024 -0.35715967 0.82371444 -1.3500522
000040 75 2f bf 3e 34 50 bc bd 01 7d d5 bc 01 75 13 be
       0.37340894 -0.09194985 -0.026060583 -0.14400102
000050 ca 41 66 3f a0 38 71 bf 93 89 e2 be e7 82 ee 3e
       0.89944136 -0.9422703 -0.44245586 0.46584246
000060 37 2d 88 bf 2e c3 5a 3e f0 e9 6a 3f 4a 03 c3 3f
       -1.0638798 0.21363518 0.9176321 1.5235379
000070 4a 13 17 3f aa e0 aa 3e db 74 0d be 8f c6 66 bf
       0.5901381 0.3337453 -0.13814108 -0.90146726
000080 b6 ba 98 bf a5 9f 17 3e a0 1b cd 3e 36 e9 73 3f
       -1.193198 0.14806993 0.4006014 0.95277727
000090 72 4f 6e be 05 f8 0a bf 85 1f 9e 3f 4e 31 07 bf
       -0.23272493 -0.542847 1.2353369 -0.5280961
0000a0 82 42 73 bf 5a 71 8a 3f 6c 93 4f bf 45 02 aa be
       -0.9502336 1.0815842 -0.8108432 -0.33204857
0000b0 2d 2c b7 be 52 0a 0c bf e3 87 cf 3e d6 f8 29 3e
       -0.3577589 -0.5470325 0.4053336 0.1659883
0000c0 4b dd 0d bf b3 4f 0e 3f ac 28 92 3f 90 ae 2a bf
       -0.5541579 0.5559036 1.1418662 -0.6667261
0000d0 5c 4b 8a bf 58 68 27 be 66 61 1f 3f 65 cc 1c 3f
       -1.0804248 -0.16348398 0.62257993 0.6124938
0000e0 e2 4f d9 bd 1f c9 d4 3f 58 60 90 bf 96 cf e9 be
       -0.106109396 1.6623877 -1.1279402 -0.45666188
0000f0 18 cc 74 bf e6 21 1a bc 84 71 d0 3d c9 1c d0 be
       -0.9562392 -0.009407496 0.101779014 -0.4064696
000100 78 90 3f 3f b3 ed b2 bf 2e f4 43 3e a6 bb ae 3e
       0.74829817 -1.397879 0.19136116 0.3412754
000110 5b 7f b0 3f fd 37 8f bf 0f d2 87 3d b7 9f e1 3d
       1.3788866 -1.1188961 0.06631862 0.11016791
000120 be 9e 2e 3f ae 0a 07 bf cf 7e 1b c0 fa 34 64 bd
       0.6821097 -0.5275067 -2.4296148 -0.055714585
000130 db 74 77 3f 46 24 89 3f 38 20 e4 3f f7 c6 0d be
       0.9666268 1.0714195 1.7822332 -0.1384543
000140 bf 92 bb be 7e 7a 8f bf d4 4f 3d bf fa 88 4e 3f
       -0.36635396 -1.1209257 -0.73949933 0.8067776
000150 93 54 0f 3f f1 a7 1e 40 00 4e f0 3f 72 3c c0 3e
       0.55988425 2.4790003 1.8773804 0.37546116
000160 76 65 b0 be c1 3f 0b 3f 31 77 1c 3f c9 ed c5 3d
       -0.3445241 0.54394156 0.6111937 0.096644945
000170 87 3b 85 3e 3b 1a 9f bf 36 a1 bf bf 9b 58 6d 3c
       0.26021978 -1.242988 -1.4971073 0.014486457
000180 4c 53 54 3f a7 e6 6b be e0 f4 01 3e 44 e4 9e 3f
       0.829396 -0.23037206 0.12691069 1.2413411
000190 7f 3e 59 3f 29 f9 b4 bf 29 c4 d0 3e 5a 31 3c 3f
       0.84860986 -1.4138538 0.40774658 0.73512805
0001a0 b7 fc 4b 3f 31 8f 83 3f 06 9c cb be c4 c3 a5 3e
       0.7968249 1.0278074 -0.39767474 0.3237592
0001b0 32 ce 89 be 5e 68 35 3f 66 38 33 bf 4a e5 0c 40
       -0.26915127 0.70862377 -0.7000793 2.2014947
0001c0 ec 79 84 3f 2c 57 a9 be df 9f dd 3f 61 57 56 3e
       1.0349708 -0.3307432 1.7314414 0.2093177
0001d0 34 70 a6 be 7f d7 29 3d 70 b3 a7 3e e3 44 24 bd
       -0.3250748 0.04146528 0.32754087 -0.040104758
0001e0 de a9 74 40 4b ca 1a bb ad 1f 9d 3e 8f a2 18 be
       3.8228679 -0.002361911 0.3068823 -0.14905761
0001f0 d2 cd c6 bd 0d f0 d1 3f c9 f4 01 bf 82 10 05 bf
       -0.09707226 1.6401383 -0.5076414 -0.51978314
000200 eb 12 19 c0 f2 fc 86 bf e6 20 e3 3e 84 38 0c bf
       -2.3917797 -1.0545943 0.44361037 -0.54773736
000210 22 75 24 bf 85 fb dd bf 0d 77 6d 3f e1 ad 39 bf
       -0.6424123 -1.7342383 0.9275978 -0.72530943
000220 f5 44 b4 3f 11 ce 6a bf 6e db b2 3f 64 0a 11 be
       1.4083544 -0.9172068 1.3973215 -0.1416412
000230 37 91 2a bf 30 40 20 bf 9a 66 34 c0 72 0e 03 3f
       -0.6662783 -0.6259794 -2.8187623 0.51193917
000240 d2 8d 50 bd 52 0e a2 be 1b 60 9c bf 01 6b 07 40
       -0.0509165 -0.3165155 -1.2216829 2.115906
000250 b4 7c 93 be c3 85 8c 3f f7 d6 0c 3d 81 36 95 3f
       -0.28806078 1.0978321 0.034384694 1.1657258
000260 7f 2d 1a 3f 7c 96 53 3e d2 15 49 3f d8 43 df bf
       0.6022567 0.20662874 0.7854892 -1.7442579
000270 ad 1a 68 3f ba 9f f3 be 70 3d 21 c0 59 94 3d bf
       0.90665704 -0.475828 -2.5193748 -0.74054486
000280 85 64 9c 3e 33 17 7e bf 98 cf 9d 3f ad 7b ad be
       0.3054544 -0.9925415 1.2328978 -0.3388342
000290 46 6b 61 3f 09 4f 6f bd 6a 4b a8 bf 91 09 99 be
       0.8805431 -0.058424983 -1.3148015 -0.2989011
0002a0 93 a4 35 3e e8 c2 cc bf 08 b6 1c be 0d 79 dc bf
       0.17738561 -1.5996981 -0.15303814 -1.7224442
0002b0 36 e0 37 3e 6d 1f 48 3f 63 5c 3d 3f 2f f9 36 3f
       0.17956623 0.7817295 0.73969096 0.71473974
0002c0 47 1f 34 3f 9d 76 0e 3f d9 17 5a bf be 4f 39 3f
       0.70360225 0.5564974 -0.8519264 0.723873
0002d0 d5 76 40 3e 94 85 20 3f 29 64 2a 3f 01 90 03 c0
       0.18795331 0.62703824 0.6655908 -2.0556643
0002e0 8c 27 32 be dc cc 95 3f 7c f9 6b 3d fa 9b a2 bf
       -0.17397898 1.1703143 0.057610974 -1.270385
0002f0 eb 1c 89 bc 88 cc 24 40 01 65 c4 bf 33 bc 87 3f
       -0.016737422 2.5749836 -1.5343324 1.0604309
000300 36 fb 78 3f e9 c9 b6 bf 6b 10 3b bf 1f a9 82 bf
       0.9725832 -1.4280368 -0.73071927 -1.0207862
000310 58 6c 4c bf c6 2e 4b bf 94 18 a3 bf 65 cd 01 be
       -0.7985282 -0.79368246 -1.2741876 -0.12676008
000320 a9 6c 16 3f 10 5f 80 3e 37 a1 ba 3f a6 dc e9 3f
       0.5875955 0.25072527 1.4580449 1.8270462
000330 72 6b af be b0 f3 df 3e a5 89 e3 3e cd fc 2d bf
       -0.34261662 0.43740606 0.44440952 -0.6796387
000340 f5 19 06 40 d9 9f 39 3f 5e b0 9a bf 27 10 e9 bf
       2.0953343 0.72509533 -1.2085073 -1.8208054
000350 3b bd 44 bf fc 0e fd be e9 1b 59 3f 0d 72 25 3f
       -0.7685124 -0.49425495 0.8480821 0.6462715
000360 e6 15 71 bd 77 c4 e7 3f f7 60 90 3e 44 06 8d be
       -0.058858775 1.8106831 0.28198978 -0.27543843
000370 b3 38 0b bf 42 5c 91 3e b9 50 b6 3e 2c 62 30 bf
       -0.5438339 0.283907 0.35608461 -0.688998
000380 81 76 82 3f 30 ed 2a 3f 4c ff 1e 3e 83 ad 32 bf
       1.0192415 0.6676817 0.15527076 -0.6979601
000390 99 9a b9 3e d7 bf cc 3f 44 b5 77 bf 03 76 44 3f
       0.3625076 1.5996045 -0.96760964 0.7674257
0003a0 cc d1 46 3e ec a2 94 3f 7b c0 b9 3e a2 7a ce be
       0.19415969 1.161222 0.36279663 -0.40327936
0003b0 59 c9 e2 be 40 04 23 3f 5b b8 98 be c6 9b c7 bd
       -0.4429424 0.6367836 -0.29828152 -0.09746508
0003c0 f8 7e d5 be 64 a1 fd be 2d 31 de be 51 f6 05 40
       -0.41698432 -0.49537194 -0.43396893 2.093159
0003d0 7c f4 d1 be 7f 07 ba 3f ff 36 41 3f 1d 87 d4 3e
       -0.4100684 1.4533538 0.7547454 0.41509333
0003e0 b8 b8 8e 3e f1 65 a4 3e a4 42 70 3f 8e bd 53 bf
       0.27875304 0.32109025 0.93851686 -0.8271111
0003f0 77 a2 ff be 84 3f 3a bf ed db 52 bf 75 06 0f 40
       -0.49928638 -0.7275317 -0.8236683 2.234769

question_emb.weight f4 [213, 64]
000000 01 61 06 40 85 9d 94 3f 73 02 8e 3f b0 e4 dd bf
       2.0996706 1.1610571 1.1094497 -1.7335415
000010 ac b7 58 3f 33 86 9d bf 83 34 f8 be a6 f8 ab bf
       0.8465526 -1.2306579 -0.48477563 -1.3435256
000020 b9 72 30 bf d5 7a ed 3f c3 f6 f9 be 49 af b1 bf
       -0.6892505 1.855311 -0.48821077 -1.3881618
000030 f1 ad 4b bf 7e 84 3f bf 7a 25 89 bf 12 27 38 3f
       -0.7956229 -0.7481154 -1.0714562 0.71934617
000040 fd 17 c9 3f a5 b1 a1 bd 18 b2 48 bf dc 18 0a 3f
       1.5710446 -0.07895211 -0.7839675 0.5394418
000050 68 19 48 bf 69 1f a4 3f 13 e4 53 3f c8 2c fb 3f
       -0.78163767 1.2822086 0.8276989 1.9623041
000060 13 95 85 3f f7 2a 88 3f 35 40 36 3f 87 8c d1 3f
       1.0436119 1.0638112 0.7119172 1.637101
000070 a8 ac 81 be fc c2 55 be b7 a1 e1 bd b9 a6 52 3f
       -0.2532704 -0.20875162 -0.11017173 0.8228565
000080 e9 fc a8 bf 51 63 07 bf 4b 8b a3 bd 67 7c c7 3f
       -1.3202182 -0.5288592 -0.079855524 1.558484
000090 c4 dc 5f 3e c0 f9 55 bf 1b e6 db 3e 59 82 66 bf
       0.21861559 -0.83584213 0.42948994 -0.90042645
0000a0 09 2a b6 bf ed 56 a3 3f 1e 38 42 bf bb bd 0e bf
       -1.4231578 1.2760903 -0.7586688 -0.55758256
0000b0 dc af 85 bf 29 e5 06 40 28 39 70 bf be 8d 1c be
       -1.0444293 2.1077368 -0.93837214 -0.15288445
0000c0 9d 3b 3a bf b0 65 cd be ba 48 91 3e 27 34 b2 3e
       -0.7274721 -0.40116644 0.28375798 0.34805414
0000d0 9a eb f8 be a8 d5 8e 3f 38 73 3c bf b3 d4 87 bf
       -0.4861725 1.1158953 -0.7361331 -1.0611786
0000e0 45 9a d7 bf 01 16 b5 bd 5f a1 95 3d c4 11 46 3f
       -1.6843954 -0.088420875 0.0730617 0.7737086
0000f0 1b 25 82 bc 4b 36 ec 3f c7 ee 6d bf 1a bd bc 3f
       -0.015886834 1.8454069 -0.9294247 1.4745209
000100 24 71 a7 3f 75 7c 4e 3f de 49 02 40 fd ef 18 3f
       1.3081403 0.80658656 2.0357585 0.59741193
000110 f0 e4 f4 3e 5d 98 8f be e4 d1 96 bf bb b5 98 3f
       0.47830915 -0.2804593 -1.1782804 1.193046
000120 87 96 48 be cc a0 5c 3f 2d b0 d7 3d 0c e4 d0 3e
       -0.19588672 0.86182857 0.1053165 0.40798986
000130 b2 d7 09 3f 1d 6a 35 bf 96 65 19 c0 99 ea 7e bf
       0.5384475 -0.7086504 -2.3968253 -0.9957672
000140 86 4f f2 3c 5d 10 6f be 73 05 a4 bf ae 42 17 bf
       0.029578935 -0.23346086 -1.2814163 -0.5908612
000150 c8 14 49 3e a6 1d 05 3f 34 45 9c 3f fc f1 78 bd
       0.19636834 0.51998365 1.2208619 -0.06077765
000160 72 cf 1e 3f a3 90 61 bc 4c 3c 5f bf e2 39 50 3f
       0.62035286 -0.013767394 -0.8720138 0.8133832
000170 03 10 ca bf 2a 95 e3 be 4b eb c9 3f 50 c1 70 3f
       -1.5786136 -0.4444974 1.5774931 0.9404497
000180 c0 37 1c c0 9b 67 89 3e c5 45 42 3f 2f b0 8a bd
       -2.4409027 0.26836857 0.7588771 -0.067718856
000190 23 2d 26 3f 78 69 9e 3e e7 c2 a8 3f 42 26 05 bf
       0.64912623 0.3093984 1.318448 -0.520115
0001a0 cb 4e 9f be 17 9c 91 3f 26 68 1b 3f 11 d1 03 3e
       -0.31114802 1.137576 0.6070579 0.12872721
0001b0 cd 94 2d be 3f a3 6e 3f 7a 63 78 3e c1 01 61 be
       -0.16951294 0.93217844 0.24256697 -0.21973325
0001c0 ed be a2 bf 35 08 e1 3d f9 ba 30 bf 39 65 14 3f
       -1.2714516 0.109878935 -0.690353 0.57966954
0001d0 b4 d7 38 3f 2e 70 02 3e e7 d3 fa be c4 b8 18 3f
       0.72204137 0.12738106 -0.48989794 0.5965693
0001e0 fb 53 5a be 85 2a 7a 3e 53 93 81 bd a7 9b 50 3f
       -0.21321099 0.24430282 -0.06326928 0.81487507
0001f0 dd 70 95 3f f7 7b d7 3e 76 57 57 3f 5c af 4e 3f
       1.1675068 0.42086765 0.8411783 0.8073633
000200 93 48 ef 3f 11 63 53 3f 7e f0 a4 bf 01 09 96 bf
       1.8694023 0.8257304 -1.2885892 -1.1721498
000210 83 c6 d7 3d 2a 98 a5 3f 13 88 0a 3f 2e d8 21 3f
       0.1053591 1.2937062 0.5411388 0.6322049
000220 b7 4b 71 3f e0 b0 87 be 05 75 09 c0 4a 00 9b 3f
       0.94256157 -0.26502132 -2.1477673 1.2109463
000230 77 15 d3 be 7f 45 a2 3f f3 20 68 bf 8f f3 9a 3e
       -0.41227314 1.2677459 -0.90675277 0.30263945
000240 25 47 a0 bf 32 f1 94 3f 7f 14 db 3f e5 b1 85 3f
       -1.2521712 1.1636107 1.711563 1.0444914
000250 43 56 7b 3d f0 a0 8c bc ec 17 93 be 27 45 76 be
       0.061361562 -0.017166585 -0.28729188 -0.24049817
000260 d6 60 18 3e 79 f5 84 3f 98 ce 35 bf 15 9c fb 3f
       0.1488069 1.0387412 -0.7101836 1.9657007
000270 e1 77 11 c0 cc 4f 29 be bf e1 6b bf 34 cb 9a 3f
       -2.2729418 -0.16534346 -0.92141336 1.2093263
000280 78 9e d4 bf b0 58 13 3e c9 e7 1e 3d 1c b3 58 be
       -1.6610861 0.143893 0.038795266 -0.21162075
000290 fd 49 37 bd fc e6 7a bf 5c 93 f6 3e e5 d6 97 bf
       -0.044748295 -0.98008704 0.481593 -1.1862456
0002a0 e2 fa ac bf 12 db a2 3f 12 aa bc 3f 4c cb b5 3e
       -1.3514063 1.2723105 1.4739401 0.35506666
0002b0 8f 6c f8 bf 79 12 67 3f b5 56 20 3f aa 30 e4 3f
       -1.940813 0.9026256 0.62632304 1.7827351
0002c0 d1 07 9f be 69 60 15 3e 1d ca 3f bf df 6c 55 3e
       -0.3106065 0.14587559 -0.74917775 0.20842312
0002d0 ef cf 51 bf c1 53 98 bf 2f b1 78 bf aa b6 8e be
       -0.81957906 -1.190056 -0.9714536 -0.27873737
0002e0 9a e6 7a bf 72 b4 7f bf e2 58 20 c0 09 09 98 3e
       -0.9800812 -0.9988471 -2.505425 0.29694393
0002f0 6e 07 5d 3f 3e bd 00 bf bc 60 9c 3e c9 57 06 3f
       0.8633946 -0.5028876 0.30542552 0.524777
000300 ef 19 eb 3f 10 c0 76 bf 29 8d 5f 3f d6 56 5d be
       1.8367289 -0.96386814 0.8732477 -0.21615157
000310 84 91 8a bf 38 17 ad 3e 5b 1a 14 3f 9c 50 9e 3f
       -1.0825658 0.33806777 0.57852715 1.236835
000320 df 6a 28 3f 3b 56 02 40 2f e7 ff be a8 89 34 bf
       0.6578807 2.036513 -0.49981067 -0.70522547
000330 67 12 f5 3e 2c 8a 8b 3f c1 84 b9 3f d8 f3 d1 3e
       0.47865602 1.0901542 1.4493638 0.4100635
000340 81 5b 6b bf b1 42 89 bf ba cd b3 be f8 e3 71 bf
       -0.919365 -1.0723478 -0.35117894 -0.9448848
000350 cc 0a 05 3d 4b 94 5c 3f 9d ff 20 bd d8 9f 22 c0
       0.032481 0.8616378 -0.03930627 -2.541006
000360 f7 8b 15 bf 96 13 99 3f e3 38 e0 bf d6 a5 e1 3f
       -0.58416694 1.1959102 -1.751736 1.7628734
000370 47 be 99 3e d4 28 4e be 48 27 56 3f f5 ef c1 3f
       0.30027983 -0.20132762 0.8365369 1.5151354
000380 a8 d1 38 3c 2c 03 cc 3f 04 d7 49 3e a0 c6 89 bf
       0.011280455 1.5938468 0.19710928 -1.076374
000390 8d 0a fa be 66 8f b2 3d 31 61 3a 3f a4 47 0b 40
       -0.48836175 0.08718757 0.7280455 2.1762476
0003a0 af 05 10 3b 21 2f 85 bf 14 2d d1 bf 17 20 6a bf
       0.0021976044 -1.0405008 -1.6341882 -0.91455215
0003b0 61 58 a2 be 54 1e 2e bd 37 49 97 3e aa 43 17 3f
       -0.31708053 -0.042509392 0.29548046 0.5908762
0003c0 ba 07 76 bf 59 c7 79 3e 1c 8a e0 be 96 c0 5c 3f
       -0.9610554 0.24392451 -0.4385537 0.8623136
0003d0 ec 1f 48 bf de 6c 13 bc 7d d9 b6 be 35 da c3 3f
       -0.7817371 -0.008998124 -0.35712805 1.5300967
0003e0 06 50 8b 3f 97 7f d4 be ab 0e c2 3e 6c 40 55 3f
       1.0883796 -0.41503593 0.37901816 0.83301425
0003f0 2c dc 02 3f f6 f7 9f 3e bd 52 c4 3e 1e 8d 3c 3e
       0.51117206 0.31243867 0.38344374 0.18413207

response_emb.weight f4 [1062, 64]
000000 64 f6 2f bf e6 4d 1f 3d 97 3b 23 3f e8 09 80 bf
       -0.6873534 0.03889265 0.637628 -1.0003023
000010 c6 fd 15 be 21 bd 99 3f 36 1a 5f 3e b8 fd 13 bf
       -0.14647588 1.2010843 0.21787342 -0.5780902
000020 92 5d b2 3e f2 42 ea be 28 25 ae 3f 96 d8 51 bf
       0.34837013 -0.457542 1.3605089 -0.8197111
000030 bb 75 f6 bd 6c bc 29 40 e1 5c bd 3f 69 b2 8b 3e
       -0.12034174 2.6521254 1.4793969 0.27284554
000040 40 40 0d 3f ae 45 90 bf 98 09 4a bf 9b 15 36 3e
       0.5517616 -1.1271265 -0.7892089 0.1778168
000050 f0 c5 98 bf f9 ba 4a bf c5 e5 2a 3e 40 cc 6f 3d
       -1.1935406 -0.7919155 0.16689213 0.058544397
000060 33 da 50 3d 8e cd 0f 40 9d a0 9c bf ba a6 6b 3f
       0.05098934 2.246921 -1.2236515 0.9205128
000070 01 93 55 3e 22 6b 6a 3f 66 4b c6 bf 2e 46 08 40
       0.20856859 0.9156972 -1.549176 2.1292834
000080 29 55 b0 3f c6 10 64 3f 64 f0 02 bf ef f8 38 bf
       1.3775989 0.89088094 -0.51148057 -0.7225484
000090 b0 62 8a 3e 8b 4d 4b 3e f4 6a 6c 3c e0 92 dc 3f
       0.27028418 0.19853799 0.0144297965 1.7232323
0000a0 0b 46 e5 bf 95 8b a7 3f 75 5b b4 3c 94 fa 6e bf
       -1.7912 1.3089472 0.022016266 -0.933511
0000b0 04 01 69 bf 23 69 ff 3d 90 43 9c be ea 89 9c bf
       -0.91017175 0.12471225 -0.30520296 -1.2229588
0000c0 e4 ef 55 3e bb 66 e1 bc 1e a3 cd bf f7 51 c2 be
       0.20892292 -0.027514806 -1.6065404 -0.3795316
0000d0 7f 60 86 be 84 8a 60 bf 7a ca ca 3f b1 2c a9 3f
       -0.26245496 -0.8771136 1.5843041 1.3216764
0000e0 86 3f 22 bf 5c 81 54 bf 8e ff 42 bf ed 57 eb 3e
       -0.6337818 -0.83009887 -0.76171196 0.4596552
0000f0 44 57 ae 3d d0 41 c7 3f f4 f2 88 bf 7d f1 37 bf
       0.08512738 1.5566959 -1.0699143 -0.71852857
000100 e6 4c 5f bf 9f 2c a9 bf c3 22 73 3f 44 6a ac 3e
       -0.8722671 -1.3216742 0.9497492 0.33674824
000110 c6 c1 a0 3e 8f 00 a0 bf 18 b2 80 be 94 62 ce 3f
       0.31397837 -1.250017 -0.25135875 1.6123834
000120 2f 6f 9a be a4 85 65 bf 45 b8 7e 3d 11 a9 07 40
       -0.3016295 -0.89657044 0.062187452 2.119694
000130 c5 74 88 bd 90 1d b9 3e 27 be 8a bf 58 32 85 3f
       -0.06662897 0.36155367 -1.083928 1.0405989
000140 40 87 b4 bf 3e a9 24 3f ec 6e 9a be 55 2d 20 c0
       -1.4103775 0.64320743 -0.30162752 -2.5027668
000150 b6 04 3e 3f 4c 99 b3 be ee f9 21 3f ab 38 aa 3f
       0.7422594 -0.35077894 0.6327199 1.3298544
000160 cd 28 6b 3f 6c 0a 00 bf 9d 3e 86 bf e5 c3 68 3f
       0.9185913 -0.500159 -1.0487858 0.9092391
000170 fd 85 e8 3f 40 f3 82 bd 6a 4f fd be 91 84 97 bf
       1.816589 -0.063940525 -0.4947465 -1.1837331
000180 37 98 50 3f a2 ba 71 3f 08 e0 89 3d e7 8d b2 be
       0.8148226 0.94425404 0.06732184 -0.34873888
000190 1e e6 96 3e 51 19 a8 bf 05 01 ea 3e 92 77 57 bf
       0.2947244 -1.3132726 0.45703903 -0.84166825
0001a0 4a 53 8e bd 31 da a6 bd 64 24 bc 3f a4 bf 3d be
       -0.0694948 -0.081470855 1.4698606 -0.18530136
0001b0 55 36 a1 bf 78 67 00 3f 42 95 41 40 c7 a9 2a bf
       -1.2594706 0.5015788 3.024735 -0.6666531
0001c0 97 fc 88 bf 5d f2 a0 3c 47 de cc 3e 24 76 63 be
       -1.0702084 0.019646818 0.40013334 -0.22213036
0001d0 a0 c6 28 3e 86 49 8f be 2e 14 4e 3f 67 6f 41 bf
       0.1648202 -0.2798578 0.8049954 -0.7556061
0001e0 8b 9d 97 3f c2 62 e4 3e 9e 2a 57 be 0f 04 ec 3e
       1.1844953 0.44606596 -0.21012351 0.46096846
0001f0 b7 e2 f0 be e5 c4 15 40 3f 92 46 bd f6 c9 44 bf
       -0.4704797 2.3401425 -0.048479315 -0.7687067
000200 fd 84 9c bf 94 47 e4 be 97 89 9d bf 05 5a bb 3e
       -1.2228085 -0.4458586 -1.2307614 0.36592117
000210 7e e8 a3 3f f1 9d 1f bd 22 c7 c2 be d3 fc a8 bf
       1.2805326 -0.038968984 -0.3804255 -1.3202156
000220 b3 37 29 bd df 9d c7 3f f5 a6 87 be da b6 d7 be
       -0.041312885 1.5595053 -0.26494566 -0.42131692
000230 34 a1 a1 be e5 36 ce 3e 18 1e 0b bf d7 00 f0 be
       -0.315683 0.40276256 -0.54342794 -0.4687564
000240 55 a1 82 3f 87 c9 23 3e 4b 84 13 3f 38 a5 f3 bf
       1.0205485 0.15994845 0.5762374 -1.9034796
000250 7c 3e c2 3f 37 31 8b 3e 9c 63 58 bf 68 39 1d be
       1.5175319 0.27185985 -0.8452699 -0.1535393
000260 d2 74 a2 3e b8 bf c2 bf 84 e4 5c 3f d4 6e 1f 3e
       0.31729752 -1.5214758 0.8628619 0.15569621
000270 c9 34 93 bf c7 a7 da bf de 76 2d 3f 27 8a 0b bf
       -1.1500484 -1.7082452 0.677595 -0.5450768
000280 83 e5 59 3f 90 25 93 3d d0 01 01 40 20 45 11 3f
       0.8511583 0.07184899 2.0157356 0.567461
000290 e0 d4 92 bf 6f 81 c3 3f 97 c7 d4 be b4 6f fd 3c
       -1.1471214 1.5273875 -0.41558525 0.030937053
0002a0 a5 66 a8 bf 56 79 95 3f c3 aa bb 3f 70 d0 a0 bc
       -1.3156325 1.1677654 1.4661487 -0.01963064
0002b0 73 6c 18 c0 e5 96 5b 3e b7 6f 3d c0 3e e9 2f 3f
       -2.3816192 0.2144428 -2.9599435 0.68715274
0002c0 29 66 2e 3f 15 96 01 c0 81 7e 28 be 04 02 b0 be
       0.68124634 -2.0247853 -0.16454507 -0.34376538
0002d0 f9 90 ca be 54 ea 33 3f 2b a1 e5 bd 12 03 2c 3f
       -0.3956373 0.7027943 -0.11212381 0.67192185
0002e0 0b 0e 28 be c5 01 55 bf d5 ce 72 bf 8a 19 d3 3e
       -0.16411607 -0.83205825 -0.9484685 0.41230422
0002f0 f8 8e 1c be 64 be 08 bf f8 11 49 3f 6d 1a 03 bb
       -0.15288913 -0.53415513 0.78543043 -0.0020004765
000300 25 c6 39 3f 8a ed 37 3f 6f 35 e3 3d 8f 35 c1 3d
       0.7256797 0.7184683 0.11094176 0.094340436
000310 f2 ba c9 bf 11 9b 62 be 44 90 29 bf 0c f6 29 3f
       -1.5760176 -0.22129466 -0.66235757 0.6639106
000320 16 24 42 3f 57 b3 13 3f 71 55 f0 3e 7b 75 18 bd
       0.7583631 0.57695526 0.46940187 -0.037221413
000330 aa d2 87 be aa 71 20 3f cc 36 0a 3e 9f ba ff be
       -0.2652791 0.6267344 0.13497466 -0.49947068
000340 76 bd ee be 64 8e 5a bf 36 93 1e 3f 8a 38 fe 3e
       -0.46628922 -0.8537352 0.61943376 0.4965251
000350 97 db 51 3f 82 65 58 3f 66 c3 2d 3f 89 58 63 3f
       0.8197569 0.8452989 0.6787628 0.8880697
000360 34 0a cd be 7d 00 9a bf 64 42 4b 3f 70 22 c9 bd
       -0.40046847 -1.2031399 0.7939818 -0.098210216
000370 27 ef d4 3f 5f bd ae bf 23 a6 dc 3f a6 49 b0 3f
       1.6635484 -1.3651541 1.7238201 1.3772476
000380 aa 41 6a bf 6d b2 26 bf 56 f6 72 3f e3 c7 2f bf
       -0.91506445 -0.65116006 0.9490713 -0.6866438
000390 85 94 9b be f8 95 72 3f c8 a3 cc bf 85 17 ef bf
       -0.3038675 0.94760084 -1.5987482 -1.8679053
0003a0 83 9d a6 3f ea 9d dc bf c1 ef 98 be 5f 14 b9 bf
       1.3016819 -1.7235692 -0.29870418 -1.4459342
0003b0 07 9e 78 bd a5 7e 39 3f f4 4e e1 bf 1f 4f ef bf
       -0.06069758 0.7245887 -1.760222 -1.8696021
0003c0 65 13 b7 3e 41 06 00 3f 93 de 02 3f 4a 71 cd bf
       0.35756984 0.5000954 0.5112087 -1.6050198
0003d0 31 77 9a be eb 65 e2 3e 57 85 51 3f bf 1c 3a bf
       -0.3016906 0.44218382 0.81844085 -0.72700113
0003e0 6f c7 20 bf e1 f3 bb bf 78 aa 3c bd e8 e4 05 c0
       -0.6280431 -1.4683801 -0.04606101 -2.0920963
0003f0 2b 82 98 3f 8e 92 f7 3f 23 09 08 3e 17 bc 85 be
       1.1914724 1.93416 0.13284735 -0.26120064

encoder.enc_correct.0.weight f4 [32, 64]
000000 38 31 ae be ef e9 47 bd e7 44 0b 3d 5d f6 47 3e
       -0.34021926 -0.04880708 0.034001257 0.19527574
000010 25 6a 83 be 09 b3 8f be 33 4f c0 bd b7 dc 8f 3a
       -0.2566692 -0.2806628 -0.09390106 0.0010975812
000020 73 56 55 bd d5 73 61 3d 96 33 82 be ad fb ca be
       -0.052084398 0.055042107 -0.25429982 -0.39645138
000030 68 45 af 3d e6 83 ef bd 6c 6e b0 bd 7d 13 24 bc
       0.0855816 -0.116950795 -0.08614811 -0.010014412
000040 24 88 30 bd 2d 3d 34 be 79 ff a9 3d b4 28 19 3e
       -0.043098584 -0.17601462 0.08300681 0.14956933
000050 38 9a f4 3d ce b9 92 3d 31 91 c3 bd de 2c 82 be
       0.119434774 0.07164346 -0.095491774 -0.25424856
000060 6c be 2a bd 74 d4 59 be 41 a3 a1 3d 0a f9 d1 3d
       -0.041685507 -0.2127245 0.07892466 0.102525786
000070 ef 7f bf 3c ee 60 1f bd c2 d0 57 be 91 00 31 be
       0.023376433 -0.0389108 -0.21075729 -0.17285372
000080 75 13 39 3e 7e 11 07 bd c2 e5 0f bd 87 68 10 bd
       0.18073829 -0.032975666 -0.035131223 -0.035255935
000090 89 2d e1 bd ac 27 70 bd 0b 01 fe 3c 0a 31 22 3e
       -0.10995013 -0.058631584 0.031006357 0.1583902
0000a0 1c 22 e8 bd a4 55 2f 3e d7 43 81 bd f9 e1 12 bd
       -0.11334631 0.17122513 -0.063117675 -0.035860036
0000b0 fb 2f 88 bd b8 6c 01 3e f4 08 d3 bd 05 2e 88 3d
       -0.066497765 0.12639129 -0.10304442 0.066494025
0000c0 ca 5c de bd c7 45 82 3d 5a ae 9e be f1 01 af 3e
       -0.10857542 0.06360965 -0.30992395 0.3418117
0000d0 68 22 ac 3e c9 78 84 3d b7 f2 02 3d b7 e5 95 be
       0.3362 0.064683504 0.031969752 -0.2927682
0000e0 62 c8 6c 3e a3 41 59 3e c8 06 d5 bd 98 fc 36 3e
       0.23123315 0.21216445 -0.10401684 0.17869794
0000f0 8a cb 8f bd 09 76 38 3e 84 e7 5f be ed 66 2e 3e
       -0.07021244 0.18013777 -0.2186566 0.1703145
000100 86 60 46 3e 69 43 a8 bc a9 b2 57 be 3d ea 85 bd
       0.19372758 -0.020539956 -0.21064247 -0.06538818
000110 89 20 0c bd 8c e0 04 be ad a3 9e bd 8e 96 2c be
       -0.034210715 -0.12976283 -0.077460624 -0.16854307
000120 b4 e0 9f 3e c7 db 2a be c9 6d 72 bd 8d cb 40 bd
       0.31226122 -0.16685401 -0.05918673 -0.04706912
000130 54 bf 2b be c6 cc 9f 3c 7d 45 94 bd c7 44 90 3c
       -0.16772205 0.019506823 -0.07239816 0.01761092
000140 03 93 90 be 1e 73 4b 3e 13 67 54 3d f6 fa 68 3e
       -0.2823716 0.19868132 0.05185611 0.22751984
000150 2e 0e df ba ad 85 89 3e 21 02 26 3d 4a 1a 33 be
       -0.0017017776 0.268598 0.040529374 -0.17490497
000160 cc 99 76 3d 17 f6 c4 3d 56 37 86 bd 70 32 c7 bd
       0.060205266 0.096172504 -0.06553523 -0.09726417
000170 09 42 02 3e 2d ab f8 3c 33 14 ac bd dc 3a f2 bd
       0.12720503 0.03035506 -0.0840229 -0.11827633
000180 ff 19 76 3c 2e 64 c2 3d bb 34 12 be 19 c6 08 be
       0.015020846 0.09491764 -0.14277928 -0.13356818
000190 5b e9 3b 3d 97 4e 9c 3d 01 8d 57 bd 7b f2 56 3e
       0.045876842 0.07632177 -0.052624706 0.20990936
0001a0 e2 5d 69 bd 3a 08 b7 3d 0b 9a e0 bd 1f f1 fe 3a
       -0.0569743 0.08937116 -0.10966881 0.0019450522
0001b0 97 17 3d 3e 2b 63 ca bd 4d c3 c9 3d b9 32 9d 3d
       0.1846603 -0.09882196 0.09851704 0.0767569
0001c0 42 df c2 3d c5 c7 27 be 6c 97 42 3e 4a c0 ad 3c
       0.09515239 -0.163848 0.19003075 0.021209855
0001d0 90 f6 f4 3d 4e c6 3d bc 7b c3 c3 3e 64 fa 5c be
       0.119610906 -0.011582924 0.38235077 -0.21579891
0001e0 13 0c 4f bd 62 a2 ca 3d 14 9d 32 be 5a 51 e1 bd
       -0.050548624 0.09894253 -0.17442733 -0.11001845
0001f0 2d d6 c8 3c 68 f0 ba bd 84 36 a4 bc 07 74 38 3e
       0.02451619 -0.09127885 -0.020045526 0.18013011
000200 15 a5 12 3e bf bd 8e 3e b2 bd bf 3d 67 35 44 3d
       0.14320786 0.2787914 0.093623534 0.04790249
000210 df 83 85 be 76 2f 80 bc c7 62 8d bd a3 7b 01 3e
       -0.26077172 -0.015647631 -0.06903606 0.1264482
000220 46 53 1d 3e 33 78 fb bd e3 a7 ab 3d 12 13 05 be
       0.15363798 -0.122787856 0.08381631 -0.12995556
000230 58 e7 85 3e 46 c5 3f 3e 60 50 90 bd 15 58 79 be
       0.26153064 0.18727598 -0.0704658 -0.24350007
000240 c0 3c bb be c8 9f 84 be 16 c6 eb be 4c 3b a7 be
       -0.36569786 -0.25903153 -0.46049565 -0.32662427
000250 bb d2 63 be d6 66 85 be 49 8c 40 be 48 f0 86 3e
       -0.22248356 -0.2605502 -0.18803515 0.26355195
000260 95 18 21 be e1 28 c2 3d 1e 4f d1 3e 88 a1 5e 3e
       -0.15732034 0.09480453 0.40880674 0.21741307
000270 75 31 ce bd 50 f5 ba 3d cf 65 d3 bd 49 ec 2c 3e
       -0.10068027 0.09128821 -0.10322153 0.1688701
000280 a3 96 09 3e 5f e4 d5 bd 1d d3 b3 be 9c e4 49 bd
       0.1343637 -0.10443949 -0.35122004 -0.049290285
000290 37 3e 21 be 83 0b 8c be 9c 11 38 3e 54 97 b7 bd
       -0.1574639 -0.27352533 0.17975467 -0.089644104
0002a0 9a a9 44 bd ca 05 bb 3d 2c cf 61 3e 3e 21 42 be
       -0.048013307 0.091319636 0.22051686 -0.18957993
0002b0 d1 07 2d be 1e a0 4a 3e ce 92 4a be 5d fa 93 3d
       -0.16897513 0.19787642 -0.19782564 0.072254874
0002c0 df f2 fa bc 4b f0 1a be 88 3e 43 bd 1f 3a 25 3e
       -0.030633388 -0.15130727 -0.047667056 0.16135453
0002d0 a2 40 82 bd e3 90 aa be 56 54 ba be 37 7b 23 3e
       -0.06359984 -0.33313665 -0.36392468 0.15964971
0002e0 57 42 5b 3d 21 9a 85 3e 7e b4 1f be 0d 76 b2 3e
       0.053530063 0.26094154 -0.15596196 0.3485569
0002f0 66 89 39 be 6d 86 05 be 7e 76 cc 3d 31 a9 82 be
       -0.1811882 -0.1303956 0.09983538 -0.25519708
000300 59 9a f5 3c 26 0a 02 be 6e 4b ad be 8c e1 13 3e
       0.029980825 -0.12699184 -0.3384661 0.14441508
000310 43 f4 82 bd db 2e 01 3e 2d c3 5b bd 47 73 2c be
       -0.063942455 0.1261553 -0.05365293 -0.1684085
000320 a5 f4 f7 3d 60 b0 7a be f1 c9 85 bd cd a8 89 3d
       0.12107209 -0.24481344 -0.06532658 0.06721649
000330 9a 11 77 3e 04 77 8f bd ed aa 8c 3d 86 15 94 3d
       0.24127808 -0.07005122 0.06868539 0.07230668
000340 c7 5d 49 be e5 50 4d 3d 3c a6 5b be 42 87 46 3d
       -0.1966468 0.050125975 -0.21450132 0.048468836
000350 b2 20 e3 3d 98 d3 7f be 47 b3 f7 3d 08 66 94 3e
       0.110902205 -0.2498306 0.12094741 0.28984094
000360 ce 0c 82 bc cf 09 65 be 24 61 c5 bb 3e f0 ed 3d
       -0.015875246 -0.22367023 -0.006023543 0.11618088
000370 10 a1 47 3e 5c 12 82 3e f0 91 9c be a6 82 03 3d
       0.19495034 0.25404632 -0.3058009 0.032107018
000380 2b b4 07 3e dc 0b de bd a1 20 2f bd 17 70 b6 bc
       0.13252322 -0.10842106 -0.042755727 -0.022270245
000390 50 7c 4a 3e 68 76 9f 3e ba 44 c2 bd 51 1c 85 3e
       0.19773984 0.31145024 -0.09485765 0.25998166
0003a0 df 0c 3e bd 72 7e de 3c 23 16 85 be 0d e3 c1 3c
       -0.046398994 0.027159903 -0.2599345 0.023667837
0003b0 c4 71 54 3e 30 a1 67 be 48 be 08 3e 2b 4f bc 3d
       0.20746523 -0.22620082 0.13353837 0.091947876
0003c0 d7 ac 08 be d2 7d a1 be 41 b3 9e 3e 5b 8d 18 be
       -0.13347183 -0.31541306 0.30996135 -0.14897673
0003d0 92 8f 0f be 91 77 f5 3d 63 3d ff bc a8 67 39 3e
       -0.14019611 0.11985696 -0.031157201 0.18105948
0003e0 30 40 b4 3c 71 b0 2e be f0 b8 05 bd 01 8f f2 3d
       0.022003263 -0.17059495 -0.032647073 0.11843682
0003f0 b6 c1 18 be 5f a2 3e 3d 9f 08 b4 be 70 24 34 be
       -0.14917645 0.046541568 -0.35162827 -0.17592025

encoder.enc_correct.0.bias f4 [32]
000000 cf 72 aa 3e 69 d4 fa bd e2 61 15 3e 25 19 14 3e
       0.33290717 -0.12247545 0.1458812 0.14462717
000010 1b b4 11 3e 34 d5 dc bd 72 57 8b 3e 0b aa b7 bc
       0.14228861 -0.10782853 0.27215153 -0.02241995
000020 2f 03 87 3e d0 c5 c8 3d f0 a8 54 3e b2 20 0f 3e
       0.26369616 0.09803355 0.2076757 0.13977316
000030 00 63 ae 3e 67 e7 91 3e 84 ba 27 3e e3 de b6 3e
       0.34059906 0.28496858 0.16379744 0.35716924
000040 47 83 8d 3d ea ae 80 bb 88 00 03 3e 5f 39 01 3e
       0.06909805 -0.0039271014 0.12793171 0.12619542
000050 30 89 93 3d d3 73 0b 3e 95 a6 b8 bd f2 3d c9 3d
       0.07203901 0.13618402 -0.09016148 0.09826268
000060 c8 b9 16 3e 2a 54 05 be b4 b5 5e 3b f2 6b 2b 3e
       0.14719307 -0.13020387 0.0033982815 0.16740397
000070 54 bb a7 3d 81 92 e7 3d 3b c7 5b 3e 0f c9 6d 3e
       0.08190027 0.1130724 0.21462719 0.23221229

encoder.enc_correct.3.weight f4 [64, 32]
000000 77 45 c8 bd e8 fc 73 bd 08 5f bf be e9 12 83 be
       -0.09778874 -0.059567362 -0.3737719 -0.25600365
000010 bf 17 21 3d 04 ac a7 bd 6a 14 fb 3d a5 51 84 be
       0.039329287 -0.08187106 0.12259753 -0.2584354
000020 51 22 e0 bd 32 ac 84 3d d0 f3 36 3d 51 f0 47 be
       -0.10944045 0.06478156 0.04466611 -0.19525267
000030 3b 4a 24 3e 22 33 61 3d 77 bd 30 3d 02 49 05 be
       0.16043942 0.054980405 0.043149438 -0.13016132
000040 e8 fb 1f bc 01 d4 bb 3d ce cf 21 bd f7 8a 54 bd
       -0.009764649 0.09171296 -0.03950482 -0.05189034
000050 1e 4d 9c 38 5e 61 e0 3c 00 f6 04 3d 9b 81 97 3d
       7.453024e-05 0.027390178 0.032461166 0.07397767
000060 30 fd e9 3b b6 5f 85 3d c1 d2 43 be 06 7f e7 3d
       0.007140778 0.06512396 -0.19123365 0.11303525
000070 f8 c2 90 be 4c 42 52 3e 45 67 5b 3e 4d 2c c3 3d
       -0.2827375 0.20533103 0.21426113 0.09529934
000080 a3 7e 17 bd 72 aa 0e 3e b7 8d 67 3d 7b 4a 34 bd
       -0.036986005 0.13932207 0.056531634 -0.044016343
000090 0d a1 8d be 5b 3d 31 be 61 ae 35 be cc 5f 67 bd
       -0.27661934 -0.17308562 -0.17742302 -0.056487843
0000a0 4b fd ce 3d d4 10 41 3e 32 7a 9f bc b1 69 dd 3d
       0.101069055 0.18854076 -0.019467447 0.10811175
0000b0 3a 96 ea bc 61 c8 db bd 4a aa 4e be c5 8e ca bd
       -0.028636087 -0.107315786 -0.20182148 -0.098905124
0000c0 cf 9f 65 be 24 c6 44 be a0 91 1e 3e b3 71 2c 3e
       -0.22424243 -0.1921621 0.15485239 0.16840248
0000d0 6f ca d3 3d 12 c6 32 3d 63 84 c5 bc d5 dd 90 bd
       0.103413455 0.043645926 -0.024110978 -0.07073561
0000e0 22 7a ec bc 05 71 48 bd 2d 9f 3a 3e 1a f9 a5 3d
       -0.028866831 -0.04893591 0.18224783 0.08104153
0000f0 49 59 19 bb 33 0c 38 be 7a b2 55 be 87 d1 98 be
       -0.0023399165 -0.17973404 -0.20868865 -0.29847357
000100 a5 4f 9e be be 1b ac bd a9 a1 75 be c7 6d 88 3b
       -0.3092014 -0.08403729 -0.2398745 0.004163477
000110 06 17 4b bd 12 98 bc 3d e5 c4 d7 be 93 59 d1 3d
       -0.049582504 0.092086926 -0.42142406 0.10222163
000120 09 b6 5a be 16 e3 85 bd c3 d9 8e bc d2 87 1a be
       -0.21358503 -0.06537454 -0.017437821 -0.15090874
000130 fe 3a d1 be ca 06 3c 3e a6 05 33 be ee 15 b4 be
       -0.4086532 0.18361965 -0.17482623 -0.3517298
000140 34 c4 79 be 0f bc 74 be a9 2f 93 be 56 c9 0c be
       -0.24391252 -0.23899864 -0.287473 -0.13748679
000150 97 c0 6e be 1a 9b 92 be 20 ad 4d be 2c c2 3e be
       -0.23315655 -0.28633958 -0.20085573 -0.18628758
000160 2b 52 3c be bf 44 c4 3d f4 46 17 be eb 79 d8 bd
       -0.1839072 0.09583425 -0.1477316 -0.10570129
000170 77 77 7c bd e7 cc b0 bd cc 2b 32 be 25 44 38 be
       -0.061637368 -0.08632832 -0.1739952 -0.17994745
000180 72 68 a9 3e 5e af 8a bb c0 83 88 3e 6a 5b b5 3e
       0.33087498 -0.004232331 0.26663017 0.35421306
000190 71 e5 29 3e 7a 1c 8f 3d a5 1e 17 be 6f 67 39 bd
       0.16591431 0.06987853 -0.14757784 -0.045264658
0001a0 c6 29 2b bd 38 e0 90 3d e7 9e ad 3e b0 9c 74 3e
       -0.041787885 0.07074016 0.33910295 0.23887897
0001b0 7b bf 21 3e be 01 d6 3a 84 00 2c 3d ea a6 58 3e
       0.157957 0.0016327424 0.04199268 0.21157423
0001c0 3c c0 59 ba 33 e8 5b 3d b6 d0 cd bd b9 f9 e6 3d
       -0.0008306538 0.05368824 -0.10049574 0.112780996
0001d0 09 e8 d7 3c d7 25 b7 bd ff 49 20 be f1 10 70 3e
       0.02635576 -0.08942764 -0.15653227 0.23443963
0001e0 b4 be db 3d 3b 5a eb bd 97 aa c6 3d 1d 69 72 3e
       0.10729733 -0.114918195 0.09700506 0.2367291
0001f0 cc ce c8 bd b6 7e a3 bd 55 fd 5f bd f8 b1 0d be
       -0.098050684 -0.079831526 -0.054684956 -0.13837421
000200 7e df a6 be 69 32 65 be 95 50 7b be d9 28 86 be
       -0.32592386 -0.22382511 -0.24542458 -0.2620304
000210 ba 9b 7d bd 11 69 17 3e 82 f5 30 be 7c 6e 27 be
       -0.06191609 0.14786173 -0.17281154 -0.1635074
000220 a3 01 85 be d2 02 b5 be eb fc 3f be c5 17 44 be
       -0.2597781 -0.35353714 -0.18748824 -0.19149692
000230 c7 56 2c be 40 29 24 3e d1 c2 06 be f2 2e 24 be
       -0.16829978 0.1603136 -0.13160254 -0.16033533
000240 b1 24 0f be fb f2 86 be 04 44 07 be a3 74 49 be
       -0.1397884 -0.26357254 -0.1320954 -0.196734
000250 3e b0 92 be 7e 7b 98 be 37 c0 18 be ff 0a 34 be
       -0.28650087 -0.29781717 -0.14917074 -0.1758232
000260 d0 b1 b2 be ad f5 8c be 6c fd 9d bc c1 e2 b0 bd
       -0.34901285 -0.27531186 -0.01928588 -0.08637
000270 48 93 a7 be fc e5 57 3d b0 bf 62 be 46 9c 42 3e
       -0.32729554 0.052709565 -0.22143435 0.19004926
000280 ae ae 7a 3d 53 8d a5 3d 8d 50 85 3c ca a4 13 3d
       0.061201744 0.08083596 0.016273761 0.036045827
000290 89 db bd bd 1a cb e3 bd 8f e9 fe bd 4a f3 70 3e
       -0.09270389 -0.11122723 -0.124468915 0.23530307
0002a0 0d eb 8f 3e 09 63 5a 3e a2 17 3a 3e b2 22 0c 3e
       0.28109017 0.21326841 0.18173078 0.1368511
0002b0 17 8a 23 be ad 9d 11 3a c2 5c 76 3e 2b ca 27 bd
       -0.15970646 0.00055548066 0.24058822 -0.040964287
0002c0 53 e9 14 3e f9 a1 c4 3d b6 bc 99 3e 9e 06 8e 3e
       0.14542131 0.09601206 0.30026788 0.27739424
0002d0 46 77 28 3e d0 5b a5 3d 13 6e b0 3d 30 74 f4 3d
       0.16451749 0.080741525 0.08614745 0.119362235
0002e0 6d e2 c2 bb 1e 71 00 3c 20 f6 88 3e 4e e9 9d 3e
       -0.005947402 0.007839469 0.26750278 0.3084206
0002f0 e9 43 ea 3d e4 f5 0a 39 59 ec 0b be 9d ee 3f 3e
       0.11438734 0.00013252307 -0.13664378 0.18743367
000300 d2 4d 07 bf dd b2 a1 be c1 ac 07 be 13 61 53 be
       -0.5285312 -0.31581774 -0.13249494 -0.206425
000310 14 00 22 be 93 d4 85 3c b9 13 b5 3d 6c 05 0c 3e
       -0.15820342 0.016336715 0.088416524 0.13673943
000320 17 24 5f be f5 5e 10 3e c6 1f 00 bf 5a 0e ba be
       -0.21791111 0.14098723 -0.5004848 -0.36339074
000330 af cf da bc 7d fd 31 3e 77 87 9c 3d 87 91 8b be
       -0.02671036 0.17381854 0.07643025 -0.27259466
000340 51 0f 21 3e e4 1b 96 be 9a b9 a6 bd ae 9c d8 be
       0.15728499 -0.29318154 -0.081408694 -0.42307037
000350 03 3a c6 3d a1 ff b1 be 74 fb 84 3e 2f f3 45 be
       0.096790336 -0.34765342 0.25973094 -0.19331048
000360 86 b5 cb be 1f 8b 0c 3e b7 81 bf 3d 12 ce 0e be
       -0.3978693 0.13724945 0.09350913 -0.13945797
000370 18 81 f5 bd a6 76 93 3e 3b fd e7 3d a6 9e b5 3e
       -0.11987513 0.2880146 0.11327597 0.35472602
000380 b0 cf 01 be f7 4c 5f 3e 23 a8 fe bc 61 2b c9 bd
       -0.12676883 0.21806704 -0.031086033 -0.09822727
000390 3e 33 1e bd a4 a6 e9 bd c1 2f 4b 3c 08 b3 12 be
       -0.038623087 -0.11408737 0.012401522 -0.14326108
0003a0 2f b9 3f be 54 1b 07 be a1 4c 4f be f4 be 4e be
       -0.18722986 -0.13194019 -0.20244075 -0.2019003
0003b0 db d6 d0 3c 1a 1e ad 3e 76 26 1d 3e 60 44 fd 3d
       0.025493076 0.33812028 0.15346703 0.12366557
0003c0 2c 78 69 bd fa f3 34 bd 5a 0e 74 bd 10 b6 4c bd
       -0.05699937 -0.044177987 -0.059584 -0.049978316
0003d0 60 39 f8 bd c9 a5 65 be 37 a2 c4 3d a2 c9 3b 3e
       -0.121203184 -0.22426523 0.096012525 0.18338636
0003e0 3b 19 f7 bd eb ac 27 be b4 14 f5 3d 94 92 78 be
       -0.12065359 -0.16374557 0.119668394 -0.24274665
0003f0 d6 c0 52 3e 2b c2 ca 3e b3 72 d6 3d 23 c0 03 3e
       0.20581374 0.39601263 0.10471096 0.12866263

encoder.enc_correct.3.bias f4 [64]
000000 79 34 80 3e dd 5a d4 be 13 c0 01 bf 8d 04 f8 3d
       0.25040033 -0.41475573 -0.50683707 0.12110243
000010 d2 a1 26 be 91 9e f6 bc f9 86 da 3c 5e de 0d 3e
       -0.16272667 -0.030104907 0.026675688 0.13854358
000020 38 0e b4 3d 67 67 81 be 46 72 1f 3e d4 31 01 3d
       0.087917745 -0.25274202 0.15570936 0.03154166
000030 de c3 06 3f f0 c0 0c 3f 2e ae 20 be 16 68 46 3c
       0.5264262 0.549819 -0.15691444 0.012109777
000040 7b 1a 21 3f e8 7e ff 3d d7 fa 26 3f d3 26 c4 3e
       0.6293103 0.12475377 0.652265 0.3831087
000050 55 88 f0 3e 43 c5 e0 3e f1 bf 26 3f 9f b1 ce 3e
       0.46979013 0.439005 0.6513663 0.4036989
000060 f2 74 f9 bd 43 2d fa 3e 39 60 54 bc 70 7c 02 bf
       -0.12180509 0.48862657 -0.012962394 -0.50971127
000070 9e c6 41 bd 5d ce 00 bf 32 13 d0 be db 96 3e 3e
       -0.047308557 -0.50314885 -0.40639645 0.18612234
000080 8c 9b 33 be d2 95 9b be 86 4f 65 bd 7a ef e5 be
       -0.17539805 -0.3038774 -0.055984043 -0.4490927
000090 f4 14 0a 3e f9 e5 8a bc e0 6d 11 3f 33 4f 0a 3e
       0.13484555 -0.016955363 0.5680828 0.13506775
0000a0 c8 39 52 3b 1c 4e d6 be f9 e4 1b 3e e1 0b 7c 3e
       0.0032077897 -0.41856468 0.15224065 0.24613906
0000b0 5f 71 e7 3e 54 cd 12 3f 27 52 e3 3e 21 c2 44 bd
       0.45203683 0.57344556 0.44398615 -0.0480367
0000c0 84 37 24 3d 14 83 dc be 3a 5e 9b be 96 f2 98 3d
       0.040092006 -0.43068755 -0.30345327 0.074681446
0000d0 3b ba 2c bd f0 69 06 bf a0 a5 8d 3e 66 61 e1 bc
       -0.04216979 -0.525054 0.27665424 -0.027512264
0000e0 97 e7 a4 be e3 69 84 be b9 3e ef 3c e8 4e aa be
       -0.3220794 -0.25862035 0.029204713 -0.33263326
0000f0 f3 80 e9 3e fb 3b c7 be fc ed 15 bd be 0f c9 be
       0.45606193 -0.3891295 -0.036603913 -0.39269823

encoder.enc_wrong.0.weight f4 [32, 64]
000000 33 6f b5 3b 2a 9a 7f 3d 0e b0 74 3e 57 2a 10 be
       0.0055369376 0.06240288 0.23895285 -0.14078651
000010 ef 43 d9 bd 82 f0 1f be 30 66 d6 3d 50 f3 83 be
       -0.106086604 -0.1561909 0.104687095 -0.2577157
000020 73 2e 96 be 6c ae 84 bd 39 a9 08 3d c8 eb 69 be
       -0.29332313 -0.06478581 0.03336451 -0.2284385
000030 6f 95 29 be 81 56 dc 3d b0 50 4b 3d 61 5e fa bc
       -0.1656091 0.10758687 0.049637496 -0.030562581
000040 73 ee 2c bd 8c 7b 1c be be 10 55 bd 5a 87 de 3c
       -0.04221959 -0.15281504 -0.05201792 0.02716415
000050 17 89 ea bc 74 b1 b9 bd 08 93 a3 3e 8e 2c d1 3e
       -0.028629823 -0.090670496 0.31948113 0.40854305
000060 f3 36 05 bd 4c f8 db 3d 0f 2d 7e 3d e2 79 51 3d
       -0.032523107 0.10740718 0.06205469 0.051141627
000070 15 66 38 3e 51 63 24 3e a8 c9 75 be 03 21 dc be
       0.18007691 0.16053511 -0.24002707 -0.42993936
000080 16 97 17 be f7 6b 24 3d e9 bc 70 3e 4c 3c a5 3d
       -0.14803728 0.040142026 0.23509564 0.08068141
000090 58 2c af 3c ef 95 30 be 26 9b 20 be f9 0c 5f bc
       0.02138345 -0.17244695 -0.15684184 -0.013613933
0000a0 30 3f 6a 3e c5 81 ed 3c 1c b7 04 3d 3d 33 52 bd
       0.22875667 0.028992543 0.03240119 -0.051318396
0000b0 24 00 98 3d 55 e0 0d 3d e2 e7 d6 ba 80 8e 14 3e
       0.07421902 0.034637768 -0.0016396011 0.14507484
0000c0 1f 16 1b be e8 24 00 be da 0e 43 3e d3 6b 0d 3e
       -0.15145157 -0.12514079 0.19048634 0.13810663
0000d0 41 38 49 bc b0 5a 71 3e 4d af 1e 3e f4 15 cb 3c
       -0.012281478 0.23569751 0.1549656 0.024790742
0000e0 34 e0 8d bd 1a 9a 82 bc b5 f4 21 3d 7a 37 84 3e
       -0.06927529 -0.015942622 0.03954001 0.25823575
0000f0 72 57 ec bd 82 3e 65 bc 66 33 cf 3d 43 ed 56 3e
       -0.11540116 -0.013991954 0.10117225 0.20988946
000100 2a bf 16 3a d4 6b 1d bd 65 cb ea bd c6 54 9c 3a
       0.00057505316 -0.03843291 -0.11464576 0.001192712
000110 4c e2 0e 3e ea 87 57 3e 0d 05 a1 3e 1d df 75 3d
       0.13953513 0.21047941 0.31449166 0.06002723
000120 49 88 59 be b5 e1 f6 3d 4c 3a 9b 3e 9c fe 37 be
       -0.21243395 0.12054769 0.30317914 -0.1796822
000130 61 96 f6 3a c8 f2 94 3e 13 24 15 bc 66 4d c6 3d
       0.0018813127 0.29091477 -0.009102839 0.09682731
000140 17 41 3c 3e 28 38 a7 3d c5 3c 86 be 7f ff 91 bd
       0.18384205 0.08165008 -0.26218238 -0.0712881
000150 c7 d0 46 be 64 20 8d 3c 1e 79 e1 3d 8a 71 a8 3d
       -0.1941558 0.01722736 0.110094294 0.08224781
000160 35 be ec bd eb 4c cb bd 82 91 af bd 8b 4a db bd
       -0.115597166 -0.0992678 -0.08572675 -0.10707577
000170 a5 9c 49 bc 7b 4a d1 3e ba 7d 3e be 80 df 4b bd
       -0.012305413 0.40877137 -0.18602648 -0.049773693
000180 24 bf 75 3e 9a b7 ba bd 01 2a b0 bd a8 a8 4e be
       0.23998696 -0.091170505 -0.086017616 -0.20181525
000190 e5 7e 83 3e 78 b5 a3 be a6 5c 83 bd dd 0f be be
       0.2568275 -0.31974387 -0.06414156 -0.37121478
0001a0 22 b9 61 3d d7 a7 b4 bd b4 94 f7 3c 1b 77 06 be
       0.055108197 -0.088210754 0.030222274 -0.13131373
0001b0 ba 63 d1 3c 04 5f 59 be cc 3c 27 be c8 5e 12 be
       0.025560249 -0.21227652 -0.16331786 -0.14293969
0001c0 dd ea 3b be 58 4e 07 be 92 84 90 3e 01 9a 22 3d
       -0.18351312 -0.1321348 0.28226143 0.03969765
0001d0 ec be 33 be 57 1d 67 3d 95 e5 41 3d 23 11 2a bd
       -0.175533 0.056424465 0.047338087 -0.04152025
0001e0 97 b2 95 3e ef 31 db bc ad f1 a7 bc ec 03 1e 3d
       0.29237816 -0.026757209 -0.020500982 0.03857796
0001f0 2a 8c 58 3e 08 0b 3c be 67 f5 49 bc dc 53 ce bc
       0.21147218 -0.18363583 -0.012326575 -0.025186472
000200 93 46 16 3d b8 91 51 be 0c d9 aa 3e 40 aa 57 bd
       0.0366884 -0.20465744 0.3336872 -0.052652597
000210 24 04 a7 3c a0 b1 f8 bd b1 a7 1b be a3 0a a6 bd
       0.020387717 -0.12143254 -0.15200688 -0.081074975
000220 f7 c0 3d be 6f 7e 72 be 98 80 a4 3d d1 a1 d4 3d
       -0.18530641 -0.23681043 0.0803234 0.103824265
000230 a9 f8 88 3d 31 a7 79 be f6 60 09 3e 09 93 60 3d
       0.06688053 -0.24380185 0.13415894 0.054827724
000240 23 64 05 be d1 23 07 be 16 99 1b 3d 37 07 9f bd
       -0.1302648 -0.13197257 0.03798779 -0.07765048
000250 39 1f 90 3e 9e 7f 0c 3e af 35 77 3e 07 ff f3 bc
       0.2814882 0.13720557 0.24141572 -0.029784692
000260 5d fd fc bd a1 09 ab bd d5 ce 1f bc 0f fe 17 be
       -0.12353013 -0.08351446 -0.009753902 -0.1484301
000270 58 96 8a bd c0 5f 4d 3d 85 f2 b8 3d 5e 1f 09 be
       -0.06766957 0.050140142 0.09030632 -0.13390872
000280 31 35 cd 3d 92 fd 3a be 45 f4 fb bd fd de ea bd
       0.10019911 -0.18260792 -0.1230245 -0.11468313
000290 2e a6 74 be 0f bf e6 bc 79 86 a0 bd c0 2f cf bc
       -0.23891518 -0.028167276 -0.078381486 -0.025291324
0002a0 eb 7b 61 3e 3e 8c 31 3d 3b 9d 88 3e 9e 25 25 bc
       0.22019927 0.043346636 0.26682457 -0.010079769
0002b0 73 1e af bd 3a 3b 7f 3c 89 dc 10 3e 92 35 62 be
       -0.085507296 0.015578086 0.14146627 -0.22090748
0002c0 8f d4 fa bd 7d 31 02 be 00 67 7e be f5 b6 3a 3e
       -0.122475736 -0.12714191 -0.24843979 0.18233855
0002d0 a6 78 58 be f6 d6 ef 3c e9 9c 5b 3e 2e 96 87 bc
       -0.21139774 0.029277306 0.21446575 -0.016551103
0002e0 d8 c6 e2 bd 02 22 6d bd 71 d7 6a be eb f4 c5 bd
       -0.11073083 -0.05789376 -0.22933747 -0.09665855
0002f0 5d 56 7d be a8 27 a2 3d 49 9e 65 be a8 d4 e3 bb
       -0.24739976 0.0791772 -0.22423662 -0.006952841
000300 8e 35 10 3e 5e 79 bb 3c a0 4c 59 3e f5 f8 b0 bc
       0.1408293 0.02288502 0.21220636 -0.021603087
000310 5d 78 8b bd 7e 9b 3d be 91 4f 24 be 67 cd ec 3c
       -0.06810067 -0.18516347 -0.16045977 0.028906537
000320 37 51 47 3d d6 01 d9 bc 87 52 5f be 33 0f 3f 3e
       0.048661437 -0.026490133 -0.21808825 0.18658142
000330 54 0e 87 bd 21 3d 8f be 01 ee ff bd e7 30 95 3d
       -0.0659453 -0.27976325 -0.124965675 0.07284718
000340 9b 09 69 be 34 d9 f7 3d 73 5e d0 3e b0 8e 56 3d
       -0.2275757 0.12101975 0.4069706 0.05238217
000350 f9 fc 97 bc f0 51 ef 3d 7b 8e 2b 3e ae 94 91 3e
       -0.018553244 0.1168555 0.1675357 0.28433746
000360 58 af 33 3e 46 6a 9e bd 5a 64 2d be 41 9e b4 3c
       0.17547357 -0.07735114 -0.16932812 0.022048118
000370 00 45 b5 3d 44 c6 7f 3e 7a e3 44 3e ff 01 ab be
       0.08851051 0.24977976 0.192274 -0.3339996
000380 ee e7 79 be fa e4 61 bd 65 43 99 3e 4c aa 38 3e
       -0.2440488 -0.05515001 0.2993423 0.18033713
000390 47 4a 36 3e 4b c4 97 3d dc 0b 19 be 0b 85 03 be
       0.17801772 0.07410487 -0.1494593 -0.1284372
0003a0 c0 81 85 3d 19 15 58 3d 15 1e 0e bc 66 c5 b9 3c
       0.065188885 0.052754495 -0.008674164 0.022677135
0003b0 97 fa 27 be d4 03 59 3e df 6b 1f be 2b 7c a7 3d
       -0.16404186 0.21192867 -0.15568493 0.0817798
0003c0 31 33 b2 3d cb 96 a7 3e bb 42 17 3c 73 80 1f bd
       0.0870117 0.32732233 0.009232218 -0.038940858
0003d0 d2 9d 93 3d cb ca 39 3e 47 aa 2f 3e 31 d4 18 3d
       0.07207836 0.18143766 0.171548 0.037311736
0003e0 22 aa 10 bc 3c 87 81 3d 41 6e 0e bb ed 72 5c be
       -0.008829625 0.06324622 -0.0021733197 -0.21528216
0003f0 81 90 6b 3d f7 3e 07 be ea a2 67 3b 02 f7 40 3e
       0.057510857 -0.13207613 0.0035344907 0.18844226

encoder.enc_wrong.0.bias f4 [32]
000000 57 26 19 be a6 3c 88 3c 73 c4 49 3e 68 b6 33 3e
       -0.14956032 0.016630482 0.19703846 0.17550051
000010 a3 82 ab 3c d6 49 fb bd ac eb 33 3e 8b d2 99 3d
       0.020936316 -0.122699425 0.1757037 0.07510861
000020 42 b3 5c 3e ae 2e b4 3d 44 77 4d be 78 98 0d be
       0.21552756 0.08797966 -0.20065027 -0.13827693
000030 9e 35 d5 3e 2e f8 03 3d 56 5f 3d 3d 6e 7e 9c 3e
       0.4164247 0.032219104 0.046233498 0.30565208
000040 d4 03 58 3e 39 e5 df 3d 51 ed 35 3e 58 23 02 3e
       0.2109521 0.109323926 0.1776631 0.12708795
000050 21 97 d7 bd 8c 8d 6c 3e 60 09 08 3e 27 00 7f 3e
       -0.105268724 0.23100871 0.13284826 0.24902402
000060 d3 cd d6 bd 47 20 25 3c 5c 14 8e be 79 14 22 3e
       -0.104884766 0.010078496 -0.27749908 0.15828122
000070 ae b9 14 3e 8c 6e d8 3e 20 5d a8 bb 5c f4 37 3d
       0.14523956 0.4227184 -0.0051380545 0.044910774
