streamlit/temp_model.pt (torch, 655181 bytes, 44 tensors)

memory_key f4 [98, 64]
0	0xbf90804a	-1.1289151
1	0x3e76ab9c	0.24088901
2	0x3f9d7463	1.2301143
3	0x3daa816b	0.08325466
4	0x3f648c12	0.8927623
5	0x3df5e7c8	0.120070994
6	0x3f510f52	0.81664
7	0x3f2a8ca6	0.6662086
8	0xbe759f58	-0.23986566
9	0x3f10185a	0.5628716
10	0x3ebba18f	0.36646697
11	0xc037ede8	-2.8738956
12	0xbfe28070	-1.7695446
13	0xbf713660	-0.94223595
14	0x3dee7b76	0.11644642
15	0xbed2e1a1	-0.41187766
16	0x3df988f0	0.12184322
17	0xbedc403d	-0.4301776
18	0x3fba291c	1.4543796
19	0xbfab6d45	-1.3392721
20	0xbff075b8	-1.8785925
21	0x3ec2f5d6	0.38078183
22	0xbe00ddc1	-0.12584592
23	0x3fe2f38c	1.7730575
24	0xbfcf7264	-1.6206784
25	0x3fb8c758	1.4435835
26	0xbfcda644	-1.6066365
27	0x3e6dd28c	0.23224849
28	0xbcea301e	-0.028587397
29	0x3dffba07	0.12486654
30	0xbf8ccae5	-1.0999418
31	0x3ff15c95	1.8856379
32	0x3fa57b62	1.2928278
33	0xbfa6336a	-1.298444
34	0xbf8c35cc	-1.0953918
35	0x3f86bc04	1.0526128
36	0xc00401b4	-2.062604
37	0xbeb3886a	-0.35065013
38	0xbe5cbe39	-0.21556939
39	0xbf17a6c2	-0.5923883
40	0xbf9e41fb	-1.2363886
41	0x3fa7092e	1.3049676
42	0xbf314a3a	-0.69253886
43	0xbe25c9e7	-0.16190301
44	0x3fa07531	1.2535764
45	0x3fcb3b51	1.5877477
46	0x3fa56a4e	1.2923067
47	0x3f2d12ed	0.67607003
48	0x3e2180f6	0.15771851
49	0x3fa9fcb3	1.3280243
50	0x3fbe045f	1.4845084
51	0xbe90daa9	-0.28291824
52	0x3f7210d9	0.9455696
53	0xbfeb591a	-1.8386567
54	0xbeab87c7	-0.33502027
55	0x3f33991b	0.70155495
56	0x3f471ef7	0.77781624
57	0x3f31b8b0	0.69422436
58	0x3e9d63cd	0.30740204
59	0xbe9fc7d0	-0.31207132
60	0xbfd70d2c	-1.6800895
61	0xbd66ae57	-0.056318607
62	0x3d0ab1d1	0.033860985
63	0x3ce6f5ae	0.028193321
64	0x3fd1cd11	1.6390706
65	0x3f322987	0.69594616
66	0x3ec29eb4	0.38011706
67	0x3f265835	0.64978343
68	0xbf281a0c	-0.65664744
69	0x3fb5b988	1.4197245
70	0x3f04b826	0.5184349
71	0xbe36e175	-0.17859443
72	0xbff08ea2	-1.8793528
73	0x3e833b10	0.25631
74	0xbf2084b1	-0.6270247
75	0x3eaa9592	0.33317238
76	0xbf2779c5	-0.6542018
77	0xbedae18c	-0.42750204
78	0x3f289cd3	0.65864295
79	0xbf005871	-0.5013495
80	0xbf010aae	-0.5040692
81	0x3feeb741	1.8649675
82	0x3eac7bbb	0.3368815
83	0x3f01ab9a	0.5065247
84	0x3ee60f21	0.44933417
85	0x3d9a39a8	0.07530528
86	0xbf4f793d	-0.8104437
87	0x4002f986	2.0464797
88	0xbfadf4b5	-1.3590304
89	0x3ea97b90	0.33102083
90	0xbedf5c44	-0.4362508
91	0xc0063b13	-2.0973556
92	0x3eb280bd	0.34863845
93	0xbf8da004	-1.1064458
94	0xbf0aec6a	-0.5426699
95	0x3eae7e54	0.34080756
96	0x3eaae957	0.3338115
97	0x3e405d36	0.18785557
98	0x3ec74296	0.3891799
99	0xc01b0b97	-2.4225824
100	0x3e983f10	0.29735613
101	0x3fa5d86d	1.2956673
102	0xbf765931	-0.96229845
103	0xbdb3cf88	-0.08779818
104	0xbf8c01fe	-1.0938108
105	0x3f093568	0.53597116
106	0x40150415	2.3283741
107	0xbf986fac	-1.190908
108	0xbf25855d	-0.6465662
109	0x3fb695d9	1.426448
110	0xbf8b11b9	-1.0864784
111	0x3fc1d265	1.5142332
112	0x3e853f74	0.26024973
113	0xbee7423a	-0.45167714
114	0x3f75b02c	0.9597194
115	0x3e6bad0b	0.2301523
116	0xbd1fc954	-0.03901036
117	0xbfd02024	-1.6259809
118	0xbfabae77	-1.3412617
119	0xbf8b162f	-1.0866145
120	0xbdfd239a	-0.12360306
121	0x3f9f3136	1.2436893
122	0x3f9d5c82	1.2293856
123	0xbe63320a	-0.22187057
124	0x3ff21f38	1.8915777
125	0xbf7453a7	-0.95440143
126	0xbfee115b	-1.8599046
127	0x3f3a0f47	0.7267956
128	0xbcdb126d	-0.026742185
129	0x3f4ed10f	0.8078775
130	0xbecc16f3	-0.3986126
131	0x3f8052ce	1.002527
132	0x3fd5b4b1	1.6695768
133	0x3ee93163	0.45545492
134	0x3f76ec30	0.96454144
135	0xbfa8d6c4	-1.3190541
136	0xbf85edb8	-1.0463171
137	0xbebff988	-0.37495065
138	0xbe9fd1ec	-0.31214845
139	0xbfc2d751	-1.5221959
140	0x3ee1c48f	0.44095275
141	0x3e67a111	0.22620036
142	0xc0079a2c	-2.118785
143	0x3eb8b137	0.36072704
144	0x3f224499	0.6338592
145	0xbf9f1989	-1.2429668
146	0xbe3bf7c3	-0.18356232
147	0x3e33714f	0.17523693
148	0x3e7eebfa	0.24894705
149	0x3f4dae58	0.8034415
150	0x3f3403c3	0.7031824
151	0x3fbb8ae3	1.465176
152	0xbd187984	-0.03722526
153	0x3e07e896	0.13272318
154	0x3e209eb0	0.15685534
155	0x3df535fd	0.11973188
156	0x3cc82723	0.024432724
157	0xbd11c274	-0.035585836
158	0x3f28bfc1	0.65917593
159	0x3f626da6	0.8844856
160	0x3fa81dca	1.3134091
161	0xbf8d8757	-1.1056927
162	0xbf75d2e7	-0.96024936
163	0xbf7d3d13	-0.98921317
164	0x3f2ce05f	0.67529863
165	0xbf3d7a43	-0.7401468
166	0x3f0b1a55	0.54337054
167	0xbf827091	-1.0190603
168	0xbf2b2b43	-0.6686289
169	0xbf78cfcc	-0.9719207
170	0x3fc5c707	1.5451363
171	0xbf93266c	-1.14961
172	0x3dc32d8f	0.09530174
173	0x3f3c4173	0.7353737
174	0xbea386ae	-0.3193869
175	0xbf672729	-0.9029413
176	0x3e4d5d15	0.20055039
177	0x3ee0245d	0.43777743
178	0x3fe39320	1.7779274
179	0x3e0504b1	0.12990071
180	0xbf5eb016	-0.86987436
181	0xbef5f69a	-0.48039705
182	0xbec8bb35	-0.39205328
183	0x3ef39d9d	0.47581187
184	0xbe833d88	-0.25632882
185	0xbfd01472	-1.625624
186	0x3f213c6f	0.6298284
187	0xbe0545ea	-0.13014951
188	0xbe7e38c0	-0.24826336
189	0xbf654478	-0.895576
190	0xbfa29110	-1.270052
191	0xbf35c965	-0.7101043
192	0x3f496512	0.78669846
193	0x3e5162d6	0.20447859
194	0xbea53f5b	-0.322749
195	0x3fab76fc	1.3395686
196	0x3f015db5	0.5053361
197	0x3e890187	0.26758978
198	0xc011b979	-2.2769454
199	0x3be28620	0.0069129616
200	0x402a1c11	2.657963
201	0x3e7fbeff	0.24975203
202	0xbf248ad6	-0.64274347
203	0x3fae8558	1.3634443
204	0xbfe540ec	-1.7910438
205	0x3e34015f	0.17578648
206	0x3f80b54b	1.0055326
207	0xbe93b45a	-0.28848535
208	0x3fad8dee	1.3558939
209	0xbda1587b	-0.078782044
210	0xc005957b	-2.0872486
211	0xbfc6637e	-1.5499113
212	0xbf4e5669	-0.806006
213	0x3f479b2d	0.77971154
214	0xc00a9568	-2.165369
215	0x3ecafbda	0.39645272
216	0x3e52be89	0.20580496
217	0x3f0d256b	0.5513522
218	0x3f0bb0cd	0.5456665
219	0xbff7ea30	-1.9368343
220	0xbe4900cb	-0.19629209
221	0x3fc08e4f	1.5043429
222	0x3f0172bb	0.5056569
223	0x3f0c54ef	0.548171
224	0xbec34aba	-0.3814295
225	0xbec01994	-0.37519515
226	0xbe91eed2	-0.28502518
227	0xbeb5369b	-0.35393223
228	0xbfc5fc91	-1.5467702
229	0xbf4bd431	-0.79620653
230	0xbf83f7ce	-1.0309999
231	0xbf4e7a5e	-0.8065547
232	0xbdc2cbeb	-0.095115505
233	0x3eb3e815	0.35138002
234	0x3ed1e52c	0.40995157
235	0xbf41f495	-0.7576383
236	0xbf993f94	-1.1972528
237	0xbeffd0dc	-0.49964035
238	0xc02814bc	-2.6262655
239	0xbfb37238	-1.4019232
240	0x3f333112	0.6999675
241	0xbf84437a	-1.0333092
242	0xbeaf93a9	-0.34292343
243	0xbf915213	-1.1353172
244	0xbffcf80d	-1.9763199
245	0x3fa284bb	1.2696756
246	0x3ed9ca93	0.42537364
247	0xc0216b67	-2.5221803
248	0xbece8378	-0.40334678
249	0x3f36b0db	0.7136361
250	0xbdce06ef	-0.10059916
251	0xbf28cefb	-0.6594083
252	0xbf88ba0c	-1.0681777
253	0x3dc3d307	0.09561735
254	0xbfacb72a	-1.3493397
255	0x3dc36aad	0.09541831

question_emb.weight f4 [213, 64]
0	0x3fdb472c	1.7131095
1	0xbfd3c645	-1.6544882
2	0x3e219bb9	0.1578206
3	0x3d8d96a0	0.06913495
4	0xbf72703a	-0.94702494
5	0x3f5a84c9	0.85358864
6	0xbfdfce92	-1.7484915
7	0x3ffa47c2	1.9553149
8	0x3e9c02bd	0.3047084
9	0xbf013c29	-0.5048242
10	0x3f76e0a4	0.96436524
11	0xbf1f59c2	-0.62246335
12	0x3f89faae	1.0779626
13	0xbf647966	-0.8924774
14	0xbf15cf02	-0.58518994
15	0x3f0a663b	0.5406224
16	0x3fc29920	1.520298
17	0x3f53c927	0.8272881
18	0xbf2193ee	-0.6311635
19	0x3ed6ddbd	0.41966048
20	0x3e94dff8	0.29077125
21	0x3e7fa13c	0.2496385
22	0x3fa307c5	1.2736746
23	0x3fe04901	1.7522279
24	0xbf170535	-0.5899232
25	0x3f46cb11	0.77653605
26	0xbf87c16e	-1.0605905
27	0xbfb16059	-1.3857528
28	0xbf496996	-0.78676736
29	0xbeb9e002	-0.36303717
30	0x3eac1ba2	0.33614832
31	0xbd92aa1f	-0.07161354
32	0xbf8ca652	-1.0988257
33	0xbef4ac9a	-0.47787935
34	0x3fd19b5a	1.6375535
35	0xbf4a45c7	-0.7901272
36	0xbec9a2b3	-0.39381942
37	0xbff84e9e	-1.9398992
38	0xbfaa5199	-1.3306152
39	0x3f83deef	1.0302409
40	0x4016d72a	2.3568826
41	0xbf03c4e0	-0.5147228
42	0xbf724428	-0.9463525
43	0xbef2c1ae	-0.4741339
44	0xbfc5d0ff	-1.5454406
45	0xbfaf6533	-1.3702759
46	0x3f9ea9b5	1.239554
47	0xbe41fdad	-0.18944426
48	0xbfac3073	-1.3452286
49	0xbecca728	-0.3997128
50	0xc03a72ff	-2.9132688
51	0x401a1b42	2.4079137
52	0xbeba51ea	-0.3639062
53	0xbfbaa9ee	-1.4583108
54	0x3ed092d0	0.4073701
55	0xbf03473e	-0.5128058
56	0x3edc7c2b	0.43063483
57	0xbee2c729	-0.44292572
58	0xbf949ed2	-1.1610968
59	0x3f58dd18	0.8471236
60	0x3dcea174	0.100893885
61	0xbf263c59	-0.64935833
62	0x3f7ad613	0.979829
63	0xbddc27e8	-0.10749799
64	0x3f4aa15d	0.7915247
65	0xbe0c23aa	-0.1368548
66	0x3d994350	0.07483542
67	0xc044d8ac	-3.0757246
68	0xbd5bfc3f	-0.053707357
69	0xbe0390b8	-0.12848175
70	0x3f689a56	0.908605
71	0x3f020723	0.5079214
72	0x3ed383a7	0.4131138
73	0xbe434a23	-0.1907125
74	0xbf81c66a	-1.0138676
75	0xbf35a668	-0.7095704
76	0x3e24f5aa	0.16109338
77	0x3d4363b8	0.04770252
78	0x3d1af750	0.03783351
79	0xbec74742	-0.38921553
80	0xbf080219	-0.531282
81	0xbdf99f64	-0.121886045
82	0xbd344919	-0.044015024
83	0x3f4036fe	0.7508391
84	0x3f84b386	1.0367286
85	0x3ea29ec4	0.31761754
86	0x3ea80fce	0.32824558
87	0xbf9e5b3e	-1.2371595
88	0x3eedd322	0.46450144
89	0x3f593b70	0.8485632
90	0xbf298a39	-0.66226536
91	0xbec256be	-0.37956804
92	0xbdcfe9de	-0.101520285
93	0x3ec2f59e	0.38078016
94	0x4013b3b4	2.3078432
95	0xc00486b3	-2.0707214
96	0x3e84e1b8	0.2595346
97	0x3fabddc9	1.3427058
98	0x3e2b2bff	0.16716002
99	0x3f3ab852	0.729375
100	0xbde2a226	-0.110660836
101	0x3f0e604f	0.55615705
102	0x3ebb4a95	0.3658034
103	0xbecc1f12	-0.39867455
104	0x3e048e93	0.12945013
105	0xbf327889	-0.6971517
106	0x3e1d27a1	0.15347148
107	0xbebda2b0	-0.37038183
108	0x3e582b19	0.2111019
109	0xbe71b462	-0.23603967
110	0x401f0f47	2.4853075
111	0xbf8bf8b1	-1.093527
112	0xbe87ab5c	-0.26497924
113	0xbfcafd0a	-1.5858471
114	0xc0248762	-2.570763
115	0xbfb84c28	-1.4398241
116	0xbe36e9b5	-0.1786259
117	0x3fd7115c	1.6802173
118	0xbf9191a6	-1.1372573
119	0x3fc188b6	1.5119846
120	0xbebce5b7	-0.3689401
121	0xbf302ce3	-0.6881849
122	0xbf52e51e	-0.82380855
123	0x3d196122	0.03744615
124	0xbf623150	-0.88356495
125	0xc00222cc	-2.0333738
126	0xbdccb29b	-0.09995004
127	0x3f1507b6	0.5821489
128	0x3efe8215	0.4970862
129	0xbecb2fc0	-0.39684868
130	0xbf0b88ad	-0.54505426
131	0xbe3be5e3	-0.18349414
132	0xbf3e05d4	-0.74227643
133	0x3d00e820	0.03147137
134	0xbfb4769f	-1.40987
135	0xbf4e01e9	-0.80471665
136	0x39c3fb89	0.00037380707
137	0x3f920878	1.1408834
138	0xbd5193c3	-0.051166307
139	0xbf301f62	-0.68797886
140	0x400d991c	2.21247
141	0xbfb2015c	-1.3906665
142	0xbf21d982	-0.63222516
143	0xbf24fab8	-0.64445066
144	0x3f0680d9	0.52540356
145	0x3f2e915e	0.6819056
146	0xbf96f8c1	-1.1794664
147	0x3e72b32e	0.23701164
148	0x3effd57a	0.49967557
149	0xbf8ac4b1	-1.0841275
150	0x3e3a8902	0.18216327
151	0x3f54a43b	0.83063096
152	0x3dd44c3b	0.10366102
153	0xbf88c227	-1.068425
154	0xbf3da7a6	-0.74083936
155	0xbeb588de	-0.35455984
156	0x3cd344f3	0.025789713
157	0xbf4fd768	-0.8118806
158	0x3f60ab3a	0.8776127
159	0x3fba95d3	1.4576973
160	0x3fae9134	1.3638062
161	0xbfbd03d1	-1.476679
162	0x3f25b783	0.6473314
163	0xbbb22325	-0.0054363185
164	0x3f0a10d2	0.53931916
165	0x3ece56be	0.40300554
166	0xbfb1a4ed	-1.3878456
167	0x3ec64f78	0.38732505
168	0x3e0c2d25	0.13689096
169	0xbf34782a	-0.70495856
170	0xbed6f6bf	-0.41985127
171	0xbf2bcfef	-0.67114156
172	0xbfec5fe4	-1.8466763
173	0xbf93b271	-1.1538831
174	0xbf4a03bc	-0.7891195
175	0xbfb1cb0e	-1.3890092
176	0xbd68cef5	-0.056837995
177	0xbf8bf3cf	-1.093378
178	0xbea37776	-0.3192708
179	0x3f333445	0.7000163
180	0xbe1293c7	-0.14314185
181	0x3f5abddb	0.85445946
182	0xbe2c601f	-0.16833542
183	0x3f7a2372	0.97710335
184	0x3e2ea754	0.17056018
185	0x3e341d7b	0.17589371
186	0x3fc52ef0	1.5404949
187	0x3e9cfc65	0.30661312
188	0x3ef45971	0.47724488
189	0x3f7ff377	0.9998087
190	0xbf9aec73	-1.2103409
191	0x401d66e8	2.459406
192	0xbf7596eb	-0.9593341
193	0xbe50fab3	-0.20408134
194	0x3ed3f583	0.41398248
195	0x3e158d72	0.14604738
196	0xbdd19787	-0.1023398
197	0x3f30764f	0.68930525
198	0xbeefd1d3	-0.4683977
199	0x3f794346	0.97368276
200	0x3e831df7	0.256088
201	0xbf715fb2	-0.94286644
202	0x3f03a95a	0.51430285
203	0x3dfb0d55	0.12258402
204	0xbfada737	-1.3566655
205	0x4005c427	2.0900972
206	0x3f42921b	0.7600419
207	0x3f852c7a	1.0404198
208	0xbfa4f681	-1.2887727
209	0xbf11f3d7	-0.57012695
210	0xbf92dd63	-1.1473812
211	0xbd35c990	-0.044381678
212	0x3e23be1f	0.15990494
213	0x3ee2a308	0.44265008
214	0xbf9d9872	-1.2312148
215	0xbe97807d	-0.29590216
216	0x3f870980	1.0549774
217	0x3fd1eaf7	1.639983
218	0xbe5d3082	-0.21600536
219	0x3fd81c73	1.6883682
220	0xbf892344	-1.0713887
221	0xbf9b7a88	-1.2146769
222	0xbf0e09f8	-0.5548396
223	0x3f1c87f4	0.6114495
224	0xbe2a97a3	-0.16659407
225	0xbf2f1c0b	-0.68402165
226	0xbf8ec5de	-1.1154134
227	0xbf5eff04	-0.8710787
228	0xbf91789c	-1.1364932
229	0x3f6108a6	0.8790382
230	0xbff9437f	-1.9473723
231	0xbd1099c0	-0.035302877
232	0xbef616f4	-0.48064387
233	0x3f99b5e2	1.2008631
234	0xbf42f362	-0.7615262
235	0xbf9605cb	-1.1720518
236	0xbfc060c7	-1.5029534
237	0xbf1e9f7b	-0.619621
238	0x3fa7b67d	1.3102566
239	0x3fabdf4a	1.3427517
240	0xbf75c4c9	-0.96003395
241	0xbe68832b	-0.22706287
242	0x3fd0f92f	1.6326045
243	0xbffa04b6	-1.9532688
244	0x3f0b2eb0	0.54368114
245	0xbf3c05f2	-0.7344657
246	0x3eb7b90e	0.35883373
247	0xbf8e0953	-1.1096596
248	0x3d8ba339	0.068182416
249	0xbe9cca68	-0.30623174
250	0x3d6e4477	0.058170762
251	0x3ef8fb9b	0.4862946
252	0xbf5baa8d	-0.85807115
253	0xbfbeaeb2	-1.4897063
254	0xbdb8f0e6	-0.09030323
255	0x3de8d94b	0.1136957

response_emb.weight f4 [1062, 64]
0	0xbf0556ce	-0.5208558
1	0xbfc9ef1f	-1.5776099
2	0x3e49e4c9	0.19716181
3	0x3fa4a660	1.2863274
4	0xbf19572e	-0.5989865
5	0xbf81aa19	-1.0130035
6	0xbc0b7627	-0.008512056
7	0x3f2b356c	0.6687839
8	0xbfb78922	-1.4338725
9	0x3e043f22	0.12914708
10	0xbe0014cb	-0.12507932
11	0xbfebe9cf	-1.8430728
12	0x3de7c34e	0.11316548
13	0xbedffbfe	-0.43746942
14	0xbb2f9d54	-0.0026796656
15	0xbd8d175d	-0.06889222
16	0x3fb94f9d	1.4477421
17	0xbf38b342	-0.72148526
18	0xbdb207f6	-0.08692925
19	0x3e8f9660	0.28044415
20	0xbd8debca	-0.06929739
21	0xbf734d94	-0.9504025
22	0xbf56f1ee	-0.83962905
23	0x3eec11c7	0.46107313
24	0x3e6227fd	0.22085567
25	0xbf1cb943	-0.61220187
26	0xbecf072c	-0.4043516
27	0xbe5b7ce7	-0.21434365
28	0x3e219578	0.15779674
29	0x3fd58c5a	1.6683457
30	0xbdbe729a	-0.09299202
31	0x3f58b169	0.84645706
32	0xbf03ba40	-0.5145607
33	0x3ee7e729	0.4529355
34	0x3f1eafdd	0.61987096
35	0xbf802b25	-1.0013167
36	0x3f70695e	0.9391078
37	0x3fae2e35	1.3607851
38	0x3eccd3cd	0.4000534
39	0x3fc73aa9	1.5564777
40	0x3fb5b9ac	1.4197288
41	0xbf1dd92f	-0.6165952
42	0x3e895a06	0.26826495
43	0xbe4e0a7e	-0.2012119
44	0x3f823742	1.0173113
45	0x3f3289ef	0.6974172
46	0x3f5afeab	0.8554484
47	0xbfeff09b	-1.8745302
48	0xbe970593	-0.2949644
49	0x3fa94450	1.3223972
50	0x3ec8ceeb	0.39220366
51	0xbf9213df	-1.1412314
52	0x3eea28d8	0.45734286
53	0x3d991315	0.07474343
54	0xbf527b45	-0.82219344
55	0x3e9e97ff	0.3097534
56	0xbd731ab3	-0.059351634
57	0xbe04fd11	-0.12987162
58	0xbda22dde	-0.07918905
59	0x3e7022a6	0.23450717
60	0x3f1c49ef	0.61050314
61	0x3f2ac954	0.6671345
62	0xc0071db2	-2.1111875
63	0x3edb9cdf	0.4289312
64	0xbfae688b	-1.3625654
65	0xbdea75d4	-0.11448255
66	0xbdbd5df3	-0.09246435
67	0xbf2cf35e	-0.6755885
68	0x3eefe4d7	0.46854278
69	0x3fcdfbb6	1.6092441
70	0xbec80924	-0.39069474
71	0x3f66aaad	0.9010418
72	0xbf1d6d68	-0.61495066
73	0x3e30f984	0.17282683
74	0xbeff63a5	-0.4988071
75	0x3f86b0d1	1.052271
76	0x3f480b6b	0.7814242
77	0x3eb39264	0.35072625
78	0x3fa230f7	1.2671193
79	0xbf0fc761	-0.56163603
80	0xbf85b720	-1.044651
81	0x3f2cf4f3	0.6756126
82	0x3e961b97	0.29317924
83	0x3ec7ac25	0.38998523
84	0xbfb5a9ba	-1.4192421
85	0x3f01f065	0.5075744
86	0xbf236f17	-0.63841385
87	0x3f4d960c	0.8030708
88	0x3fa54db7	1.2914342
89	0xbfc81b3f	-1.5633315
90	0xbfb7cf88	-1.4360209
91	0xbf79852b	-0.97468823
92	0x3fc456fa	1.5339043
93	0xbce5f6fd	-0.028071875
94	0x3aafc27a	0.0013409399
95	0x3f2244c0	0.63386154
96	0x3e0fb935	0.14035495
97	0x3d13cf89	0.036086593
98	0xc00c27ab	-2.1899211
99	0xbf56bc45	-0.83881027
100	0x3ec06946	0.37580317
101	0x3f1b1812	0.60583603
102	0xbf90cf4b	-1.1313261
103	0x3f5b1da0	0.8559208
104	0x3f4a8b09	0.791184
105	0xbe422aaf	-0.18961595
106	0x3f7b36ae	0.9813031
107	0x3f38c4f9	0.72175556
108	0xbee0b519	-0.43888167
109	0x3edb3235	0.42811742
110	0xbf156f1f	-0.5837268
111	0x3ee73e7e	0.45164865
112	0xbe2303d6	-0.15919432
113	0x3e0c0c4d	0.13676567
114	0x3f07f4d3	0.5310795
115	0xbf0c6db0	-0.5485487
116	0xbfaeee1b	-1.3666414
117	0x3f6136f4	0.87974477
118	0x3f31e577	0.6949076
119	0xc0036ec7	-2.0536363
120	0x3d1ee541	0.038792852
121	0x3f2da826	0.678347
122	0xbf85c147	-1.0449609
123	0xbb81eacc	-0.0039647575
124	0x3f85e6b9	1.0461036
125	0xbeb8d4d0	-0.36099863
126	0xbd3efc12	-0.04662711
127	0x3f8924ca	1.0714352
128	0xbfd8957f	-1.6920623
129	0xbe16ec2c	-0.1473853
130	0xbff6c490	-1.9278736
131	0xbfbb2d19	-1.4623138
132	0xbf73fa34	-0.95303655
133	0xbf7a6b75	-0.97820216
134	0xbde18c13	-0.11013045
135	0xbf452691	-0.7701197
136	0xbe5023ea	-0.203262
137	0xbe45331f	-0.19257782
138	0xbf3e82db	-0.7441842
139	0x3ffb0f19	1.9613982
140	0x3dc8cb06	0.09804349
141	0x3ea28d48	0.31748414
142	0x3f8a2c44	1.0794759
143	0x3fb3e9c6	1.4055717
144	0x3ca5ea78	0.020253405
145	0xbfee1b34	-1.8602052
146	0x3fb95c97	1.4481381
147	0x3f02b86e	0.5106267
148	0xbf78f64c	-0.9725082
149	0xbe71143c	-0.23542875
150	0x3f07a161	0.5298062
151	0xbf671e43	-0.9028055
152	0xbe00ed7a	-0.1259059
153	0xbfad8a2f	-1.3557795
154	0x3f39d0fa	0.725845
155	0x3ecb0d84	0.3965875
156	0xc00bc2a3	-2.1837547
157	0xbf05a89b	-0.52210397
158	0x3e4b31c3	0.19843201
159	0xbe344e79	-0.1760806
160	0xbf019809	-0.5062261
161	0xbf57b274	-0.8425667
162	0xbecadf1a	-0.39623338
163	0xbf8bfaa7	-1.0935868
164	0xbfee0ebf	-1.859825
165	0x3edc6873	0.43048438
166	0x3fc0a2be	1.5049665
167	0x3e75147b	0.23933594
168	0x3eb8b28f	0.3607373
169	0xbfb7a042	-1.4345782
170	0xbf57cd23	-0.8429739
171	0x3fb8b01c	1.4428744
172	0x3d68ae8c	0.056807086
173	0x3ead9085	0.33899322
174	0xbfa6560b	-1.2995008
175	0x3f616897	0.88050216
176	0x3f0fa72c	0.5611446
177	0xbe330eeb	-0.1748616
178	0x3e73a07e	0.23791692
179	0x400c1765	2.188928
180	0xbf40ef0d	-0.7536476
181	0xbf20d2f8	-0.6282191
182	0x3fa16952	1.2610266
183	0x4000b580	2.011078
184	0xbd917345	-0.07102064
185	0x3f4d72ca	0.8025328
186	0xc025db5d	-2.5915139
187	0xc009043d	-2.1408837
188	0x3f032783	0.51232165
189	0xbfa9a09a	-1.3252137
190	0xbe8ec0c5	-0.27881446
191	0xc035f5ab	-2.8431194
192	0x3fabda92	1.3426077
193	0x3ed64b63	0.4185439
194	0x3f463db0	0.7743788
195	0xbf8c73ea	-1.0972874
196	0xbf63ea77	-0.8902964
197	0xbe22a63a	-0.15883723
198	0xbf643828	-0.8914819
199	0xbf9cbd9a	-1.2245362
200	0x3fce0e84	1.609818
201	0xbf7f49a7	-0.9972176
202	0x3f4baf1f	0.7956409
203	0xbfa4c6db	-1.2873186
204	0x3e1b5f13	0.15172987
205	0xbe0a6632	-0.13515547
206	0x3f4abd52	0.7919513
207	0xbd34aa84	-0.04410793
208	0x3e96ed72	0.2947803
209	0x3e14ccfe	0.14531323
210	0x3e85a4cc	0.26102293
211	0xbe0c6d29	-0.13713516
212	0x3f2e6353	0.68120307
213	0x3ff40e8e	1.9066942
214	0xbfa133c8	-1.2593927
215	0x3ed6bfe1	0.41943267
216	0xbec1ade3	-0.37827978
217	0xbf0adf1a	-0.54246676
218	0x3f95077f	1.1642913
219	0xbea029c8	-0.31281877
220	0xbf6efc43	-0.9335367
221	0xbd17502f	-0.036941703
222	0x3ea8f313	0.3299795
223	0x3ed28d64	0.41123497
224	0x3f8b23d7	1.0870312
225	0x3f98c792	1.1935904
226	0x3ef83ece	0.48485416
227	0xbe5ef7a5	-0.21774156
228	0xc01ac4b3	-2.4182556
229	0xbf34ed67	-0.7067475
230	0xbe9d3964	-0.30707848
231	0x3f2f1aaa	0.6840006
232	0x3e7040cf	0.23462223
233	0x3fd7af27	1.6850327
234	0x3d90122b	0.07034715
235	0x3fc27736	1.519263
236	0x3f929ccb	1.14541
237	0xbfbadbc6	-1.459832
238	0x3d5b8ece	0.053602986
239	0x3d9bfa78	0.076161325
240	0xbf54711b	-0.82985085
241	0xbf4bd160	-0.79616356
242	0x3f54e857	0.8316702
243	0x3c48bee5	0.012252544
244	0xbd935fae	-0.07195984
245	0xbf806181	-1.0029756
246	0xbf4d3376	-0.8015665
247	0xbfa2cdf7	-1.2719105
248	0xbde7f76c	-0.11326489
249	0x3f764b3f	0.96208566
250	0x3f365df6	0.71237123
251	0xbfe758db	-1.8073992
252	0xbf0faf97	-0.56127304
253	0xbfb9970d	-1.4499222
254	0xbe593eec	-0.21215409
255	0x3fa402a5	1.2813307

encoder.enc_correct.0.weight f4 [32, 64]
0	0xbe51b97e	-0.20480916
1	0x3e2718b9	0.16318025
2	0x3df65910	0.12028706
3	0xbe65a4c1	-0.2242613
4	0x3e37e916	0.17960009
5	0xbe221b56	-0.1583074
6	0x3e3824b3	0.1798275
7	0x3e23250a	0.15932098
8	0xbe1d57e7	-0.15365563
9	0xbe1b9abd	-0.15195747
10	0x3d99c228	0.075077355
11	0x3ca70ff6	0.020393353
12	0xbe449893	-0.19198827
13	0x3d2749a6	0.04084172
14	0xbd933961	-0.071886785
15	0xbe97e795	-0.2966887
16	0xbdaae2a4	-0.083440095
17	0x3df2ac65	0.11849288
18	0xbe8e912a	-0.27845126
19	0x3deb4f7d	0.114897706
20	0x3e343e62	0.17601922
21	0xbd439214	-0.047746733
22	0xbdbf9ee4	-0.09356478
23	0xbd9018ba	-0.07035966
24	0x3d93d896	0.07219045
25	0x3d6d4922	0.057931073
26	0x3d284295	0.041079123
27	0x3e1661f1	0.14685799
28	0x3e0aa18d	0.13538189
29	0xbe56bcc4	-0.20970446
30	0xbe41e0a7	-0.18933354
31	0xbd8026b8	-0.06257385
32	0x3e10ee8a	0.14153495
33	0x3e7387e4	0.23782307
34	0xbdbd238d	-0.092352964
35	0x3e6c2607	0.23061381
36	0xbdb3f758	-0.087874115
37	0x3d479c45	0.048733015
38	0xbd16aec2	-0.036787756
39	0x3dad3418	0.08457202
40	0x3c3c4a48	0.011492319
41	0x3c7f501e	0.015583066
42	0xbda42793	-0.08015361
43	0xbe10dad0	-0.1414597
44	0x3e498e0a	0.1968309
45	0x3d8c675c	0.06855652
46	0x3e4147f9	0.18875112
47	0xbd804376	-0.06262867
48	0x3db282f7	0.08716386
49	0x3ec83c70	0.3910861
50	0x3b3a3a09	0.002841594
51	0xbe0edd9a	-0.13951722
52	0x3e868e1e	0.26280302
53	0x3da68ece	0.081327066
54	0x3d0d7dca	0.03454379
55	0x3e097058	0.13421762
56	0x3e3115aa	0.1729342
57	0x3d08de23	0.03341497
58	0x3ddde368	0.1083439
59	0xbc999ed1	-0.018752487
60	0xbe1b63b3	-0.15174751
61	0x3dbb7983	0.09154036
62	0xbd098dde	-0.03358256
63	0xbdf94ccc	-0.12172851
64	0xbe783902	-0.24240497
65	0xbdbd67d7	-0.092483215
66	0x3e32c245	0.1745692
67	0xbdcd0188	-0.10010058
68	0xbe12339b	-0.14277498
69	0x3d663837	0.056205954
70	0xbe2589ed	-0.16165896
71	0xbda7d883	-0.08195593
72	0x3e82268c	0.25420034
73	0x3e53cb8b	0.20683114
74	0xbe2563be	-0.1615133
75	0x3e1fec6a	0.15617529
76	0x3e52ef85	0.20599182
77	0x3c038339	0.008026891
78	0xbdb12352	-0.08649315
79	0x3edd5eba	0.43236333
80	0x3d973ca2	0.07384612
81	0xbbb6f2f9	-0.005583164
82	0xbd61b97e	-0.05510854
83	0xbe3787e0	-0.17922926
84	0x3dd0ba44	0.10191777
85	0xbdf9ca77	-0.1219682
86	0xbc642153	-0.013923961
87	0x3d194534	0.037419513
88	0x3d184148	0.037171632
89	0xbe2c77ca	-0.16842571
90	0x3d03229c	0.032015428
91	0xbe236404	-0.15956122
92	0xbe5b2fff	-0.21405028
93	0x3e01517a	0.12628737
94	0x3d5641ae	0.05230873
95	0x3d40273a	0.04691241
96	0xbd6e92e7	-0.058245566
97	0xbe44b1ed	-0.19208498
98	0xbe013a12	-0.12619808
99	0xbd2d9291	-0.042376105
100	0xbc990bf7	-0.018682463
101	0x3db3ee92	0.08785738
102	0xbe410f92	-0.18853596
103	0xbd07a61e	-0.033117406
104	0x3dbf7ae4	0.093496114
105	0xbd88322f	-0.06650197
106	0xbd72c507	-0.05926993
107	0x3ccf41bd	0.025299901
108	0xbd915422	-0.07096125
109	0xbe07bf6d	-0.13256617
110	0xbdb4cc52	-0.088280335
111	0x3e2b8ec3	0.16753678
112	0x3d812d2b	0.06307443
113	0x3cbf5925	0.023357937
114	0x3e159e50	0.14611173
115	0xbe2bf8e5	-0.16794164
116	0xbbf6ec56	-0.0075354977
117	0xbea14a1a	-0.31501848
118	0x3e5eec4b	0.21769826
119	0xbb745191	-0.0037280063
120	0xbd5d039e	-0.053958528
121	0xbd326486	-0.043552898
122	0xbdd1c62d	-0.10242877
123	0xbd4a80a6	-0.049439095
124	0xbc7bb503	-0.015362981
125	0xbd910aae	-0.07082115
126	0xbd134f31	-0.035964195
127	0x3b49dadb	0.0030800614
128	0xbdb60db3	-0.08889332
129	0x3dff52e6	0.124669835
130	0xbe8c2bd1	-0.2737718
131	0xbd0c7d42	-0.034299143
132	0x3ed53e92	0.416493
133	0x3e299be0	0.16563368
134	0x3dbd633e	0.092474446
135	0x3d911391	0.0708381
136	0xbc39002e	-0.011291547
137	0x3e28ae9e	0.16472861
138	0xbeb9d9e5	-0.36299053
139	0xbe7bb53b	-0.24580853
140	0x3b4a09c4	0.0030828575
141	0x3d2f3153	0.04277165
142	0xbc8808da	-0.016605783
143	0xbe94c65f	-0.29057595
144	0xbe44b60a	-0.19210067
145	0x3d0313f8	0.032001466
146	0x3dfa83a7	0.12232142
147	0x3e167c1d	0.14695783
148	0xbdcaeba2	-0.09908225
149	0xbd11b3eb	-0.035571974
150	0xbe126a42	-0.14298347
151	0xbd8c0641	-0.0683713
152	0x3e301160	0.17194128
153	0x3e399fc0	0.18127346
154	0xbc4878af	-0.012235804
155	0xbc8ba136	-0.017044645
156	0x3d7b1b34	0.06130524
157	0xbe8599d8	-0.26093936
158	0xbda25c25	-0.079277314
159	0xbe5e7a9d	-0.21726461
160	0xbe2757b1	-0.16342045
161	0xbd9001c0	-0.07031584
162	0xbdaf4655	-0.08558337
163	0x3cc49e30	0.02400121
164	0x3c2e5401	0.010640145
165	0xbdd6349b	-0.104592524
166	0x3da48f80	0.08035183
167	0xbb457352	-0.003012855
168	0x3b5331f0	0.003222581
169	0xbd4b13bb	-0.049579363
170	0xbdbf16b6	-0.09330504
171	0xbe189551	-0.1490071
172	0x3d2e0fb0	0.04249543
173	0xbcd8b723	-0.026454514
174	0x3e85978e	0.2609219
175	0x3e692065	0.22766264
176	0xbe82a5f2	-0.2551723
177	0x3e4a1e1b	0.19738047
178	0x3e8f61ca	0.28004295
179	0x3dc04ac1	0.09389258
180	0xbd8ee3cc	-0.069770426
181	0xbd3d9691	-0.04628617
182	0x3e50ecaa	0.2040278
183	0xbbec750f	-0.007216103
184	0xbe56b95e	-0.2096915
185	0xbe633286	-0.22187242
186	0x3c6cd250	0.014454439
187	0x3df294d7	0.11844795
188	0xbdabec44	-0.083946735
189	0x3d9fa43e	0.077949986
190	0x3db570d3	0.0885941
191	0xbb80ce25	-0.0039308243
192	0x3bf8cee0	0.007593021
193	0x3dfa6755	0.1222674
194	0xbdf1adf9	-0.11800761
195	0x3be385e9	0.0069434536
196	0x3bd8db27	0.006617922
197	0xbe09ca84	-0.1345616
198	0x3cc56e82	0.024100546
199	0xbdcde031	-0.10052527
200	0x3c4c9976	0.01248776
201	0x3e16e870	0.14737105
202	0x3ccbdbdf	0.024885116
203	0x3e243c58	0.16038644
204	0xbdaa8e70	-0.08327949
205	0x3e15fda0	0.14647532
206	0x3db64e96	0.08901708
207	0x3e402118	0.18762624
208	0x3dff7e15	0.1247522
209	0x3c5988a3	0.013277206
210	0xbdbffba7	-0.09374171
211	0xbd90f3e0	-0.070777655
212	0x3db27cd2	0.08715214
213	0x3dd891e1	0.10574699
214	0xbcd3a577	-0.025835736
215	0xbb5bca29	-0.0033537245
216	0xbe57f557	-0.21089683
217	0x3e2a8af7	0.16654573
218	0x3e11c001	0.142334
219	0x3db68f74	0.0891408
220	0xbdf5a508	-0.11994368
221	0xbe2b82ec	-0.16749161
222	0x3d6f35c2	0.058400877
223	0xbe304a89	-0.17215933
224	0x3d1e1e46	0.03860309
225	0x3ddaf48c	0.10691175
226	0xbdd43117	-0.10360926
227	0xbd9c77c5	-0.07640032
228	0xbe81278d	-0.25225487
229	0x3ca054e6	0.019571733
230	0x3cd9f72d	0.02660712
231	0x3dce2518	0.10065669
232	0x3daecc1a	0.08535023
233	0x3ce0b2e0	0.027429044
234	0x3cb98ed4	0.022651114
235	0x3e19f8b5	0.1503628
236	0x3d8a1794	0.067427784
237	0x3e0a57ee	0.13510105
238	0xbdd8abc4	-0.10579637
239	0x3d9e5e95	0.07732884
240	0x3d378fc2	0.044814833
241	0xbdf66831	-0.12031592
242	0x3c9c50fb	0.019081583
243	0xbdd23e47	-0.10265785
244	0x3e140ed8	0.14458787
245	0x3bb9b7ae	0.0056676483
246	0xbdbfe41e	-0.09369682
247	0x3e2a364d	0.16622277
248	0x3d22e95e	0.039773338
249	0xbdccc5bc	-0.09998652
250	0xbe0e4b76	-0.13895974
251	0x3d4bc673	0.049749803
252	0x3dc88a22	0.09791972
253	0x3dcffd0a	0.10155685
254	0x3d96a7b5	0.07356206
255	0x3e0bd66f	0.13656019

encoder.enc_correct.0.bias f4 [32]
0	0xbb8d0ae8	-0.0043042786
1	0xbbb50d11	-0.0055252393
2	0x3d2e9bba	0.04262898
3	0x3dcc795f	0.09984087
4	0xbca7a8be	-0.020466205
5	0x3e469f1e	0.19396636
6	0xbd6b5b1a	-0.057459928
7	0x3d077db1	0.033078853
8	0x3cd2458e	0.025667932
9	0x3e593b46	0.21214017
10	0x3d9c9076	0.07644741
11	0x3e97586f	0.29559657
12	0x3dfe7eda	0.12426539
13	0xbd7b1f9f	-0.061309453
14	0xbd948ee2	-0.07253815
15	0xbd595bab	-0.053065937
16	0x3dfa20e6	0.12213306
17	0x3e67408c	0.22583216
18	0x3d0a44bb	0.033756953
19	0x3d9aff0b	0.07568177
20	0xbda41449	-0.080116816
21	0x3e12d445	0.14338787
22	0xbde6e85b	-0.11274787
23	0x3e32b6bf	0.17452525
24	0xbc564dd7	-0.013080082
25	0x3e811f2c	0.25219095
26	0xbe24cb3a	-0.1609315
27	0x3ce3b234	0.027794935
28	0xbbb3dcdf	-0.0054889764
29	0xbde241c7	-0.11047702
30	0x3e6c404f	0.23071407
31	0x3d7907e0	0.060798526

encoder.enc_correct.3.weight f4 [64, 32]
0	0xbe43bbbd	-0.19114585
1	0x3d7ecf40	0.062209368
2	0x3dc82ecb	0.0977455
3	0xbe843d5b	-0.2582806
4	0xbd0155e9	-0.03157607
5	0xbe7704d5	-0.24122937
6	0xbdbccb00	-0.09218407
7	0x3da67ff6	0.08129875
8	0xbe73b0c9	-0.23797907
9	0xbec9f53e	-0.39444917
10	0xbed03216	-0.40663213
11	0xbe40779d	-0.18795629
12	0xbe90354f	-0.2816567
13	0x3c8e46a8	0.017367676
14	0xbdf7dc99	-0.121026225
15	0xbe5d8a5f	-0.21634816
16	0x3d6039a5	0.054742474
17	0xbe55e56f	-0.20888303
18	0xbdcaa5ad	-0.098948814
19	0xbe9d6873	-0.3074375
20	0xbe103bf3	-0.14085369
21	0xbe7090a2	-0.23492673
22	0xbe8ec8be	-0.2788753
23	0xbea5e7d6	-0.3240344
24	0x3abce476	0.0014411348
25	0xbe0321d4	-0.12805873
26	0xbca2f0e7	-0.019890262
27	0xbc633eb4	-0.01386993
28	0xbe15d27b	-0.14631073
29	0xbd83d6fe	-0.06437491
30	0xbe99c1e9	-0.30030754
31	0xbe1e4432	-0.15455702
32	0xbdd5d901	-0.10441781
33	0xbe878fe2	-0.2647696
34	0xbd924164	-0.071413785
35	0x3e07d211	0.13263728
36	0x3e0e4342	0.13892844
37	0xbeb2fcf9	-0.34958628
38	0xbe2c901a	-0.16851845
39	0xbeb4046b	-0.3515962
40	0x3cb9b3af	0.022668688
41	0xbe6b7a72	-0.22995928
42	0x3cea940c	0.028635047
43	0xbe53dade	-0.2068896
44	0xbdf86e7e	-0.1213045
45	0xbe148f93	-0.14507894
46	0xbdadf3e9	-0.08493788
47	0xbd8f7a15	-0.07005707
48	0xbeec903c	-0.46203792
49	0xbe4eb371	-0.20185639
50	0xbe0fc66e	-0.14040539
51	0x3e1398a8	0.14413702
52	0x3e0b0287	0.13575183
53	0x3d1561e2	0.0364703
54	0xbe04b5c5	-0.12959965
55	0xbcb49d47	-0.022047652
56	0xbe1d718b	-0.15375344
57	0x3db3f790	0.08787453
58	0xbc50a85c	-0.0127354525
59	0xbeb6b59b	-0.3568543
60	0x3e5a6f61	0.2133155
61	0xbe41c0c7	-0.18921195
62	0x3e7b1dc4	0.24523073
63	0xbce8e679	-0.02843021
64	0x3d691b15	0.056910593
65	0xbdece6bc	-0.115674466
66	0xbdcd9ea0	-0.10040021
67	0x3e3d3fe1	0.18481399
68	0x3d67b4a1	0.056568746
69	0x3e4ee7d4	0.20205623
70	0x3dadb09f	0.084809534
71	0x3e8d4488	0.27591348
72	0x3defa4b7	0.11701339
73	0x3e7a1c30	0.24424815
74	0x3eb70249	0.3574393
75	0x3e38f2df	0.18061398
76	0x3e9cf56f	0.30656
77	0x3e32469e	0.17409751
78	0x3de6dc3c	0.11272475
79	0x3bb598c0	0.005541891
80	0x3e48c8b8	0.19607818
81	0x3e5c95c5	0.21541508
82	0x3dfecc82	0.124413505
83	0x3e02721a	0.12738839
84	0xbe99c64e	-0.30034107
85	0xbdb63f4c	-0.08898792
86	0x3dbf58f9	0.09343142
87	0xbcbc19e8	-0.022961572
88	0x3dc76681	0.09736348
89	0x3dde5272	0.10855569
90	0x3e09f09e	0.13470694
91	0xbde13323	-0.10996082
92	0x3e653592	0.22383717
93	0x3d409f3d	0.04702686
94	0x3b174be2	0.0023086001
95	0x3e8f893c	0.2803439
96	0x3e18b8ba	0.14914218
97	0xbd23f7be	-0.040031187
98	0x3ed1b1cb	0.40955958
99	0x3e13aac4	0.1442061
100	0xbd8a476e	-0.067519054
101	0xbc98fab2	-0.018674228
102	0x3db44e21	0.088039644
103	0x3dd48d62	0.10378529
104	0x3d955983	0.07292464
105	0x3e7681cf	0.24072956
106	0x3eb77de6	0.3583824
107	0x3e4652b8	0.19367492
108	0x3e98dbea	0.2985528
109	0x3d55ffe0	0.052245975
110	0x3dc88b20	0.09792161
111	0x3e3d0134	0.1845749
112	0x3d875c14	0.066093594
113	0x3ea5d0c2	0.32385832
114	0x3cbb78b9	0.022884713
115	0x3e1aaeeb	0.15105788
116	0x3e25b996	0.16184077
117	0x3d82c244	0.063847095
118	0x3e9e724d	0.3094658
119	0x3e1a4292	0.15064457
120	0x3e637315	0.22211869
121	0xbdfd2189	-0.12359912
122	0x3e20eb65	0.15714796
123	0x3de8cd18	0.113672435
124	0x3d2acb99	0.041698072
125	0x3e81b6e3	0.25334844
126	0x3dff4bda	0.124656394
127	0x3dfc2614	0.1231195
128	0xbe1c3933	-0.15256195
129	0x3e279700	0.16366196
130	0xbd37a408	-0.044834167
131	0xbe5a4700	-0.21316147
132	0xbd086fc7	-0.033309724
133	0xbde4816d	-0.111574985
134	0x3e1306e5	0.14358099
135	0x3d898bd0	0.0671612
136	0x3d5adcb5	0.05343314
137	0x3c6c0792	0.014406102
138	0x3d34b702	0.044119842
139	0xbe0ca3f6	-0.13734421
140	0x3c237915	0.009977599
141	0xbd05ab61	-0.032634143
142	0x3e6dab2b	0.23209827
143	0xbc9ffb2a	-0.019528944
144	0xbda46a01	-0.08028031
145	0xbe19b022	-0.15008596
146	0xbe8fa0d0	-0.28052378
147	0x3d6508de	0.05591666
148	0xbe8b4a51	-0.27205136
149	0xbe8db7c6	-0.2767927
150	0xbe39dc70	-0.18150496
151	0xbe0dacef	-0.138355
152	0x3e13c0fb	0.14429085
153	0xbe08ca8e	-0.13358518
154	0xbe0b7bac	-0.13621396
155	0xbd2f693a	-0.04282496
156	0xbc07c461	-0.0082865665
157	0x3e5e34a9	0.21699776
158	0x3d86bbe2	0.065788046
159	0xbe847ba7	-0.2587559
160	0xbd9431c9	-0.07236058
161	0x3dcadf11	0.09905828
162	0x3d62f5dc	0.05541025
163	0x3e9dd9c0	0.30830193
164	0x3d6e2d50	0.058148682
165	0x3e34fa31	0.17673565
166	0x3d9036c5	0.070416965
167	0x3e0de88e	0.13858244
168	0x3d9b4ce3	0.07583024
169	0xbd35a83b	-0.04434989
170	0x3c4c9cc4	0.012488548
171	0x3ddf64d4	0.10907903
172	0xbe4cfea5	-0.20019014
173	0xbcc79223	-0.024361676
174	0x3d8554d1	0.06510318
175	0xbd547786	-0.0518718
176	0x3e404837	0.18777548
177	0xbcca1e2e	-0.024672594
178	0xbd1274a9	-0.035755787
179	0xbd4b7f80	-0.04968214
180	0x3e4bdb30	0.19907832
181	0x3d88c7fe	0.066787705
182	0x3e55743d	0.20845123
183	0xbcd85f9f	-0.026412783
184	0x3cfbabc2	0.030721549
185	0x3e38d36d	0.18049403
186	0x3cffa21a	0.031205226
187	0x3eb1887f	0.3467445
188	0xbe415f31	-0.18883969
189	0xbe3cd635	-0.18441088
190	0x3d5796a5	0.0526339
191	0x3db43828	0.087997735
192	0x3e0404bf	0.12892435
193	0xbe15c93c	-0.14627546
194	0x3ec42162	0.3830672
195	0xbc8e3705	-0.01736022
196	0xbdbd057b	-0.09229561
197	0xbe275745	-0.16341884
198	0xbe659b7c	-0.22422594
199	0xbece87a2	-0.40337855
200	0xbbb57c0c	-0.005538469
201	0xbe6f6eba	-0.23382083
202	0xbbafeeef	-0.0053690593
203	0xbe864b19	-0.2622917
204	0xbe3aa854	-0.18228275
205	0xbc85e6c2	-0.016345385
206	0x3c3fdcd4	0.011710364
207	0xbc0e63ad	-0.008690757
208	0xbeaa7569	-0.33292702
209	0xbdb38f62	-0.087675825
210	0x3d52e220	0.05148518
211	0xbea6ac7e	-0.32553476
212	0x3dc9bf56	0.098509476
213	0xbddf1bd3	-0.10893979
214	0x3e5aea0c	0.21378344
215	0xbe202867	-0.15640412
216	0xbdc0411d	-0.093874194
217	0x3d36f72c	0.044669315
218	0xbe826dcf	-0.25474402
219	0x3e1c82e8	0.15284312
220	0x3d8f43a4	0.06995323
221	0x3de80c6c	0.11330494
222	0xbd2ac803	-0.041694652
223	0x3c192a63	0.009348485
224	0x3d3117dd	0.04323565
225	0x3d370466	0.04468193
226	0xbdd61b6a	-0.104544476
227	0xbd08342d	-0.033252884
228	0xbe63e75a	-0.22256222
229	0xbe524eca	-0.20537868
230	0xbe8d2136	-0.275644
231	0xbc7e9393	-0.015538114
232	0x3def3975	0.11680881
233	0xbdf01300	-0.11722374
234	0x3e869664	0.26286614
235	0x3c83ab12	0.016072784
236	0xbe14c5d6	-0.14528593
237	0xbe02be45	-0.12767895
238	0xbe385d7b	-0.1800441
239	0x3e8be129	0.2732022
240	0xbdf698b7	-0.12040847
241	0x3e3255f9	0.17415608
242	0xbd5017d1	-0.050803963
243	0xbcca480b	-0.024692556
244	0x3c4103b0	0.011780664
245	0x3e9965ae	0.29960388
246	0x3d141a4a	0.036157884
247	0x3d99c8af	0.075089805
248	0x3e886eea	0.2664712
249	0x3e2eca57	0.17069374
250	0x3de57b66	0.11205177
251	0xbe391d85	-0.18077667
252	0x3e5196f3	0.20467739
253	0x3ca00c6e	0.019537177
254	0x3e95099f	0.29108903
255	0x3e13aeee	0.14422199

encoder.enc_correct.3.bias f4 [64]
0	0xbdd72326	-0.10504751
1	0xbdef1a85	-0.1167498
2	0x3e9a10d3	0.3009096
3	0x3e3f6e38	0.18694389
4	0xbe18dbc0	-0.14927578
5	0x3d8f3790	0.069930196
6	0xbdedcdbe	-0.11611508
7	0x3e219f0e	0.15783331
8	0xbdafa2bd	-0.08575962
9	0xbe13de4b	-0.14440267
10	0xbeb38048	-0.35058808
11	0x3d12750d	0.03575616
12	0xbe563ba6	-0.20921192
13	0xbe5aca54	-0.21366245
14	0x3e94d5c7	0.2906935
15	0x3e653316	0.22382769
16	0xbc1bf1e9	-0.009518125
17	0xbe9305b4	-0.2871529
18	0xbe87bf5d	-0.26513186
19	0x3e4a9024	0.19781548
20	0xbe6c0bcc	-0.23051375
21	0xbcd5c875	-0.026096562
22	0x3ddf46ed	0.109022
23	0xbe0bc4ad	-0.13649245
24	0xbded9f70	-0.11602676
25	0xbe580567	-0.21095811
26	0x3e96dd97	0.29465935
27	0xbd5bc625	-0.053655762
28	0xbe61aa14	-0.22037536
29	0x3d6dd39f	0.058063146
30	0xbdf0161f	-0.11722969
31	0x3e09ba46	0.13449964
32	0xbe2feb73	-0.1717966
33	0x3e8b951d	0.27262202
34	0x3e00f25f	0.12592457
35	0xbe809899	-0.25116423
36	0x3e663e30	0.2248466
37	0x3dde1e1b	0.10845586
38	0x3d9e32a8	0.07724506
39	0xbb928b93	-0.004472205
40	0x3d68e704	0.05686094
41	0x3ed9a23a	0.42506582
42	0xbe2fa495	-0.17152627
43	0xbe9df71b	-0.3085259
44	0xbe8cc898	-0.2749679
45	0xbe8b91e9	-0.27259758
46	0x3e2d8ea1	0.1694894
47	0x3ecd67ec	0.4011835
48	0x3da11387	0.07865053
49	0x3ee0e4a0	0.43924427
50	0x3d6acd71	0.05732483
51	0x3ec31ec0	0.38109398
52	0xbe6c5a55	-0.23081334
53	0xbd771794	-0.06032522
54	0x3e5eb4b7	0.21748625
55	0xbced8565	-0.028994272
56	0xbe67e75e	-0.22646853
57	0xbe536cea	-0.20647016
58	0xbe1ee05e	-0.15515277
59	0x3ead3036	0.33825845
60	0xbe5c06ad	-0.21486922
61	0x3e85f812	0.26165825
62	0x3dc1e5cc	0.094676584
63	0xbe6bf310	-0.2304194

encoder.enc_wrong.0.weight f4 [32, 64]
0	0xbde3f990	-0.11131585
1	0xbd22f316	-0.039782606
2	0x3c0f1178	0.008732192
3	0xbde9d93d	-0.11418388
4	0xbc9cd15c	-0.0191428
5	0x3df78101	0.120851524
6	0x3d515d1f	0.051114198
7	0x3dd927be	0.10603283
8	0xbdd3e6f1	-0.10346783
9	0xbe19d690	-0.15023255
10	0x3df2a3dd	0.11847661
11	0x3ce844de	0.028353151
12	0x3df88534	0.121347815
13	0xbc903b25	-0.017606327
14	0x3c88e295	0.016709605
15	0x3d65a7b8	0.056068152
16	0x3dc13369	0.09433634
17	0x3c3fe3e1	0.011712045
18	0xbe02b2ae	-0.12763473
19	0x3d13d495	0.036091406
20	0xbe362b8a	-0.17790046
21	0x3cd6db86	0.026227724
22	0xbe0d5090	-0.13800263
23	0xba39007a	-0.0007057261
24	0x3e1f4c32	0.1555641
25	0xbdef5da3	-0.11687782
26	0x3d37470d	0.044745494
27	0xbd8cca68	-0.068745434
28	0xbe111af6	-0.14170441
29	0xbd71454b	-0.058903974
30	0x3da093bc	0.07840678
31	0xbe041b3f	-0.12901019
32	0xbcc970ac	-0.024589859
33	0xbe3533d4	-0.17695552
34	0x3d5bc4db	0.053654533
35	0x3e16d1d6	0.14728484
36	0x3d9c51b0	0.07632768
37	0x3db341df	0.08752798
38	0x3e00909e	0.12555167
39	0xbe4bcd9d	-0.19902654
40	0xbe1beedd	-0.15227838
41	0x3e194abb	0.14969914
42	0x3d97cd88	0.07412249
43	0xbd99b3c7	-0.07504993
44	0xbd56dc55	-0.05245622
45	0x3e6a75c9	0.22896494
46	0xbdc95fc6	-0.098327205
47	0x3e16f5f9	0.14742269
48	0xbdea4ceb	-0.11440452
49	0x3c9f8f48	0.019477502
50	0x3d9da2bb	0.07697054
51	0xbe3757a0	-0.1790452
52	0x3e1f100b	0.15533464
53	0xbdc7f515	-0.097635426
54	0x3e83564a	0.2565177
55	0xbe1a74db	-0.1508364
56	0xbd76906b	-0.06019632
57	0x3e2c11d2	0.16803673
58	0x3d430762	0.047614463
59	0x3e17d41d	0.14827009
60	0x3e9be7c3	0.30450258
61	0xbd04c7eb	-0.03241722
62	0xbdcb566d	-0.09928594
63	0x3cb9315f	0.02260655
64	0x3e7ab65f	0.24483632
65	0x3dfa9180	0.12234783
66	0xbe7f35f2	-0.24922922
67	0x3e4a957c	0.19783586
68	0x3e84190a	0.25800353
69	0x3deec655	0.116589226
70	0x3e48111a	0.19537774
71	0xbe586d9d	-0.21135564
72	0xbe732d2f	-0.23747705
73	0x3ddb05ac	0.10694441
74	0xbd4b46a4	-0.049627915
75	0xbc1ce75e	-0.009576647
76	0xbe2a69db	-0.16641943
77	0xbe7cbae2	-0.24680665
78	0xbe190ca3	-0.14946227
79	0xbe7cdfa6	-0.2469469
80	0x3d657151	0.05601627
81	0x3dd37c2d	0.10326419
82	0x3e4dcbaa	0.20097223
83	0xbd9b03f4	-0.075691134
84	0xbcaa59ee	-0.020794835
85	0xbe485ffa	-0.19567862
86	0xbd6364fd	-0.05551623
87	0xbbb39e57	-0.005481522
88	0xbe6cb140	-0.2311449
89	0xbc74c4d9	-0.01493951
90	0x3e8a3b62	0.2699843
91	0x3e4e5001	0.20147707
92	0xbdb2848f	-0.0871669
93	0x3d8886c7	0.06666332
94	0xbc6a59c5	-0.014303629
95	0x3d34bef7	0.04412743
96	0xbe97b6c6	-0.29631633
97	0x3dc1326d	0.09433446
98	0x3e176f55	0.14788564
99	0x3e7fddc9	0.24986948
100	0xbd241371	-0.040057603
101	0xbe8a0816	-0.26959294
102	0x3eb9b490	0.3627057
103	0xbcc16155	-0.023605982
104	0xbdf62123	-0.12018039
105	0x3d006d80	0.031354427
106	0x3d78542f	0.06062716
107	0x3ea808e1	0.32819274
108	0x3ea0843e	0.31350893
109	0xbeb0da6c	-0.34541643
110	0xbe22061f	-0.15822648
111	0xbe47359b	-0.19454043
112	0xbe576b37	-0.21036993
113	0xbde8e418	-0.113716304
114	0x3e38eed6	0.18059859
115	0x3e6a4cd7	0.22880875
116	0xbca0bc68	-0.01962109
117	0xbe117497	-0.14204632
118	0xbdb234d8	-0.087014854
119	0xbc25efc6	-0.010127967
120	0xbd54afce	-0.051925473
121	0xbea4ea10	-0.32209826
122	0xbcbf1e5c	-0.023329906
123	0xbe36d19e	-0.178534
124	0x3d431c42	0.04763437
125	0xbd018fe7	-0.031631377
126	0x3c404434	0.011735011
127	0x3c6ee2c6	0.014580434
128	0xbcfb5734	-0.03068123
129	0x3e4c0724	0.19924599
130	0xbe140d77	-0.14458261
131	0x3c2f2cc8	0.010691829
132	0x3e050ec2	0.12993911
133	0x3e103a7b	0.14084809
134	0x3b3b50ae	0.0028582024
135	0x3da513fa	0.08060451
136	0xbdaebe3b	-0.08532377
137	0xbbf62854	-0.0075121317
138	0x3e8a259f	0.26981828
139	0xbc9a161f	-0.018809376
140	0x3c7acee5	0.015308117
141	0x3c57ba9f	0.0131670525
142	0xba505e9e	-0.00079486694
143	0x3e6df85a	0.2323927
144	0x3e0e83fe	0.13917539
145	0x3daf9fea	0.08575423
146	0xbdf064bf	-0.11737966
147	0xbd09ad50	-0.03361255
148	0x3c45508e	0.0120431315
149	0x3d38d390	0.045123637
150	0xbe92d002	-0.28674322
151	0x3d908f51	0.070585854
152	0xbddcf2bf	-0.10788488
153	0xbe688894	-0.2270835
154	0x3e457125	0.19281442
155	0xbd33c900	-0.04389286
156	0x3dbda137	0.09259265
157	0xbe2f7010	-0.17132592
158	0x3d075a50	0.033045113
159	0xbe0c2bcb	-0.1368858
160	0xbc6e43b0	-0.014542505
161	0x3e3700d3	0.17871408
162	0x3e7ab478	0.24482906
163	0x3dd4df10	0.10394108
164	0xbe5fbfa0	-0.21850443
165	0xbd5ad3ec	-0.05342476
166	0x3eab7246	0.3348562
167	0x3c9ebbc5	0.019376645
168	0xbc142718	-0.009042524
169	0xbd302ed2	-0.0430134
170	0x3eafa302	0.34304053
171	0xbdbf98bc	-0.09355304
172	0xbda36500	-0.079782486
173	0x3dd204d5	0.10254828
174	0xbe18ef59	-0.14935054
175	0x3d6d4531	0.057927314
176	0x3d9999df	0.07500052
177	0x3bcd005d	0.006256147
178	0xbb94c426	-0.0045399843
179	0xbe338218	-0.17530096
180	0xbe8d258a	-0.27567703
181	0xbd977712	-0.07395758
182	0xbc8654c3	-0.01639784
183	0xbcfd3e41	-0.030913474
184	0xbe4a3ca3	-0.19749694
185	0x3d1b5ee2	0.037932284
186	0xbdfe8245	-0.12427191
187	0x3c4b939d	0.0124253305
188	0x3e10d5c5	0.14144047
189	0x3d806840	0.06269884
190	0xbeaa0484	-0.3320657
191	0xbe9c6195	-0.305432
192	0x3d82c7e2	0.06385781
193	0xbe8628aa	-0.262029
194	0x3e26df3b	0.16296093
195	0xbe9e1ac5	-0.308798
196	0x3df5b880	0.11998081
197	0x3db7c7ec	0.08973679
198	0xbe039a8c	-0.12851924
199	0xbda0875f	-0.0783832
200	0x3e120f12	0.14263561
201	0x3eaa08be	0.33209795
202	0x3bc9fdef	0.0061643044
203	0x3e7ccb8d	0.24687023
204	0xbe42507d	-0.18976016
205	0x3db45c09	0.08806617
206	0x3e4cbde9	0.1999432
207	0xbd3eb213	-0.046556544
208	0x3cb39524	0.021921702
209	0x3ea9a69e	0.3313493
210	0xbd1566a3	-0.036474835
211	0x3e937b94	0.2880522
212	0x3e1576d1	0.14596106
213	0xbe29dc44	-0.16587931
214	0xbc2e3934	-0.0106337555
215	0x3bbd8d5e	0.0057846745
216	0xbd60e2db	-0.054903846
217	0xbd2da09e	-0.042389505
218	0x3d95d58c	0.073161215
219	0xbe894ee4	-0.26818
220	0xbe8f55aa	-0.27995044
221	0xbe4d3f83	-0.20043759
222	0x3e68a30b	0.22718446
223	0xbdec9e10	-0.115535855
224	0xbcc666ef	-0.024219004
225	0xbe1ce886	-0.15323076
226	0x3e569efb	0.20959084
227	0x3d5d3c5a	0.054012634
228	0xbd218038	-0.03942892
229	0x3e8e270d	0.27764168
230	0xbdd277ef	-0.10276782
231	0xbd91df79	-0.07122702
232	0x3de3d856	0.11125247
233	0xbd59e144	-0.053193346
234	0xbd21dba2	-0.0395161
235	0xbdc52b40	-0.0962739
236	0xbe3779b8	-0.17917526
237	0x3e594188	0.21216404
238	0x3dfdb406	0.12387852
239	0x3bc314d3	0.00595341
240	0xbdfdf228	-0.12399703
241	0xbe5781a7	-0.21045552
242	0xbcb1406b	-0.021637162
243	0x3e3b3b64	0.18284374
244	0x3cbaac65	0.022787282
245	0xbe6f351d	-0.23360105
246	0xbd738b52	-0.059459038
247	0x3b852098	0.0040627234
248	0xbdc3ab54	-0.095541626
249	0x3e504e22	0.20342305
250	0x3db09f2a	0.08624108
251	0xbe176ab3	-0.14786796
252	0xbe23786b	-0.15963905
253	0x3dd9cafd	0.1063442
254	0xbdf156c1	-0.11784125
255	0xbe872252	-0.26393372

encoder.enc_wrong.0.bias f4 [32]
0	0x3e100a8a	0.1406652
1	0x3e2a9cdc	0.166614
2	0x3ea07c1f	0.31344697
3	0x3dd67224	0.10470989
4	0x3d390ac7	0.045176294
5	0x3cf0a617	0.029376073
6	0x3e993006	0.2991945
7	0x3df03841	0.117294796
8	0xbe5d0013	-0.2158206
9	0x3c02ef98	0.007991694
10	0x3e81fb57	0.2538707
11	0x3d1ceca3	0.03831161
12	0x3e690b15	0.22758134
13	0x3e8ac68e	0.2710461
14	0x3e5988da	0.21243611
15	0x3e43e3ab	0.19129817
16	0x3e7cad1c	0.24675411
17	0x3dfca942	0.12336971
18	0x3e8004a6	0.25003546
19	0x3e32a977	0.17447458
20	0x3e126f1e	0.143002
21	0x3d5fe98b	0.054666083
22	0x3de33ce7	0.110956006
23	0xbdb1d59c	-0.08683321
24	0x3c648480	0.013947606
25	0x3cef0a2b	0.029179653
26	0xbcaf42fd	-0.021394247
27	0x3e41afc0	0.189147
28	0x3d2a8971	0.04163498
29	0x3e55d921	0.2088361
30	0x3e7fc54a	0.24977604
31	0x3e00788b	0.12545983

encoder.enc_wrong.3.weight f4 [64, 32]
0	0x3e6b7738	0.22994697
1	0x3c9887b1	0.01861939
2	0x3e716936	0.23575291
3	0x3ed878a9	0.42279556
4	0xbdd6ebe1	-0.10494209
5	0x3ea4978c	0.3214687
6	0xbcfc6a51	-0.030812414
7	0x3e943212	0.2894445
8	0x3dad9152	0.08474983
9	0x3c80a6f7	0.015704615
10	0x3dd99704	0.10624507
11	0x3d2623bc	0.040561423
12	0x3d9de762	0.077101484
13	0xbe4d7ec1	-0.20067884
14	0x3dccf3e3	0.10007455
15	0x3d169ef3	0.03677268
16	0xbda71ba3	-0.08159568
17	0x3e404a30	0.187783
18	0xbe327ad2	-0.17429665
19	0xbd30cb9d	-0.04316293
20	0x3e69db64	0.22837597
21	0x3d5f204a	0.054474153
22	0x3e4b9213	0.19879942
23	0x3e07e715	0.13271745
24	0xbde29c2a	-0.11064942
25	0xbd80c7b0	-0.06288087
26	0x3da55855	0.080734886
27	0xbc6a2e1b	-0.014293219
28	0x3e44178f	0.19149612
29	0x3dcbd027	0.09951811
30	0xbd536377	-0.05160853
31	0xbe28fab6	-0.16501889
32	0x3e2f0f1b	0.17095606
33	0x3e866288	0.26247048
34	0x3e7356d7	0.23763596
35	0xbcc27278	-0.023736224
36	0x3e8b191c	0.27167594
37	0x3e529e5a	0.20568219
38	0x3e72f91d	0.23727842
39	0xbde4419a	-0.11145325
40	0x3e8e275a	0.27764398
41	0xbce2e716	-0.027698081
42	0x3d5ff3da	0.054675914
43	0x3e9f7ef8	0.31151557
44	0x3e04997f	0.12949179
45	0x3e89fdf1	0.26951554
46	0x3e98f5bb	0.29874977
47	0x3e8e1062	0.27746874
48	0x3eafa86f	0.34308192
49	0x3ed2ae71	0.41148713
50	0x3e744289	0.23853506
51	0x3de066b8	0.10957092
52	0x3e3141b0	0.17310214
53	0x3db5e93c	0.088823766
54	0x3e1b17ee	0.15145847
55	0x3dec13a4	0.11527184
56	0x3ede376a	0.43401653
57	0xbc73bbb2	-0.014876293
58	0x3d1dd62e	0.038534336
59	0x3eae3e5e	0.34031957
60	0x3e35025c	0.17676681
61	0x3d3ebeb6	0.046568595
62	0xbd3c828d	-0.04602294
63	0x3d696274	0.056978658
64	0xbe9a8315	-0.30178133
65	0xbdf6b8fc	-0.12047002
66	0xbe37ebd5	-0.17961057
67	0x3bef08a3	0.0072947307
68	0xbdd7b5e0	-0.10532737
69	0x3c985d7a	0.01859926
70	0x3db40746	0.0879045
71	0x3cb6cbee	0.022314038
72	0x3d9ed096	0.07754628
73	0x3d4c8543	0.049931776
74	0xbe32e633	-0.17470627
75	0xbe3a8200	-0.18213654
76	0xbdc3de3e	-0.09563874
77	0xbe5e810f	-0.2172892
78	0x3dd7d5fd	0.10538862
79	0xbe176169	-0.14783253
80	0xbe6a5ffe	-0.2288818
81	0x3e1adb7e	0.15122792
82	0x3dcf8f76	0.10134785
83	0xbe2870af	-0.16449235
84	0xbc0cf292	-0.008602755
85	0xbe057af7	-0.13035189
86	0xbe63cd9c	-0.22246403
87	0xbcac1055	-0.021003881
88	0xb96b9e78	-0.0002247038
89	0xbd8139cf	-0.06309854
90	0x3aa438d2	0.0012529141
91	0x3c6bb941	0.01438743
92	0xbdca2913	-0.098711155
93	0xbe796e03	-0.24358372
94	0x3e135b81	0.14390375
95	0xbd94a4da	-0.072580054
96	0xbe563ecf	-0.20922397
97	0xbd88681b	-0.066604815
98	0xbe175231	-0.14777447
99	0xbe9d892b	-0.30768713
100	0xbdbd7aea	-0.092519596
101	0xbd8d8d62	-0.06911732
102	0xbd3b1e82	-0.04568339
103	0xbd3c3bb8	-0.04595539
104	0xbdfec038	-0.124390066
105	0x3d3ba182	0.045808323
106	0xbd5b46fb	-0.05353449
107	0xbdecfe37	-0.11571925
108	0x3e205e69	0.15661015
109	0xbe3032e2	-0.1720691
110	0xbe1e758b	-0.15474527
111	0xbc389500	-0.011265993
112	0x3d6c6483	0.057713043
113	0x3e0804aa	0.13283029
114	0xbc2338d0	-0.009962276
115	0xbe60b68b	-0.21944635
116	0xbde40117	-0.1113302
117	0xbe4387fb	-0.19094841
118	0xbe2fee3a	-0.1718072
119	0xbd313c1f	-0.043270227
120	0x3d980586	0.074229285
121	0xbe5258b3	-0.20541649
122	0xbc9decbc	-0.019277923
123	0xbe10f089	-0.14154257
124	0xbe3dd071	-0.18536545
125	0xbd80d3da	-0.062904075
126	0xbdf64b63	-0.120260976
127	0xbde69e9f	-0.11260723
128	0x3d8f322f	0.06991994
129	0x3e70a141	0.23499013
130	0x3e821675	0.25407758
131	0x3e3d40f0	0.18481803
132	0x3e48d2a7	0.19611607
133	0xbe169df0	-0.14708686
134	0x3cbc1d38	0.022963151
135	0x3d42fa86	0.0476022
136	0xbbf6190e	-0.007510311
137	0x3e490753	0.196317
138	0x3d9e02a6	0.07715349
139	0xbcaedd72	-0.021345828
140	0x3d00fd1b	0.03149138
141	0xbe2c53d3	-0.16828851
142	0xbdde2147	-0.10846191
143	0x3d4037e2	0.046928294
144	0x3e015472	0.1262987
145	0xbe27dd5b	-0.16393034
146	0x3dfe7c2e	0.12426029
147	0x3d824023	0.06359889
148	0x3e1fbab6	0.15598568
149	0x3df0c099	0.11755485
150	0xbd6c4bfd	-0.057689656
151	0xbe14fe72	-0.14550188
152	0x3c7d1c54	0.0154486485
153	0x3ea5833b	0.32326683
154	0x3ddfb266	0.10922699
155	0xbccd9247	-0.025094165
156	0x3df185eb	0.11793121
157	0xbdbdd057	-0.09268253
158	0xbc3449f5	-0.011003961
159	0x3e4f56f8	0.2024802
160	0xbe25c05e	-0.16186664
161	0x3c7831c4	0.015148584
162	0xbd5e5f14	-0.054289892
163	0xbea593d9	-0.3233936
164	0xbe43bde4	-0.19115406
165	0x3e3198df	0.17343472
166	0xbe431cf2	-0.1905401
167	0xbcfceae4	-0.030873723
168	0xbe9c0318	-0.3047111
169	0xbe09e818	-0.13467443
170	0xbd893458	-0.06699437
171	0x3c139c6f	0.009009465
172	0xbead15c4	-0.33805668
173	0xbc071841	-0.008245529
174	0xbdbbf43a	-0.09177442
175	0xbe7b02ce	-0.24512789
176	0xbe57f6ae	-0.21090195
177	0x3de4627f	0.11151599
178	0xbdaa8293	-0.08325686
179	0xbde82f1a	-0.11337109
180	0xbd1be415	-0.038059313
181	0x3c95ee8e	0.018302228
182	0x3d19aa07	0.037515666
183	0xbe1b9440	-0.15193272
184	0xbd32a3b1	-0.04361314
185	0xbe31d682	-0.17366984
186	0xbde06176	-0.10956089
187	0xbd65872e	-0.05603712
188	0x3dd10c66	0.10207443
189	0x3cc2fce4	0.023802228
190	0xbe53b3f9	-0.20674123
191	0xbe847604	-0.2587129
192	0x3e9b9635	0.30388036
193	0x3e2ce6fc	0.16884989
194	0xbd939902	-0.07206918
195	0x3e88ce1b	0.26719746
196	0xbe19b566	-0.15010604
197	0x3d601eac	0.05471675
198	0x3d22b58d	0.03972392
199	0x3e8f4d29	0.27988556
200	0xbdb95c43	-0.09050801
201	0xbd456cdd	-0.048199523
202	0x3e047ba1	0.12937786
203	0x3e300002	0.17187503
204	0x3e472d35	0.19450839
205	0x3ecc4610	0.39897203
206	0x3b04624d	0.0020200193
207	0x3e55ec7b	0.20890991
208	0x3e7398c2	0.23788741
209	0xbe114375	-0.14185889
210	0xbc7f87a3	-0.015596303
211	0x3e8ea503	0.2786027
212	0xbd1730f3	-0.036911916
213	0x3e18cb3d	0.14921279
214	0x3e6e00cf	0.23242496
215	0x3e5954d9	0.21223773
216	0xbac0b044	-0.0014700969
217	0xbd2883f6	-0.041141473
218	0xbd9a8a28	-0.075458825
219	0x3e73a07b	0.23791687
220	0x3d86b51e	0.06577514
221	0x3bd3b603	0.0064609065
222	0xbe2e10de	-0.16998622
223	0xbe03ca83	-0.12870221
224	0xbe2ed5c2	-0.1707373
225	0x3e85f0cc	0.26160276
226	0xbcdf1071	-0.02722952
227	0x3d131f04	0.03591825
228	0x3dc18e0d	0.09450922
229	0xbdb45f11	-0.08807195
230	0x3e843e30	0.25828695
231	0xbdca7102	-0.09884836
232	0xbc05df6e	-0.008170946
233	0x3e0b8b3d	0.13627334
234	0x3e10b030	0.1412971
235	0x3d2bdff4	0.041961625
236	0x3e5373a6	0.20649585
237	0xbdc69eee	-0.09698282
238	0xbd10d068	-0.035355
239	0x3e15dac5	0.14634235
240	0x3ced9ee4	0.029006429
241	0x3e48cc48	0.19609177
242	0x3e540ebd	0.20708747
243	0x3db4dc2e	0.088310584
244	0x3d35ab6c	0.044352934
245	0xbcb502ee	-0.022096124
246	0xbe3aa840	-0.18228245
247	0xbd881b2c	-0.066458076
248	0x3e19651b	0.14979975
249	0x3d5085dd	0.050908912
250	0xbdc820fa	-0.09771915
251	0x3d90f3d0	0.070777535
252	0xbdde7f4b	-0.10864123
253	0x3d929af6	0.07158463
254	0x3e4698d7	0.19394241
255	0xbe18ec79	-0.14933957
