streamlit/trainer/dcrkt_model_fold_1.pt (torch, 655181 bytes, 44 tensors)

memory_key f4 [98, 64]
0	0xbfdbb39a	-1.7164185
1	0x3f5b4ecd	0.85667115
2	0x3f34a699	0.7056671
3	0x3e80c820	0.25152683
4	0x3e6256c7	0.22103415
5	0xbf70a83d	-0.9400671
6	0x3f5750d9	0.8410774
7	0x3f4ab49c	0.7918184
8	0x3e923163	0.28553304
9	0x3e3a0714	0.18166763
10	0xbf5938b6	-0.8485216
11	0xbfe7c834	-1.8107972
12	0xbe224d5c	-0.15849823
13	0xc05c69c5	-3.4439557
14	0xc034cf5c	-2.8251562
15	0x3fd216f1	1.6413251
16	0x3f5238da	0.82118
17	0x3f9965f2	1.1984236
18	0x3cd35edb	0.025802067
19	0xbf87a5e3	-1.05975
20	0xbec289fd	-0.37995902
21	0xbfc14bd6	-1.5101268
22	0x3f24b6ab	0.6434123
23	0x3f9ebd85	1.2401587
24	0xbd9590b3	-0.0730299
25	0x3f76aa04	0.96353173
26	0x3f68e9c9	0.9098173
27	0xbf9ea5db	-1.2394365
28	0xbeb07177	-0.34461567
29	0xbef3b9fa	-0.47602826
30	0xbee49f74	-0.44652903
31	0x3f2893fa	0.65850794
32	0x3f6fcad2	0.93668854
33	0x3ec80763	0.39068136
34	0xbe412cc9	-0.1886474
35	0xbfb7ac8e	-1.4349535
36	0xbe9f85df	-0.31156823
37	0x3d11d678	0.035604924
38	0xbf9f1651	-1.2428685
39	0x3fe89bb3	1.8172516
40	0xbf88b278	-1.0679464
41	0x3f6a02be	0.91410434
42	0x3fa7df86	1.3115089
43	0xbfe580b1	-1.7929899
44	0xbff425b2	-1.9074004
45	0xbfcfabf7	-1.6224355
46	0xbfb4f7f3	-1.4138168
47	0x3f1f14de	0.62141216
48	0xbf92d7d2	-1.1472113
49	0x40035bc5	2.0524762
50	0xbf6d8378	-0.9277873
51	0x3d1245f3	0.03571124
52	0xbe96219e	-0.29322523
53	0xbf27c638	-0.6553683
54	0x3e61107c	0.21978945
55	0xba9dec6b	-0.0012048607
56	0xbcd34fa7	-0.025794817
57	0xbeae3a58	-0.34028888
58	0x3ed84583	0.42240533
59	0x3fb368c9	1.4016353
60	0xbf3d17ce	-0.7386445
61	0x401af133	2.4209716
62	0xbf2f9866	-0.68591917
63	0x3eb53e0a	0.35398895
64	0x3f6d001d	0.925783
65	0x3e48e04c	0.19616812
66	0x3e72d748	0.23714936
67	0x3f4db4de	0.80354106
68	0x3e5cee83	0.2157536
69	0xbf298b32	-0.6622802
70	0xbf59f202	-0.851349
71	0xbe07552f	-0.13216089
72	0xbf0b8cf2	-0.5451194
73	0xbfe0a1f9	-1.754943
74	0xbcdd81c6	-0.02703942
75	0xbfe2e9ce	-1.7727602
76	0x3ff05a9d	1.8777653
77	0xbf9c5d2a	-1.2215931
78	0x3f199e4d	0.6000717
79	0xbef125b7	-0.47099087
80	0x3effbfb2	0.4995094
81	0xbf624468	-0.8838563
82	0x3f2f5d6b	0.6850192
83	0xbfab9424	-1.3404584
84	0x3f5d8a52	0.86539185
85	0x3fb25ad1	1.3933965
86	0x3f15ec35	0.5856355
87	0x3c13d37e	0.009022592
88	0xbd805c84	-0.06267646
89	0xbd18ea2c	-0.0373327
90	0xbe50a235	-0.20374377
91	0x3d49ce47	0.049268987
92	0x3d802734	0.062574774
93	0xbf470a2e	-0.7774991
94	0xbf896760	-1.0734673
95	0xbefa83fc	-0.4892882
96	0x3f6d18db	0.9261605
97	0x3f4df8aa	0.80457556
98	0xbedc203d	-0.42993346
99	0x3e8b8e8f	0.272572
100	0xbf7b4a30	-0.98160076
101	0xbf7a3709	-0.97740227
102	0xbf860436	-1.0470035
103	0xbf7c5707	-0.98570293
104	0x3f1c61a7	0.61086506
105	0xbf09462d	-0.53622705
106	0x3f4a6d49	0.79073006
107	0xbe2c81ad	-0.16846342
108	0x3fbaf995	1.4607416
109	0xbeca8ccf	-0.39560553
110	0x3d9dda73	0.077076815
111	0xbeddf4d1	-0.43350843
112	0xbf76d6e4	-0.9642165
113	0xbf709f5d	-0.9399317
114	0xbd9457ba	-0.07243295
115	0x3f2cc7ad	0.6749218
116	0xbfafb4ef	-1.3727092
117	0x3e6e83ab	0.23292415
118	0x3f7499b3	0.95547026
119	0x3fc62e40	1.5482864
120	0xbe566496	-0.20936808
121	0xbcbc524b	-0.02298846
122	0x3fc95436	1.5728824
123	0x3f80173f	1.0007094
124	0x3f5c5dc3	0.8608057
125	0x3f4f5742	0.8099252
126	0xbec8030d	-0.39064828
127	0xbffd072c	-1.9767814
128	0x3eb3ebf0	0.35140944
129	0x3eccb1c1	0.39979365
130	0xbfab2e7c	-1.3373561
131	0xbf88ad84	-1.0677953
132	0x3f2461e1	0.6421185
133	0x3e84c872	0.25934178
134	0x3e5d3d03	0.21605305
135	0x3ffa786b	1.9567999
136	0xbfb536f9	-1.4157401
137	0xbed336dd	-0.41252795
138	0x3f2c8605	0.67392
139	0xc006f92f	-2.108959
140	0xbf635848	-0.8880658
141	0xbeae1ffa	-0.3400877
142	0xbf1b917e	-0.6076888
143	0x3f770c7e	0.96503437
144	0xbe9ca996	-0.30598134
145	0xbf89d2a3	-1.0767406
146	0x3fb5b1a9	1.4194843
147	0x3f4428b3	0.766246
148	0x3fa80293	1.3125786
149	0x4002740f	2.0383337
150	0xbfc9372e	-1.5719965
151	0x3f43c97f	0.76479334
152	0x400cdb7b	2.200896
153	0xbf9b5dc5	-1.2137991
154	0x3ea87d82	0.32908255
155	0x3f86c2ff	1.0528258
156	0xbde9e657	-0.11420887
157	0x3f234a4a	0.6378523
158	0xbf655852	-0.8958789
159	0x3de150b3	0.1100172
160	0x3eeb52de	0.4596166
161	0xbfd66e6f	-1.6752452
162	0x3fad0cdb	1.3519548
163	0x3f39f35d	0.7263697
164	0xbea363ee	-0.31912178
165	0x3fa4ba02	1.2869265
166	0xbf8dad80	-1.1068573
167	0x3fe216b9	1.7663184
168	0xbcd08104	-0.025452144
169	0x3d99cbc7	0.075095706
170	0xbf24b7d6	-0.6434301
171	0x3fda6966	1.7063415
172	0xbf4e1595	-0.8050168
173	0xbe9c5400	-0.30532837
174	0x3f98b4bb	1.1930155
175	0xbf53d324	-0.8274405
176	0xbef396e5	-0.4757606
177	0x3fc81022	1.5629923
178	0x3f4ce330	0.8003416
179	0xbf75dd47	-0.9604077
180	0x3ed0c4b5	0.40775076
181	0x3fdb2667	1.7121094
182	0x3ebb6aa9	0.36604813
183	0x3f2979b7	0.6620135
184	0x3ebf8d72	0.37412602
185	0xbc0ec1b8	-0.008713178
186	0x3e8713e1	0.26382354
187	0xbeb4bc31	-0.3529983
188	0xbf21190d	-0.6292885
189	0x3fd3b857	1.6540631
190	0xbf04d5d5	-0.5188878
191	0x3fa81450	1.3131199
192	0xbf0c7ecd	-0.5488098
193	0x3f3e97bc	0.7445028
194	0x3ef56a36	0.47932595
195	0xc0011be0	-2.0173264
196	0xbf36b718	-0.7137313
197	0x3f3ad8b5	0.7298692
198	0x3e40a289	0.18812002
199	0xbf7c9969	-0.98671585
200	0x3fb22204	1.3916631
201	0x3fa2bef8	1.2714529
202	0x3dee74e3	0.11643388
203	0x3f88d848	1.0691004
204	0x3fa59c92	1.2938406
205	0xbfb805bd	-1.4376751
206	0x4002917f	2.0401304
207	0xbe77d78c	-0.24203318
208	0x3db4812f	0.08813702
209	0xbf8614ba	-1.0475075
210	0x3f5ec546	0.87019765
211	0xbf878e05	-1.0590216
212	0xbee2d709	-0.44304684
213	0x3dd1ec01	0.10250092
214	0x3e57639d	0.21034093
215	0xc00b3806	-2.1752944
216	0x3fa9aa24	1.3255048
217	0x3fd7194f	1.6804599
218	0xbf90f43b	-1.1324533
219	0xbf92438a	-1.1426861
220	0xbf3c085a	-0.73450243
221	0xbfa0bafb	-1.2557062
222	0xbdc382aa	-0.095464066
223	0x3fb5fa79	1.4217063
224	0xbc7659a5	-0.015036021
225	0xbf59c3ad	-0.850642
226	0x3f660f9c	0.8986757
227	0x3c83f10d	0.016106153
228	0x3f28e7d5	0.6597875
229	0xbf6148cd	-0.8800171
230	0xbf1ed8b4	-0.6204941
231	0xbeaa3309	-0.33242062
232	0x3fa6d05a	1.3032334
233	0xbfea1d10	-1.8290119
234	0x3f0227f4	0.50842214
235	0x3fa1d88c	1.264421
236	0x3feae4a5	1.8351027
237	0x3ece247d	0.40262213
238	0xbff5b3ff	-1.9195555
239	0xbe26a71b	-0.16274683
240	0x3ebedec3	0.3727933
241	0xbf040331	-0.5156737
242	0xbf1af68b	-0.60532445
243	0x3e934d94	0.28770125
244	0x3f9dc49a	1.2325623
245	0x3d004753	0.03131802
246	0xbe8a01d7	-0.2695453
247	0x3f22fdf1	0.63668734
248	0x3fb49a3d	1.410957
249	0xc0330a26	-2.7974944
250	0x3f90577b	1.1276697
251	0x3f02e638	0.51132536
252	0x3f45bdfd	0.77243024
253	0x3f1b6549	0.60701424
254	0xbec8620d	-0.39137307
255	0x3e72ab56	0.23698172

question_emb.weight f4 [213, 64]
0	0xbea5191e	-0.32245725
1	0x3e747c08	0.23875439
2	0x3f9a4012	1.2050803
3	0xbf555e9e	-0.833475
4	0x3df593ab	0.11991056
5	0x3fe1a543	1.7628559
6	0x3efa0e8b	0.4883922
7	0xbfb1693d	-1.3860241
8	0xbfe059a5	-1.7527357
9	0xc007ed6d	-2.1238663
10	0xbf12483c	-0.5714147
11	0xbfd38e9e	-1.6527898
12	0xbe0ec2f4	-0.13941556
13	0x3f12c1c9	0.5732694
14	0x3ee0af6a	0.4388383
15	0x3f7e2097	0.9926848
16	0x3f6195fa	0.8811947
17	0x3de2b478	0.11069578
18	0xbf52b049	-0.8230024
19	0x3f14c0f5	0.5810693
20	0xbeeb7659	-0.4598873
21	0x3f17f472	0.5935737
22	0x3edf9633	0.4366928
23	0x3f1e0c67	0.61737674
24	0x3f0e825d	0.5566767
25	0x3e98136a	0.29702312
26	0x3f9fcdde	1.2484701
27	0x3c3bc38b	0.011460195
28	0x3f7a708f	0.97828
29	0x3f693ab5	0.91105205
30	0xbfc27f9a	-1.5195191
31	0xbf5345ef	-0.82528585
32	0x3fb5769b	1.417682
33	0xbf1e9f14	-0.61961484
34	0xbf734d6d	-0.9504002
35	0xbfe4c33d	-1.7872082
36	0xbf50af5a	-0.81517565
37	0x3f3e3e96	0.7431425
38	0xbedd6fcd	-0.4324936
39	0xbf0659a7	-0.5248055
40	0xbe9af653	-0.30266055
41	0xc003d712	-2.0600019
42	0xbf9a91a5	-1.2075697
43	0x4039aeff	2.901306
44	0x3ecc67e2	0.39923006
45	0xbf569788	-0.8382497
46	0x3f8827b7	1.063712
47	0xbdeb0b32	-0.11476745
48	0x3dc0d1ed	0.0941504
49	0x3f825d57	1.0184735
50	0x3fcd6557	1.6046551
51	0xbf300bcb	-0.68767995
52	0xbee3a31d	-0.44460383
53	0xbffd8581	-1.9806367
54	0xbf2d199f	-0.6761722
55	0xbe16e6e3	-0.14736514
56	0x3f2753e2	0.6536237
57	0x3f75b863	0.95984477
58	0xbf82be29	-1.0214282
59	0x3e8feb86	0.28109378
60	0xc02a29c9	-2.6588004
61	0xbfff5817	-1.9948758
62	0xbe0f71a7	-0.14008199
63	0x3eb7c520	0.35892582
64	0xc00e97e0	-2.2280197
65	0xbf9f27eb	-1.2434057
66	0xbfb061ae	-1.377981
67	0xc004dcac	-2.0759687
68	0x3e9107e7	0.28326342
69	0xbe11b234	-0.14228135
70	0xbf1d66e9	-0.61485153
71	0xbf2ac2c0	-0.66703415
72	0xbf663a7c	-0.8993299
73	0xbf8d0e81	-1.1020051
74	0x3ffb9e69	1.9657718
75	0xbf191443	-0.5979654
76	0x402997c6	2.6498885
77	0xbd89d660	-0.06730342
78	0x3e835251	0.2564874
79	0xbf3c99c5	-0.73672134
80	0x3e933870	0.28753996
81	0x3f69901d	0.91235524
82	0x3c38489c	0.01124778
83	0x3fa12f88	1.259263
84	0x3f021b07	0.5082249
85	0xbf90c801	-1.1311036
86	0x3e514cb9	0.20439424
87	0x3ea9e67e	0.33183664
88	0x3ee93bc5	0.45553413
89	0x3e3605ed	0.17775698
90	0x3d8ca5b2	0.068675414
91	0xbf7cfa06	-0.98819005
92	0x3f1f5478	0.62238264
93	0x3e705683	0.23470502
94	0xc038923a	-2.883925
95	0xbec17d37	-0.37790844
96	0x3f8cc47f	1.0997466
97	0xbf3eb040	-0.74487686
98	0x3f80acec	1.0052772
99	0xbf1f9172	-0.62331307
100	0x3f885f34	1.0654054
101	0xbf0bb06b	-0.5456607
102	0xbf7e9560	-0.9944668
103	0x3f97da2b	1.1863455
104	0xbe14dfe1	-0.14538528
105	0x3e7537ff	0.23947142
106	0x3fa9525e	1.3228261
107	0x3f80bf43	1.0058368
108	0xbf2cf19d	-0.6755617
109	0x3ee2050b	0.44144472
110	0xc00784bf	-2.1174772
111	0x40044501	2.0667117
112	0xbf5ee8a5	-0.8707374
113	0xbf9af94a	-1.2107327
114	0x3f849074	1.0356584
115	0xbfa4e37b	-1.2881922
116	0x3e3e99ae	0.18613312
117	0x3fa488c6	1.285424
118	0x3ea48ad2	0.32137161
119	0xbefaf7f0	-0.49017286
120	0x3e7385d4	0.2378152
121	0xbf8aee7c	-1.085403
122	0x3f8fc4eb	1.123197
123	0xbdf2a024	-0.11846951
124	0x3f4fc6b5	0.8116258
125	0xbf47bd34	-0.78023076
126	0x3ebe176c	0.37127244
127	0x3f074631	0.5284148
128	0xbfc266d0	-1.5187626
129	0xbf882e44	-1.0639119
130	0x3c0e6ebf	0.008693396
131	0x40080825	2.125497
132	0xbe721727	-0.23641644
133	0xbf34f15a	-0.70680773
134	0xbf58d4cd	-0.8469971
135	0x3f3d4910	0.7393961
136	0x3fea6473	1.8311905
137	0xbe0e8c4b	-0.13920705
138	0x3eac2da4	0.3362857
139	0xbfed8859	-1.8557235
140	0x3b971296	0.00461037
141	0x3faa52cc	1.3306518
142	0x3f8dec38	1.1087713
143	0x3fb13fd5	1.3847605
144	0xbe91be4b	-0.28465495
145	0xbe95bfd8	-0.29247928
146	0xbfd729f3	-1.6809677
147	0xbd149ca8	-0.03628221
148	0x3e57be17	0.21068607
149	0xbf287629	-0.658053
150	0xbe9ad5c9	-0.3024123
151	0x3ecbe9e4	0.39826882
152	0xbe441631	-0.1914909
153	0xbf18fd58	-0.5976157
154	0xbf614305	-0.8799289
155	0x4004c9c3	2.0748146
156	0x3fb45964	1.408978
157	0x3f72bbfe	0.94818103
158	0x3a39263a	0.0007062886
159	0xbe85f557	-0.26163742
160	0x3e9c4e21	0.30528358
161	0xc0043681	-2.0658267
162	0xbed441f8	-0.4145658
163	0xbf9f4c2a	-1.2445118
164	0xbf84691f	-1.034458
165	0x3f310e5a	0.69162524
166	0xbfa86f01	-1.3158876
167	0xc01586f5	-2.3363621
168	0x3ec53eee	0.38524574
169	0x3fa0b8f1	1.255644
170	0xbc513107	-0.012768037
171	0xbfd27e9d	-1.6444889
172	0xbe93e92c	-0.28888834
173	0xbef2bd8b	-0.47410235
174	0x3f6be983	0.92153186
175	0x3f8f91d2	1.1216376
176	0xbe910c0f	-0.28329512
177	0x3fdb4dcc	1.7133117
178	0xbf6e96a7	-0.9319863
179	0xbebbe5c9	-0.3669875
180	0x3f9aee9d	1.2104069
181	0x3dc14460	0.094368696
182	0x3e622f6b	0.22088401
183	0x3c4586c4	0.012056056
184	0x3fb3f795	1.4059931
185	0x3f6bf5fa	0.92172205
186	0xbf154dc8	-0.5832181
187	0x3f26d132	0.65162957
188	0x3ed87737	0.42278454
189	0xbf89532b	-1.0728506
190	0x3f379ef7	0.71726936
191	0xbeef2a00	-0.4671173
192	0xbe6a98bd	-0.22909828
193	0xbf95c264	-1.1699948
194	0x3f605b8e	0.876397
195	0xbe290673	-0.16506366
196	0x3ffd60b2	1.9795134
197	0x3f79beaa	0.97556555
198	0xc01026e8	-2.2523746
199	0x3f3a668e	0.72812736
200	0x3f33e861	0.7027646
201	0xbfa03cb7	-1.2518529
202	0xbf4da5dd	-0.8033121
203	0x3fa6cfa0	1.3032112
204	0x3fb00709	1.3752147
205	0x3f866b4f	1.0501498
206	0x3fbec938	1.4905157
207	0xbfea7e70	-1.8319836
208	0x3ee5fd76	0.44919938
209	0xbf2fa9fe	-0.6861876
210	0xbfa55242	-1.2915728
211	0x402111e6	2.5167174
212	0x3f77aebf	0.96751016
213	0xbfb94768	-1.4474916
214	0xbe84c1dc	-0.25929153
215	0xbfd4ba6d	-1.6619393
216	0xbee06817	-0.43829414
217	0xbe832d9a	-0.2562073
218	0xbfc15706	-1.5104682
219	0xbe62e1eb	-0.22156493
220	0xbefd5847	-0.49481413
221	0x3f49eee2	0.7888013
222	0xbf4a6390	-0.7905817
223	0x3e63b4e9	0.2223698
224	0xbe9ac421	-0.3022776
225	0xbf82b214	-1.0210595
226	0xbfb3100f	-1.3989276
227	0xbe192f11	-0.1495936
228	0x3eb51a63	0.35371694
229	0x3f6cf58f	0.9256219
230	0x3fc59368	1.543561
231	0x3fa6ae9a	1.3022034
232	0x3f816015	1.0107447
233	0x3f294adc	0.6612985
234	0xbf8f07f8	-1.1174307
235	0xbef3d13f	-0.4762058
236	0x3ffa5083	1.955582
237	0x3f8410a4	1.0317578
238	0xbf1f015f	-0.6211147
239	0x3ffa8dc4	1.9574513
240	0xbe39ffee	-0.18164036
241	0xbf82814c	-1.0195708
242	0xbeb28a93	-0.3487135
243	0xbcac52a1	-0.021035494
244	0xbefafe84	-0.49022305
245	0x3e950295	0.29103532
246	0x3f0f0a9a	0.5587555
247	0xbe477c54	-0.19481021
248	0xbfbea3cf	-1.489374
249	0x3fd3692f	1.6516474
250	0xbf82c50f	-1.0216388
251	0x3fa53fb0	1.2910061
252	0xbf586e35	-0.8454316
253	0x3dbcd658	0.0922057
254	0x3fe8ea55	1.8196512
255	0xbe1fce45	-0.1560603

response_emb.weight f4 [1062, 64]
0	0xbf933bd1	-1.150263
1	0xbe0d0dcc	-0.13774794
2	0x3f464488	0.7744832
3	0x3cdf1f24	0.027236529
4	0x3f1e039d	0.61724263
5	0xbe8593c2	-0.26089293
6	0x3f778546	0.96687734
7	0x3f993dfb	1.197204
8	0x3e7802e6	0.24219856
9	0x3dfc01b1	0.1230501
10	0xbeb1efa3	-0.3475314
11	0x3ec8b116	0.39197606
12	0xbfe59151	-1.7934972
13	0x3fe0782e	1.7536676
14	0xbe8f406c	-0.27978837
15	0x3fda98c9	1.7077876
16	0xbf841029	-1.0317432
17	0xbed27392	-0.41103798
18	0xbf8f26bb	-1.1183695
19	0x3f1d74f6	0.61506593
20	0x3f1a712f	0.60328954
21	0xbf828b39	-1.0198737
22	0x3b3c8b4d	0.0028769553
23	0x3f3a67d2	0.7281467
24	0x3d9a7bd0	0.075431466
25	0xbcd21d50	-0.025648743
26	0xbd6a9611	-0.05727202
27	0x3faf08ec	1.3674598
28	0xbe542ce5	-0.20720251
29	0xbf6a65e7	-0.9156174
30	0xbf41263f	-0.75448984
31	0xbf136cbb	-0.57587785
32	0xbdaa1df7	-0.083064966
33	0xbf3910de	-0.7229136
34	0xbf30d694	-0.6907742
35	0xbf9ddb07	-1.2332467
36	0xc01e0320	-2.4689407
37	0xbfd52e22	-1.6654704
38	0x4005ad21	2.088692
39	0xbf96fd9a	-1.1796143
40	0x3f2855a2	0.65755665
41	0x3f4d7bfa	0.802673
42	0x3f195638	0.59897184
43	0x3f991beb	1.1961645
44	0x3e498458	0.19679391
45	0x3fd8d275	1.6939226
46	0xbb2d8a2b	-0.002648006
47	0xbf8d5a03	-1.1043094
48	0x3e2bf0a8	0.16791022
49	0x3d542a19	0.05179796
50	0x3d3ce510	0.04611689
51	0xbf871177	-1.0552205
52	0xbe9ea668	-0.30986333
53	0x3dad33ca	0.084571436
54	0xbee84d2b	-0.45371374
55	0x3eb3de27	0.35130426
56	0x3f8c1df3	1.094664
57	0xbe741f00	-0.2383995
58	0xbe0c5293	-0.13703375
59	0xbe6fa7d4	-0.23403865
60	0xbf157eea	-0.5839678
61	0x3eb823ac	0.35964715
62	0xbf8a47ec	-1.0803199
63	0x3dfcdec5	0.123471774
64	0x3e836a45	0.25667015
65	0x3dd221f3	0.102603815
66	0x3e9245c9	0.28568867
67	0xbefa2d31	-0.48862603
68	0x3e8b7680	0.27238846
69	0x3f6344cf	0.8877687
70	0x3efa9c17	0.48947212
71	0x3f5b9f46	0.85789907
72	0xbffb2838	-1.9621649
73	0xbe9215ac	-0.2853216
74	0x3f43ecf4	0.76533437
75	0xbd883218	-0.066501796
76	0xbfa61c1f	-1.2977332
77	0xbf359d8c	-0.7094352
78	0xbe4383e5	-0.19093283
79	0xbf99a4e9	-1.2003452
80	0x3ffdc788	1.9826517
81	0x3ca0124c	0.019539975
82	0x3ebd30d2	0.3695131
83	0xbf06d4a1	-0.52668196
84	0x3f845b1a	1.0340302
85	0x3fc6a71b	1.5519747
86	0x3f0e6140	0.5561714
87	0xbf3ad844	-0.72986245
88	0x3e83440c	0.25637853
89	0x3f4237e5	0.7586654
90	0x3f8ba371	1.0909253
91	0xbec3a629	-0.38212708
92	0xbe1ebdb5	-0.15502055
93	0xc009c2dd	-2.1525185
94	0xbe8b269d	-0.27177897
95	0xbe8919f0	-0.267776
96	0x3f0658ab	0.52479047
97	0xbff807b9	-1.9377357
98	0x3ef0fe3e	0.4706897
99	0xbd8c9335	-0.06864015
100	0x3f0de48d	0.55426866
101	0x3ece3ab1	0.40279153
102	0x3fc85e77	1.5653828
103	0xbf1a3a5b	-0.60245293
104	0xbf68f938	-0.9100528
105	0x3f3855b4	0.7200577
106	0xbe6a1268	-0.22858584
107	0x3fca67a7	1.5812882
108	0x3f07e179	0.5307842
109	0xbd2c458e	-0.04205852
110	0xc00e54bb	-2.2239215
111	0xbf7705f3	-0.9649345
112	0x3f3cf0b0	0.7380476
113	0x3ecba473	0.39773902
114	0xbeca22b4	-0.394796
115	0xbf8ec0d7	-1.11526
116	0x3ebfd3f1	0.37466386
117	0x40110768	2.266077
118	0xbd3189ee	-0.04334443
119	0xbf17ca67	-0.59293216
120	0x3fa51066	1.289563
121	0xbeaa3015	-0.3323981
122	0xbe909e13	-0.282456
123	0xbf508e5d	-0.8146723
124	0xbff15011	-1.8852559
125	0x3cc17425	0.023614952
126	0x3d5568ba	0.05210183
127	0xbfe0bc86	-1.7557533
128	0x3d9c7963	0.0764034
129	0x3f659130	0.89674664
130	0x3f0f999c	0.56093764
131	0xc01dae59	-2.4637663
132	0x3e21e035	0.15808184
133	0x3f664f93	0.8996517
134	0x3e0bfef3	0.13671474
135	0x3ecadde5	0.39622417
136	0xbf18fb1a	-0.5975815
137	0x3ec2c5d4	0.38041556
138	0xbe05a3ee	-0.13050815
139	0x3dc7deed	0.097593166
140	0xbf9c31fd	-1.2202755
141	0x3efc8e93	0.49327525
142	0xbfbc8670	-1.4728527
143	0xbf1217be	-0.5706748
144	0x3db47215	0.08810822
145	0x3f887fa0	1.0663948
146	0x3c8888cd	0.016666794
147	0x3ea764db	0.32694134
148	0x3f9d4210	1.2285786
149	0xbf366e22	-0.712618
150	0x3fa4cabe	1.2874372
151	0xbf467356	-0.7751974
152	0xbcc272d0	-0.023736387
153	0x3fe795e9	1.8092624
154	0xbf3c5768	-0.7357087
155	0x3fcc780a	1.5974133
156	0xbfb1bcca	-1.3885739
157	0x401161d6	2.2715964
158	0x4006bdb7	2.1053293
159	0x3efd7ed6	0.4951083
160	0xbf466a7a	-0.7750622
161	0xbe1b1854	-0.15145999
162	0x3fbd6eb5	1.479941
163	0x3ec051a0	0.37562275
164	0xbfdea55b	-1.7394212
165	0x3e886dbb	0.26646218
166	0xbff1af77	-1.8881673
167	0x3e611efc	0.21984476
168	0xbf6c0922	-0.92201436
169	0xbf301211	-0.6877757
170	0x3fa36e68	1.2768068
171	0x3faf13ba	1.3677895
172	0xbf5e8b58	-0.8693137
173	0x3e18d039	0.1492318
174	0xbfb73e8a	-1.431596
175	0xc004c0fb	-2.0742786
176	0xbf36a3a5	-0.7134345
177	0xbceb21a7	-0.02870257
178	0xbf937a45	-1.1521689
179	0x3f5a4213	0.8525707
180	0x3fb80ff7	1.4379872
181	0xbf6b5f00	-0.91941833
182	0x3f1ca986	0.6119617
183	0x3ed88a30	0.4229293
184	0x3cc93097	0.024559302
185	0x3f43fc49	0.7655683
186	0xbf79c566	-0.9756683
187	0x3e70c21c	0.23511547
188	0x3f854add	1.0413471
189	0x40054c59	2.082785
190	0xbf77bf14	-0.9677594
191	0x3f5f2432	0.87164605
192	0xbe25ed5b	-0.16203825
193	0xbd99396c	-0.074816555
194	0xbe6e9526	-0.23299083
195	0x3fa6e28c	1.3037887
196	0xbf14fc9a	-0.5819794
197	0xbe2103c2	-0.1572409
198	0x3efcc8e5	0.4937202
199	0xbf253769	-0.64537674
200	0xbf449bb1	-0.76800066
201	0x3f4cbc57	0.79974884
202	0x3fcd4565	1.6036803
203	0xbf14f83e	-0.5819129
204	0x3e2497f4	0.1607359
205	0xbf705974	-0.93886495
206	0x3f96f783	1.1794285
207	0x3fefe587	1.8741921
208	0x3e205433	0.1565712
209	0xbf0f0be3	-0.5587751
210	0xbf2d0b68	-0.6759553
211	0xbf1dfe26	-0.61715925
212	0x3e0731bc	0.13202566
213	0xbfadbcbe	-1.3573225
214	0x3fc1110d	1.5083328
215	0xbd1a1a96	-0.03762301
216	0x40151cca	2.3298821
217	0x3e534699	0.206324
218	0xbf192d24	-0.59834504
219	0xbf7e4000	-0.99316406
220	0x3f5c1247	0.8596539
221	0xbf88d452	-1.0689795
222	0xbfc79851	-1.5593358
223	0xbeda259c	-0.4260682
224	0xbd5e2e70	-0.054243505
225	0x3ea17463	0.3153411
226	0xbe0bb06d	-0.1364152
227	0xbdfa1e37	-0.12212794
228	0x3fda9f3d	1.7079846
229	0x3f1dc938	0.6163516
230	0xbeef2b50	-0.46712732
231	0xbfb36075	-1.4013811
232	0xbfc67a19	-1.5506011
233	0xbfbed318	-1.4908171
234	0xbf7ad27d	-0.9797743
235	0xbf449ec8	-0.7680478
236	0xbfb37427	-1.4019822
237	0xbdd7e5eb	-0.105419
238	0xbeca0741	-0.3945866
239	0x3e548cd1	0.20756842
240	0xbda4304f	-0.08017027
241	0x4011cf09	2.2782614
242	0xbfc3816e	-1.5273874
243	0xbf9d1fbf	-1.2275313
244	0xbe7046dc	-0.2346453
245	0x3f4cd270	0.800086
246	0x3eff6633	0.4988266
247	0xbf81ec59	-1.0150253
248	0xbebfc901	-0.3745804
249	0xbf85fca9	-1.0467731
250	0xbf18770e	-0.59556663
251	0x3eec05e9	0.4609826
252	0xbfc9891b	-1.5744966
253	0x3f318e2b	0.69357556
254	0xbefe7d5b	-0.49705014
255	0x3ff19540	1.8873672

encoder.enc_correct.0.weight f4 [32, 64]
0	0x3db147df	0.086562864
1	0xbd850f5b	-0.064970694
2	0xbdb434d8	-0.08799142
3	0x3e40ad8d	0.18816204
4	0xbdef7eb3	-0.11694088
5	0xbcdd7d69	-0.02703734
6	0xbd00f569	-0.03148404
7	0xbdfe7655	-0.12424914
8	0xbcb71706	-0.022349846
9	0x3e4b9b4d	0.19883461
10	0xbd3b0b9f	-0.04566538
11	0xbd9b59cd	-0.075854875
12	0xbe8bd591	-0.27311376
13	0x3c66bab8	0.014082603
14	0xbd8871cb	-0.06662329
15	0x3dcabf3e	0.09899758
16	0x3cd5b77a	0.026088465
17	0x3e5126fd	0.20425029
18	0xbe7aa4fd	-0.24477
19	0xbe11739a	-0.14204255
20	0xbe9fdc79	-0.31222895
21	0x3d745a97	0.059656706
22	0x3d6039ef	0.05474275
23	0x3d192feb	0.037399214
24	0xbe35ea2b	-0.17765109
25	0x3e3596b6	0.17733273
26	0xbe492b0b	-0.19645326
27	0x3d153d35	0.036435325
28	0xbd46c7d0	-0.0485304
29	0x3e74fe09	0.23925032
30	0xbe8bd174	-0.27308238
31	0xbb66a088	-0.00351909
32	0x3da9f424	0.08298519
33	0xbd959fae	-0.07305847
34	0xbe2944bf	-0.16530131
35	0x3e8db27c	0.27675235
36	0x3d67bd4a	0.056577004
37	0xbda37097	-0.07980459
38	0xbded12ae	-0.115758285
39	0x3e4741e1	0.19458725
40	0x3d9a1bf9	0.075248666
41	0x3da5cf5a	0.0809619
42	0x3e0a87b0	0.13528323
43	0xbe6c8924	-0.2309919
44	0xbe0b61e9	-0.13611569
45	0xbd6ec75b	-0.05829559
46	0x3d92e574	0.07172671
47	0xbd811e3b	-0.06304594
48	0x3cde20d8	0.02711527
49	0xbe6bae1c	-0.23015636
50	0xbd556466	-0.0520977
51	0xbbf3602b	-0.0074272356
52	0x3e3c04fd	0.18361278
53	0xbdc4d681	-0.09611226
54	0x3da298e8	0.07939321
55	0xbe047a09	-0.12937178
56	0xbeaaa795	-0.3333098
57	0xbd9bb7ff	-0.07603454
58	0x3e0c1057	0.13678108
59	0x3e9380b6	0.28809136
60	0xbd9b4256	-0.07581012
61	0x3b128caf	0.0022361686
62	0x3dd30f53	0.10305657
63	0x3c7e1dd6	0.015510043
64	0x3d8c990e	0.0686513
65	0x3e02ca16	0.12772402
66	0x3cc48b28	0.023992136
67	0x3da31f66	0.07964973
68	0x3e253b97	0.16136013
69	0xbe0db516	-0.1383861
70	0x3e823d3c	0.25437343
71	0xbd0d69a5	-0.03452458
72	0xbe804882	-0.2505532
73	0x3ea3f90a	0.3202594
74	0x3d3e35e7	0.046438124
75	0x3de78478	0.11304563
76	0xbe7abe75	-0.24486716
77	0xbcda03b2	-0.02661309
78	0x3e6e15f0	0.23250556
79	0x3e433d43	0.19066338
80	0xbdf60ddc	-0.12014362
81	0xbce3d6f5	-0.02781246
82	0x3e239708	0.15975583
83	0x3dce7e0a	0.10082634
84	0xbdd4349c	-0.10361597
85	0x3d1e3c5e	0.03863179
86	0xbde20da6	-0.110377595
87	0x3e2ccfd9	0.16876163
88	0xbd9e6cd2	-0.077355996
89	0xbd47f3c8	-0.048816472
90	0xbc57932e	-0.013157649
91	0x3e604854	0.21902591
92	0xbbfe01d2	-0.007751682
93	0x3ea5c871	0.32379487
94	0x3c1b57e6	0.009481406
95	0xbceaabe0	-0.02864641
96	0xbb5cb242	-0.0033675586
97	0xbcec6fb9	-0.028861867
98	0xbe9274e0	-0.28604794
99	0x3e87e8d4	0.2654482
100	0xbedb7b71	-0.42867616
101	0xbe53f0f4	-0.20697385
102	0x3da1dc76	0.07903378
103	0x3e0bc3aa	0.13648859
104	0x3e41b0dc	0.18915123
105	0x3d9a51e7	0.07535153
106	0xbce4d4f5	-0.027933577
107	0x3d7170ca	0.058945455
108	0xbebb3246	-0.36561793
109	0xbcd27750	-0.025691658
110	0x3dfcfe09	0.12353141
111	0x3d397798	0.04528007
112	0xbe772615	-0.24135621
113	0xbe99300a	-0.29919463
114	0x3e72de3a	0.23717585
115	0x3d5c6624	0.053808346
116	0x3e6ca292	0.2310889
117	0x3e6e6866	0.23282012
118	0x3df24831	0.11830176
119	0xbcb8f158	-0.02257602
120	0xbca56918	-0.020191714
121	0xbddfcee7	-0.10928135
122	0x3e4ec86f	0.20193647
123	0x3e87ef9e	0.2655
124	0x3dec1de7	0.11529141
125	0x3d9562e1	0.0729425
126	0x3dbdd393	0.0926887
127	0xbebf0c37	-0.37314007
128	0x3c0316d2	0.008001046
129	0xbcf7c703	-0.030246263
130	0x3e3b3dbe	0.18285272
131	0x3ebbdb00	0.3669052
132	0x3d5f9510	0.054585516
133	0xbe3cf0a7	-0.18451177
134	0xbe63d46d	-0.22249003
135	0x3c9bfcce	0.019041445
136	0x3db670b9	0.08908219
137	0xbde8e923	-0.11372592
138	0xbbbb81ee	-0.005722276
139	0xbe3f4403	-0.18678288
140	0xbdf3eaa9	-0.11909992
141	0x39d6e892	0.0004099054
142	0xbdcc75ae	-0.09983383
143	0xbe1ad83e	-0.15121552
144	0x3e693df0	0.22777534
145	0xbc769ad3	-0.015051561
146	0x3dc28ccf	0.09499513
147	0xbdd334d5	-0.10312811
148	0x3c10d824	0.008840594
149	0xbe51fe67	-0.20507203
150	0xbe04d912	-0.12973431
151	0x3d3bee13	0.045881342
152	0x3bfa1035	0.0076313266
153	0x3dcd2e9c	0.10018656
154	0xbcb2de2e	-0.02183446
155	0x3d0877e8	0.033317477
156	0xbd384e03	-0.044996273
157	0xbe83cf85	-0.25744262
158	0x3ca6619f	0.020310221
159	0x3c15f3bf	0.009152352
160	0x3e3b73c0	0.18305874
161	0xbd1bb07a	-0.038010098
162	0x3dc84c4b	0.09780177
163	0xbe09ef29	-0.13470139
164	0x3d92ecc8	0.07174069
165	0x3e9fd5ec	0.31217897
166	0xbe04b711	-0.1296046
167	0xbd66611d	-0.05624496
168	0xbd62953e	-0.05531811
169	0xbcfc643c	-0.030809514
170	0x3bd0179c	0.0063504707
171	0x3e13b67f	0.14425085
172	0x3db1b507	0.08677106
173	0x39e262db	0.00043179732
174	0xbe319a37	-0.17343985
175	0x3d905639	0.07047696
176	0xbc9bc643	-0.019015437
177	0xbdd4ee20	-0.10396981
178	0xbe88ae1b	-0.26695332
179	0xbdde8583	-0.10865309
180	0xbd5b82be	-0.053591482
181	0xbd3c8864	-0.04602851
182	0xbe0015d3	-0.12508325
183	0xbd201428	-0.039081722
184	0xbe1fc0ca	-0.15600887
185	0xbde2cbed	-0.11074052
186	0x3d93ea1b	0.072223864
187	0x3d979ca7	0.07402926
188	0xbe50b0dc	-0.20379966
189	0x3e0216ff	0.12704085
190	0xbdfbabaf	-0.122886054
191	0x3e557e2a	0.20848909
192	0x3d70c16f	0.058778223
193	0xbd510948	-0.051034242
194	0xbbfeffec	-0.007781973
195	0xbe201427	-0.15632688
196	0x3d936325	0.07196645
197	0xbd97241f	-0.073799364
198	0xbd8ce4a2	-0.06879546
199	0x3def2a00	0.11677933
200	0x3d4b3710	0.04961306
201	0x3cddb626	0.027064394
202	0x3e2ae5ab	0.16689174
203	0xbd20716a	-0.03917066
204	0x3d8790ed	0.06619439
205	0xbe7adfb0	-0.24499393
206	0x3df5ccd5	0.12001959
207	0x3d72f1b5	0.05931254
208	0xbd6de3fe	-0.05807876
209	0x3e64da90	0.22349
210	0xbe101f5f	-0.14074467
211	0x3d3b9372	0.04579491
212	0x3d390b4d	0.045176793
213	0xbe2873d9	-0.16450442
214	0x3c211641	0.009831966
215	0xbe8fcb23	-0.2808467
216	0x3db4e043	0.08831837
217	0x3dca0394	0.09863964
218	0x3dcf793b	0.10130545
219	0x3c82c11a	0.015961219
220	0xbdbb4e1d	-0.09145758
221	0xba32c3f6	-0.00068193616
222	0xbe4104c4	-0.18849474
223	0xbe922160	-0.28541088
224	0xbd16d3b4	-0.03682299
225	0xbddc610d	-0.107606985
226	0x3e8db645	0.27678123
227	0xbd948103	-0.072511695
228	0x3e669db8	0.22521102
229	0x3d1cf056	0.03831514
230	0xbda1808d	-0.07885847
231	0x3ce99a04	0.028515823
232	0xbd992d71	-0.074793704
233	0xbe0d4ac2	-0.13798049
234	0x3d8a51e0	0.06753898
235	0xbe47ae02	-0.19499972
236	0xbc1a152e	-0.009404464
237	0x3d5ca94b	0.053872388
238	0xbd6302e1	-0.055422667
239	0xbb4d47dc	-0.003132335
240	0xbd3b315a	-0.045701362
241	0xbdd81d83	-0.10552504
242	0xbd396716	-0.045264326
243	0x3de4f400	0.11179352
244	0xbdea095a	-0.11427565
245	0xbcc7b82e	-0.024379816
246	0x3df80744	0.12110761
247	0x3ddabd1d	0.10680602
248	0x3e774859	0.24148692
249	0x3d16d679	0.03682563
250	0xbe132790	-0.1437056
251	0x3e6e8fa5	0.23296984
252	0xbe5e9544	-0.21736628
253	0x3d82b412	0.06382002
254	0x3e16576e	0.1468179
255	0x3e377937	0.17917334

encoder.enc_correct.0.bias f4 [32]
0	0xbe38ac99	-0.18034591
1	0x3df6aaf7	0.12044328
2	0x3d000e53	0.03126366
3	0x3d9b8db5	0.07595388
4	0xbe2a60d3	-0.16638498
5	0x3d8645c4	0.065562755
6	0xbdff1565	-0.124552526
7	0x3d8d66fd	0.06904409
8	0x3df12808	0.117752135
9	0x3e89b78e	0.26897854
10	0x3eb2031f	0.34768006
11	0x3c81e193	0.015854632
12	0xbe284f9f	-0.16436623
13	0x3d504dc6	0.05085542
14	0x3dc2d387	0.09513002
15	0x3dd5b1a6	0.104342744
16	0x3dc26b61	0.09493137
17	0x3e662cc1	0.2247801
18	0xbdef36ef	-0.116803996
19	0xbaa363b8	-0.0012465632
20	0x3eab680d	0.33477822
21	0xbe3c7a92	-0.18406132
22	0x3e0623e7	0.13099633
23	0x3e274598	0.16335142
24	0x3c9053f2	0.017618153
25	0x3dc99ea2	0.0984471
26	0xbde75f76	-0.112975046
27	0x3e29c762	0.16579965
28	0x3da38191	0.07983697
29	0x3e1eb070	0.15496993
30	0xbd8131af	-0.063083045
31	0x3d426b61	0.047465686

encoder.enc_correct.3.weight f4 [64, 32]
0	0x3a8af4a3	0.0010601472
1	0x3bd0644b	0.006359612
2	0xbda3ec9b	-0.08004113
3	0x3c83a21c	0.01606851
4	0x3defe2d2	0.117131844
5	0x3e706fe5	0.23480184
6	0x3b02e226	0.001997122
7	0x3dff7104	0.12472728
8	0xbe9d84ba	-0.30765325
9	0xbe8c2eff	-0.27379605
10	0x3c1c5abe	0.009543119
11	0xbdf36d27	-0.118860535
12	0x3de3fa59	0.111317344
13	0x3d7adbea	0.061244883
14	0x3e098fad	0.13433714
15	0xbeb132ab	-0.3460897
16	0xbe393eb5	-0.18090327
17	0x3e12595a	0.14291897
18	0x3e46a36a	0.19398275
19	0xbde31984	-0.11088851
20	0x3da7c07f	0.081910126
21	0xbe38e4b1	-0.18055989
22	0xbd07f8ac	-0.033196136
23	0xbe0f8755	-0.14016469
24	0xbe01681c	-0.12637371
25	0xbe5ed69e	-0.21761557
26	0x3d518b49	0.051158223
27	0x3e8e7dc2	0.2783032
28	0x3d79e026	0.06100478
29	0xbd976bba	-0.07393594
30	0xbed26e17	-0.41099617
31	0xbe1c87c8	-0.15286171
32	0xbe43bbcc	-0.19114608
33	0x3e9097f2	0.28240925
34	0x3d7f21c2	0.062288053
35	0x3d62386e	0.055229597
36	0xbe15ad9c	-0.14617008
37	0xbe2d8e45	-0.16948803
38	0x3d8d0180	0.06885052
39	0xbe4b3649	-0.19844927
40	0xbf0f9777	-0.5609049
41	0xbdbb0678	-0.09132093
42	0x3c9717b8	0.018443927
43	0x3d39ce78	0.04536292
44	0xbe12601f	-0.1429448
45	0x3e077df9	0.13231649
46	0x3e6b645c	0.22987503
47	0x3d5217f6	0.051292382
48	0xbce2a776	-0.027667742
49	0x3e8fd789	0.28094128
50	0xbd00c37c	-0.03143643
51	0xbe938ba2	-0.2881747
52	0x3e72b0c2	0.2370024
53	0xbe50fee6	-0.20409736
54	0x3e1591bc	0.14606375
55	0x3e06822d	0.13135596
56	0xbdb0ffa4	-0.086425096
57	0xbdddbd87	-0.10827165
58	0xbcbf0d13	-0.023321664
59	0x3debb8ee	0.11509882
60	0xbe7f776b	-0.24947898
61	0x3d5bc88e	0.05365806
62	0xbcd60169	-0.02612372
63	0xbe0324d5	-0.12807019
64	0xbd68f413	-0.056873392
65	0xbca31d24	-0.019911356
66	0x3e5e2bb6	0.21696362
67	0x3e331570	0.17488647
68	0x3e4c572d	0.1995513
69	0x3da7e999	0.08198852
70	0xbd873c98	-0.06603354
71	0x3ec9c307	0.39406607
72	0x3eccdd47	0.4001257
73	0x3e2f52bb	0.17121403
74	0x3dcb0c59	0.099144645
75	0x3e273553	0.16328935
76	0x3dc80e8e	0.09768401
77	0x3eabd4a3	0.33560666
78	0xbe13708f	-0.14398406
79	0xbccefeae	-0.025267925
80	0x3cbb772f	0.02288398
81	0x3d9a9da5	0.075495996
82	0xbd874176	-0.066042826
83	0xbca895f0	-0.020579308
84	0x3eaff0bc	0.34363353
85	0x3ed52e87	0.4163706
86	0x3e21e5d6	0.15810332
87	0xba17d46c	-0.0005791846
88	0x3daed344	0.085363895
89	0x3ee6a63a	0.45048696
90	0x3e41f22f	0.18940042
91	0xbdcd4356	-0.10022609
92	0x3eaa0a4b	0.33210978
93	0x3dd55571	0.10416687
94	0xbe0aa701	-0.1354027
95	0x3d5cc6ae	0.053900413
96	0xbe581e7d	-0.2110538
97	0xbeed32f2	-0.4632793
98	0xbdd55579	-0.10416693
99	0xbd6e77ac	-0.058219597
100	0xbe7a3af7	-0.24436556
101	0xbe33ea61	-0.17569877
102	0xbe1afad0	-0.1513474
103	0x3d8ecc9b	0.06972619
104	0x3e1c0b86	0.15238771
105	0xbea87070	-0.32898283
106	0xbe5c08b4	-0.21487695
107	0xbe353bd1	-0.176986
108	0x3cfb3b53	0.030667936
109	0xbe875ab5	-0.2643639
110	0x3e14b0db	0.1452059
111	0xbe08e7cd	-0.13369675
112	0xbd5bf60f	-0.053701457
113	0xbeaaa3d9	-0.3332813
114	0xbe8ffbe3	-0.28121862
115	0x3cb1117d	0.021614784
116	0xbf0408e7	-0.51576084
117	0xbcd35033	-0.025795078
118	0xbea96d25	-0.33091083
119	0xbe9e07ca	-0.30865318
120	0xbe0f3946	-0.13986692
121	0xbe03e755	-0.12881215
122	0xbdc09dad	-0.09405074
123	0xb9f722b0	-0.00047137355
124	0xbc969820	-0.018383086
125	0xbe6a31dc	-0.22870582
126	0x3be1cdc0	0.0068909824
127	0xbc2edb33	-0.010672378
128	0x3ce93611	0.028468164
129	0xbd8cccc6	-0.06874995
130	0x3e92278f	0.28545806
131	0x3e4e3596	0.20137629
132	0x3b12a9b6	0.0022378988
133	0xbe66a869	-0.22525181
134	0x3e6172cf	0.22016452
135	0x3e01501a	0.12628213
136	0x3ec74ed7	0.38927338
137	0x3a1660ab	0.00057364505
138	0x3e8a45b4	0.27006304
139	0xbc5fe461	-0.01366529
140	0x3d4270b9	0.047470782
141	0xbc26c874	-0.010179628
142	0x3cf036e4	0.029323049
143	0x3eaec45e	0.3413419
144	0x3dffec16	0.12496202
145	0x3d81d6be	0.06339787
146	0xbe03697d	-0.1283321
147	0x3e539116	0.20660815
148	0xbe4d62da	-0.2005724
149	0x3d427cfa	0.04748247
150	0xbea3b835	-0.31976476
151	0xbd4a9130	-0.049454868
152	0x3dcad710	0.09904301
153	0xba92bef9	-0.001119583
154	0x3dcb9249	0.09940011
155	0x3c5e4a6f	0.013567551
156	0x3e621747	0.22079192
157	0xbdf3e0b0	-0.1190809
158	0x3e435103	0.19073872
159	0x3d0ed502	0.03487111
160	0x3e27100b	0.16314714
161	0x3dc3c7d2	0.09559597
162	0xbe9652e8	-0.29360127
163	0xbe572284	-0.2100926
164	0x3e5e19f6	0.21689591
165	0x3e25714d	0.16156502
166	0xbd2ae067	-0.041717913
167	0xbdf2b263	-0.11850431
168	0xbeaf1f58	-0.342036
169	0xbe1b7b26	-0.15183696
170	0xbe091cae	-0.13389847
171	0xbdf245d6	-0.118297264
172	0xbe062404	-0.13099676
173	0x3e549630	0.20760417
174	0x3e481b04	0.19541556
175	0xbe6ef41a	-0.23335305
176	0x3e57538f	0.21027969
177	0xbd0cddff	-0.0343914
178	0x3d57d30c	0.052691504
179	0xbe67a5db	-0.22621863
180	0x3e01bbf2	0.12669352
181	0xbe0427ab	-0.12905757
182	0xbcaddee2	-0.021224443
183	0x3d95d975	0.07316867
184	0xbe53011b	-0.2060589
185	0x3bef5840	0.0073042214
186	0xbe46ff78	-0.19433391
187	0x3eee9c62	0.46603686
188	0xbe3e5728	-0.18587935
189	0x3db99eed	0.09063516
190	0x3e214cd1	0.1575196
191	0xbde215c3	-0.11039307
192	0xbda233cd	-0.079200365
193	0xbe036a69	-0.12833561
194	0xbe84126f	-0.25795314
195	0xbd5f0069	-0.05444375
196	0xbde8e8d2	-0.11372532
197	0x3bad3997	0.0052864063
198	0xbda863b5	-0.082221426
199	0xbe880478	-0.2656591
200	0xbdad4cc6	-0.08461909
201	0xbe8ba63e	-0.2727527
202	0x3d33d209	0.043901477
203	0xbe873d23	-0.2641383
204	0x3dcd5f6e	0.100279674
205	0xbe28e6c2	-0.16494277
206	0x3e070a8e	0.1318762
207	0xbe99786e	-0.29974693
208	0x3e354ff8	0.17706287
209	0xbe4018cc	-0.1875946
210	0xbe0797e7	-0.1324154
211	0xbd92675f	-0.07148623
212	0xbe852273	-0.26002845
213	0xbb048adb	-0.0020224366
214	0xbe6419ac	-0.22275418
215	0xbe3a82cf	-0.18213962
216	0xbe359b88	-0.17735112
217	0xbe316e6c	-0.17327279
218	0xbdd488c9	-0.10377652
219	0x3e355e21	0.17711689
220	0xbd95a4c7	-0.073068194
221	0xbe5db2d8	-0.21650255
222	0xbd3639c4	-0.044488683
223	0xbe40ebaf	-0.18839906
224	0xbe5bc4f1	-0.21461846
225	0x3df599f2	0.11992253
226	0xbddfdce6	-0.10930805
227	0x3c523a32	0.012831258
228	0xbdcd0f05	-0.100126304
229	0xbd236ee3	-0.03990067
230	0x3dedf805	0.116195716
231	0xbdd34ce6	-0.103174016
232	0xbd010f49	-0.031508718
233	0xbe9f5ae7	-0.3112404
234	0xbe22b5dc	-0.15889686
235	0xbe9fa7c9	-0.31182697
236	0xbd6a67ec	-0.057228014
237	0xbe3ff47d	-0.18745609
238	0x3ccea556	0.025225323
239	0xbcb1d14f	-0.021706251
240	0xbe52cd51	-0.20586134
241	0xbe79f80e	-0.24411032
242	0xbe9cb20d	-0.30604592
243	0xbe5cf18f	-0.21576522
244	0xbe496208	-0.19666302
245	0xbe20f92b	-0.1572005
246	0xbe77d43c	-0.24202055
247	0xbed17bbc	-0.40914714
248	0xbe68d69a	-0.22738114
249	0xbee1e4ea	-0.4411996
250	0xbe8ae4ed	-0.27127782
251	0xbe28f459	-0.16499461
252	0xbe68e45b	-0.2274336
253	0xbd47bc85	-0.04876377
254	0x3e200e6b	0.156305
255	0xbe631657	-0.2217649

encoder.enc_correct.3.bias f4 [64]
0	0xbe1233ea	-0.14277616
1	0x3c7c08d1	0.015382961
2	0x3e7cc047	0.24682723
3	0xbea9f453	-0.33194217
4	0x3eaf932a	0.34291965
5	0xbeb52b45	-0.35384575
6	0xbeb306c2	-0.34966093
7	0xbea4ea5d	-0.32210055
8	0x3ea591d2	0.32337815
9	0x3e8dd6c5	0.2770292
10	0xbda4d1b4	-0.0804781
11	0x3edfa6d8	0.4368198
12	0x3e3cf4aa	0.18452707
13	0xbe4fcb27	-0.2029234
14	0xbed6dc4c	-0.41964948
15	0xbe514d28	-0.20439589
16	0x3e61ab91	0.22038104
17	0x3ed14705	0.40874496
18	0x3ece46a8	0.4028828
19	0xbd47d5cc	-0.048787877
20	0xbe4275f0	-0.18990302
21	0x3e137c52	0.14402893
22	0x3e6e7a72	0.23288897
23	0xbee74be8	-0.451751
24	0x3e81ad53	0.25327548
25	0xbd95c0e3	-0.07312181
26	0x3ebc9631	0.36833337
27	0x3e2a26e6	0.16616401
28	0x3e50429e	0.20337912
29	0xbe23387f	-0.1593952
30	0xbe2f7d4c	-0.1713764
31	0x3ebf171b	0.37322316
32	0xbde99604	-0.11405566
33	0xbd475e31	-0.048673812
34	0xbd7af885	-0.061272163
35	0xbe6520d1	-0.223758
36	0xbed40fb7	-0.4141824
37	0xbdd84546	-0.10560088
38	0x3ecfc9b5	0.40583578
39	0x3deb5398	0.114905536
40	0x3ee10ab1	0.4395347
41	0x3eb09a8b	0.34492907
42	0xbe418428	-0.1889807
43	0xbb9654ab	-0.00458773
44	0xbe6b668b	-0.22988336
45	0x3e2410d9	0.16022052
46	0x3eba67ca	0.3640731
47	0x3e9ad44d	0.30240098
48	0x3f065b7a	0.5248333
49	0xbe8bb91a	-0.2728966
50	0x3df30b4e	0.118673906
51	0xbea2d31e	-0.31801695
52	0x3eaa4809	0.33258083
53	0xbec35abd	-0.38155165
54	0xbe70c839	-0.23513879
55	0xbe5e6590	-0.2171843
56	0x3dba6c59	0.09102697
57	0xbe5ed073	-0.21759205
58	0xbd8cabb1	-0.06868685
59	0xbef3cac9	-0.4761565
60	0x3d9f389e	0.07774471
61	0xbeb2b762	-0.34905535
62	0xbd3d4a60	-0.046213508
63	0x3eae099d	0.3399171

encoder.enc_wrong.0.weight f4 [32, 64]
0	0x3d02bd99	0.031919096
1	0x3dcb1638	0.09916347
2	0x3ea734dd	0.3265752
3	0xbe55f442	-0.20893958
4	0xbc8a919c	-0.016915135
5	0x3e76e025	0.24108942
6	0x3e120143	0.14258294
7	0xbe3b5338	-0.18293464
8	0xbe9aa037	-0.3020036
9	0x3de6adf6	0.11263649
10	0xba3cfad0	-0.0007209005
11	0x3e7fb859	0.24972667
12	0x3d97f11d	0.074190356
13	0x3d094958	0.03351721
14	0xbe2e32db	-0.17011587
15	0xbcf40ffa	-0.029792774
16	0xbe46cf08	-0.19414914
17	0x3ea46223	0.32106122
18	0xbd6d92aa	-0.058001198
19	0xbeb8d8e4	-0.36102974
20	0x3d24290b	0.040078204
21	0x3dc30330	0.09522092
22	0x3e18038b	0.14845102
23	0xbe73ddb4	-0.23815042
24	0xbdb886d1	-0.09010089
25	0x3d4a91b5	0.049455363
26	0x3d38b768	0.045096785
27	0x3e033e85	0.12816818
28	0x3e189cd8	0.14903581
29	0xbf19f430	-0.60138226
30	0xbe205424	-0.15657097
31	0xbe6b61f5	-0.22986586
32	0xbdaa0dc1	-0.083034046
33	0x3c900a7a	0.01758312
34	0xbd9c15be	-0.076213345
35	0xbe39d9c7	-0.18149482
36	0x3c0e568e	0.008687628
37	0x3ca262ae	0.019822445
38	0x3d00687c	0.031349644
39	0xbc9a45b2	-0.018832061
40	0x3dc3d8f4	0.09562865
41	0xbdf6cb5b	-0.12050506
42	0x3ee8e5d2	0.4548784
43	0xbe88c5c9	-0.26713398
44	0x3ec5c65a	0.38627893
45	0xbd6933ae	-0.05693405
46	0x3e2cd25a	0.16877118
47	0x3e4ce6b6	0.20009884
48	0xbdbdc4ce	-0.09266053
49	0xbe3ef563	-0.18648295
50	0x3ccede2b	0.025252422
51	0x3c999646	0.018748414
52	0xbe2d56e1	-0.16927673
53	0x3eb4586d	0.35223714
54	0xbcb182af	-0.02166876
55	0x3e813d2b	0.2524198
56	0x3e02b9c6	0.1276618
57	0x3e6c2330	0.23060298
58	0x3e85ea46	0.261553
59	0xbee0967b	-0.43864807
60	0xbc35072f	-0.011049076
61	0x3da9e77e	0.08296107
62	0x3e054cf4	0.13017637
63	0xbd8e9552	-0.06962074
64	0x3d5595e9	0.05214492
65	0x3e0f56be	0.13997933
66	0xbd147db5	-0.036252696
67	0xbe39e44b	-0.18153493
68	0x3cd30440	0.025758862
69	0x3ea7d3f9	0.3277891
70	0x3d63208d	0.055450965
71	0x3d33baf8	0.04387948
72	0xbe27a381	-0.16370966
73	0xbe0758ea	-0.13217512
74	0x3c941d23	0.0180803
75	0xbd49902f	-0.04920977
76	0xbbfbfcfc	-0.00769007
77	0xbe3bd8ff	-0.18344496
78	0xbe75ec2d	-0.24015875
79	0x3d823c4d	0.06359158
80	0x3db7469a	0.08949013
81	0x3e95f5cd	0.29289094
82	0x3e2731c6	0.16327581
83	0xbd9d3e0e	-0.076778516
84	0xbe243ba5	-0.16038378
85	0x3cc5c9e1	0.024144115
86	0xbd897ce9	-0.06713278
87	0xbce35ce7	-0.02775426
88	0x3dc9c6cd	0.09852371
89	0xbddf2386	-0.108954474
90	0xbe2a41e2	-0.16626695
91	0x3d888bd6	0.066672966
92	0xbe447e51	-0.19188811
93	0xbed8b1db	-0.42323193
94	0xbdc3a1bc	-0.09552333
95	0xbeb21bca	-0.34786826
96	0x3da5f1b0	0.08102739
97	0xbe53eb68	-0.20695269
98	0xbd881b4b	-0.06645831
99	0xbd19f567	-0.03758755
100	0xbd9cdda2	-0.076594606
101	0xbe2ce2a0	-0.16883326
102	0x3e13df76	0.14440712
103	0x3e05cb5b	0.13065855
104	0xbd1191da	-0.035539486
105	0xbe4b4445	-0.19850262
106	0x3dc638af	0.0967878
107	0xbb39277f	-0.0028252301
108	0xbc894a80	-0.016759157
109	0x3dcf367f	0.10117816
110	0xbdc17462	-0.094460264
111	0xbe6ef7c4	-0.23336703
112	0x3e69056f	0.22755979
113	0xbdb7eff5	-0.08981315
114	0xbd2cd9ae	-0.042199783
115	0xbd236e0f	-0.039899882
116	0x3cf561fb	0.029953947
117	0xbd308633	-0.043096732
118	0x3e211e70	0.15734267
119	0x3e4f071e	0.20217559
120	0xbd7146e5	-0.0589055
121	0x3df18493	0.11792865
122	0xbd63f43e	-0.05565285
123	0xbdfd859f	-0.12379002
124	0xbdd30b27	-0.103048615
125	0xbd92802b	-0.07153352
126	0xbe1c7f4f	-0.1528294
127	0x3dfe94f1	0.12430752
128	0xbdf74006	-0.120727584
129	0xbd51c759	-0.051215503
130	0xbdd9d647	-0.10636573
131	0xbe80343d	-0.25039855
132	0xba16ab2e	-0.00057475537
133	0xbd4e6bb0	-0.050395668
134	0xbe0a471b	-0.13503687
135	0xbc1eff14	-0.00970437
136	0xbe1e484a	-0.15457264
137	0xbdbb634a	-0.09149797
138	0xbbb6abbb	-0.005574671
139	0x3ef1dbfc	0.47238147
140	0xbd71397b	-0.05889271
141	0x3e8adbb2	0.2712074
142	0xbe54ad2b	-0.20769183
143	0x3cd595e6	0.026072454
144	0xbe8ad119	-0.27112654
145	0xbceb3e30	-0.028716177
146	0x3de6baad	0.11266074
147	0x3e309183	0.17243008
148	0xbe4f30c4	-0.20233446
149	0x3d50c128	0.05096546
150	0x3cd0ffa2	0.02551252
151	0xbe078dbe	-0.13237664
152	0xbd60d961	-0.05489481
153	0xbe17bf6a	-0.14819112
154	0x3e00fcd9	0.12596454
155	0xbd02cd90	-0.03193432
156	0x3e17a1ab	0.14807765
157	0xbcf5035c	-0.029908828
158	0x3eb0ff51	0.3456979
159	0xbd89fd4f	-0.06737768
160	0xbd10e292	-0.035372324
161	0xbdc3bc44	-0.09557393
162	0xbea5f4c0	-0.32413292
163	0xbe8d6b93	-0.27621135
164	0xbdeea663	-0.116528295
165	0xbc13aa84	-0.009012822
166	0x3ddb900c	0.10720834
167	0xbdeb08a8	-0.114762604
168	0x3e0440bd	0.1291532
169	0x3dbdd960	0.092699766
170	0xbdc7b7ec	-0.09751877
171	0x3d83dcfb	0.06438633
172	0xbdace154	-0.084414154
173	0xbdbaed13	-0.091272496
174	0x3daaa32c	0.08331904
175	0x3d307335	0.04307862
176	0x3e89abc0	0.26888847
177	0x3eb0ab1c	0.34505546
178	0x3d98d092	0.07461657
179	0x3c852457	0.01625268
180	0xbd94dc9b	-0.0726864
181	0xbe087a1e	-0.13327834
182	0xbe1910cc	-0.14947814
183	0x3d508daf	0.05091637
184	0xbd319609	-0.043355975
185	0x3df38a30	0.118915915
186	0x3d91afd7	0.07113617
187	0xbe54e8b5	-0.20791896
188	0xbe55b0f5	-0.20868285
189	0xbdf53e92	-0.11974825
190	0xbdfbf325	-0.123022355
191	0xbe3d1309	-0.18464293
192	0x3b3f7db1	0.0029219205
193	0xbe14ec3a	-0.14543238
194	0x3e1c58ae	0.15268204
195	0x3ea997e0	0.33123684
196	0x3dd8a77d	0.10578821
197	0xbe6331d8	-0.22186983
198	0x3e4c62ed	0.19959612
199	0x3e74a552	0.2389119
200	0xbe3f1fee	-0.18664524
201	0xbe0b06bd	-0.13576789
202	0x3d0babb9	0.034099314
203	0x3d19c0b7	0.037537303
204	0xbdb0c70a	-0.08631714
205	0xbe13da5d	-0.14438768
206	0xbdea616e	-0.114443645
207	0x3d8b116b	0.067904316
208	0x3d9dc4f0	0.077035785
209	0x3d5e795f	0.054314967
210	0xbe324f64	-0.17413098
211	0x3d9a9f14	0.07549873
212	0x3e2a77c7	0.16647254
213	0x3e200e66	0.15630493
214	0x3e0a49de	0.1350474
215	0x3e0d9535	0.13826449
216	0xbc409cd0	-0.011756137
217	0xbd7aaf1b	-0.06120215
218	0xbdacbb78	-0.08434194
219	0x3d09a0a9	0.033600483
220	0xbdd0d5e9	-0.1019705
221	0x3dd0c74a	0.10194261
222	0xbcc57e94	-0.024108209
223	0x3dee74d0	0.11643374
224	0x3da444d1	0.08020938
225	0xbe9ac037	-0.30224773
226	0xbcc7d01f	-0.024391232
227	0xbd489ed7	-0.048979606
228	0x3e044ccb	0.12919919
229	0x3e07a6a8	0.13247168
230	0xbe99bb0d	-0.3002552
231	0xbd9cbbd8	-0.07653016
232	0xbcd7244d	-0.026262427
233	0xbdff00d0	-0.12451327
234	0x3d866962	0.06563069
235	0x3e0fa8c4	0.14029223
236	0x3bb3f9f7	0.0054924446
237	0x3e49b0d7	0.19696365
238	0xbe31c983	-0.17362027
239	0x3dd22119	0.10260219
240	0xbdbac70d	-0.09119997
241	0x3cd4118a	0.02588727
242	0x3e2ffce3	0.17186312
243	0x3ed48eec	0.4151529
244	0xbdccc20d	-0.0999795
245	0x3e2e9219	0.1704792
246	0xbe727038	-0.2367562
247	0xbe07d50b	-0.13264863
248	0xbdc8a425	-0.09796933
249	0x3c4eeb3b	0.0126293255
250	0xbcafd375	-0.021463135
251	0x3e18dae3	0.14927249
252	0xbd1e2a49	-0.038614545
253	0xbd3f7f53	-0.046752285
254	0xbde43d65	-0.111445226
255	0xbe07a077	-0.13244806

encoder.enc_wrong.0.bias f4 [32]
0	0x3e3f23b8	0.1866597
1	0x3e4f4b1b	0.20243494
2	0xbd781c11	-0.06057364
3	0xbdc20faa	-0.09475644
4	0x3e3e0a1f	0.18558548
5	0x3ecfc89d	0.40582743
6	0xbe713be3	-0.23558001
7	0xbd365716	-0.044516645
8	0xbc2f3355	-0.010693391
9	0x3e0b8cf3	0.13627987
10	0x3da3f83b	0.080063306
11	0x3dddd826	0.10832243
12	0xbda3558f	-0.079753034
13	0x3c38607c	0.011253472
14	0x3c9f5cf2	0.0194535
15	0x3d1add7d	0.037808884
16	0x3dcaa4e6	0.09894733
17	0x3dd69917	0.10478418
18	0x3e2d938e	0.16950819
19	0x3d496e97	0.049177732
20	0xbc295b31	-0.010336683
21	0x3e27a85f	0.16372822
22	0x3d939c2f	0.07207524
23	0x3d883ee1	0.06652618
24	0xbd0a303a	-0.0337374
25	0x3d0a59d4	0.033777073
26	0xbd9deb6d	-0.077109195
27	0x3e28cb92	0.16483906
28	0x3e82110a	0.25403625
29	0x3df25397	0.1183235
30	0x3c272866	0.010202503
31	0xbde6e70e	-0.11274539

encoder.enc_wrong.3.weight f4 [64, 32]
0	0x3e9bde89	0.30443218
1	0x3e9aa1c7	0.3020155
2	0x3e732149	0.23743166
3	0x3cc7a8d4	0.024372496
4	0x3e132210	0.14368463
5	0x3e5bc553	0.21461992
6	0x3e1ddfbc	0.15417379
7	0x3e124db9	0.14287461
8	0x3e44a312	0.19202831
9	0x3cdfe772	0.027332041
10	0x3e51bd9d	0.20482488
11	0x3da8f0ac	0.082490295
12	0x3e83adfb	0.25718674
13	0x3e907588	0.2821467
14	0x3e62e5ef	0.22158025
15	0xbe311b2f	-0.17295526
16	0x3bbc8307	0.0057529244
17	0x3e4ac7e6	0.19802818
18	0x3e36f97e	0.17868611
19	0x3eaf55a8	0.34245038
20	0xbe83e78c	-0.25762594
21	0xbe45e62f	-0.1932609
22	0x3d541a78	0.051783055
23	0x3de35e2d	0.11101947
24	0x3e9ebee5	0.31005016
25	0x3e84e5bf	0.25956532
26	0xbe2b07d8	-0.16702211
27	0x3e629a26	0.22129115
28	0x3e9570f6	0.29187745
29	0xbd2c9d70	-0.04214233
30	0x3e36450d	0.17799778
31	0x3b4c39c8	0.003116237
32	0xbe2bb38e	-0.16767713
33	0x3e04c5ce	0.12966082
34	0x3e97ecd1	0.29672864
35	0x3ac17d56	0.0014762084
36	0x3ccb2275	0.024796704
37	0x3e8ea3f7	0.2785947
38	0xbc8ed247	-0.017434252
39	0xbe3f2f77	-0.1867045
40	0x3e615a6f	0.22007154
41	0xbe883327	-0.26601526
42	0xbe3a4b60	-0.18192816
43	0xbd9d168d	-0.07670317
44	0x3e09fa76	0.1347445
45	0x3d746856	0.059669815
46	0x3ec2b185	0.38026062
47	0x3cdd0667	0.026980592
48	0xbdbf8054	-0.093506485
49	0xba5a8cc4	-0.0008337016
50	0x3dae7b5f	0.08519625
51	0x3d1e93cd	0.038715173
52	0x3da6114b	0.08108767
53	0xbd7d5655	-0.06184991
54	0x3de0b2de	0.10971616
55	0xbda2f370	-0.07956588
56	0xbdec6fce	-0.115447626
57	0xbd223a60	-0.039606452
58	0x3d8cde37	0.068783216
59	0x3d60cc21	0.054882172
60	0x3eab8dd4	0.33506644
61	0xbe1de707	-0.15420161
62	0xbd07c88f	-0.033150252
63	0xbdd29f8c	-0.102843374
64	0xbd93df1d	-0.0722029
65	0x3dd25a2b	0.102711044
66	0xbe1c5c0d	-0.1526949
67	0x3b2804db	0.002563766
68	0xbe677795	-0.2260421
69	0xbe2cc3e6	-0.16871604
70	0x3ddb67e7	0.10713177
71	0x3e1bfd4d	0.15233345
72	0xbdd6f7f3	-0.10496511
73	0xbe71320e	-0.2355425
74	0xbe08a858	-0.13345468
75	0x3da1118f	0.07864677
76	0xbe27fe8f	-0.164057
77	0xbe8fb0d1	-0.28064588
78	0xbe9ac06c	-0.3022493
79	0x3ddb8f85	0.107207336
80	0xbe42fa44	-0.19040781
81	0xbe2ce202	-0.1688309
82	0x3d3206ad	0.043463398
83	0xbd6dab17	-0.058024492
84	0xbe40d107	-0.18829738
85	0xbdb071ca	-0.086154535
86	0xbdfb471e	-0.12269424
87	0x3bc301ba	0.0059511336
88	0xbe94d6c4	-0.29070103
89	0xbcfec58d	-0.031100059
90	0x3ddb6c90	0.10714066
91	0xbd150005	-0.03637697
92	0xbe69b0be	-0.22821328
93	0xbe5a0efe	-0.21294782
94	0x3e216984	0.15762907
95	0xbd59c557	-0.053166714
96	0xbdf11ea1	-0.1177342
97	0xbe2df20c	-0.16986865
98	0xbe02f1e5	-0.12787588
99	0x3e15085c	0.1455397
100	0x3db0bc8f	0.08629715
101	0xbdd4f49d	-0.10398219
102	0x3cb3062f	0.021853535
103	0xbdce62e6	-0.10077457
104	0x3ebb9d10	0.36643267
105	0x3e7b21ab	0.24524562
106	0x3d06821d	0.03283893
107	0x3e588819	0.21145667
108	0x3c056ed3	0.008144098
109	0x3d4f4c9f	0.05061018
110	0x3d4a9da7	0.049466755
111	0x3cc3f753	0.023921644
112	0x3b41f59d	0.002959586
113	0x3db23dfa	0.08703227
114	0x3dd7a8a2	0.10530211
115	0x3deaebfb	0.11470791
116	0x3e2f7a1e	0.17136428
117	0x3da09be3	0.07842233
118	0x3e80c175	0.25147596
119	0x3c3399e1	0.010961981
120	0x3e049781	0.12948419
121	0xbd9b29fb	-0.075763665
122	0x3e005353	0.12531786
123	0x3e27b0e1	0.16376068
124	0x3df50fa3	0.11965873
125	0x3e757414	0.23970062
126	0x3d092de1	0.03349102
127	0x3da28735	0.07935945
128	0xbeb7e5ff	-0.3591766
129	0xbe3b3c50	-0.18284726
130	0xbe104afd	-0.14091106
131	0x3e0831a3	0.13300185
132	0xbe67eed1	-0.22649695
133	0xbe9d65fb	-0.30741867
134	0xbdda1722	-0.106489435
135	0xbd5710ee	-0.05250638
136	0xbe05a51f	-0.1305127
137	0x3e0a4233	0.13501815
138	0xbe17a6d6	-0.14809737
139	0xbe15a888	-0.14615071
140	0xbe53e10f	-0.20691322
141	0xbe56566b	-0.20931403
142	0x3cf3bf4d	0.029754305
143	0xbe2916b7	-0.16512571
144	0x3db305e5	0.08741359
145	0x3d8e20d6	0.06939857
146	0xbe42e4d7	-0.19032608
147	0xbe4c6ecc	-0.1996414
148	0xbe2d18d1	-0.16903998
149	0x3e3b7eca	0.18310085
150	0x3d6d474d	0.057929326
151	0xbe455baf	-0.19273256
152	0xbe0b2367	-0.13587724
153	0xbe5c400a	-0.21508804
154	0xbd8d5788	-0.06901461
155	0xbe37fb21	-0.17966892
156	0xbd864e93	-0.065579556
157	0x3e13a0e3	0.14416842
158	0xbdc23cf4	-0.09484282
159	0xbda749c3	-0.08168366
160	0x3d752ba9	0.05985609
161	0xbd8a8ba6	-0.06764917
162	0x3e0e882b	0.13919131
163	0xbc45f1c4	-0.012081567
164	0xbd32aa92	-0.0436197
165	0x3e0ddccb	0.13853757
166	0x3d6be7ef	0.057594236
167	0xbdcf1c17	-0.101127796
168	0x3dd79b40	0.105276585
169	0xbda1f10f	-0.079073064
170	0x3e5b8afe	0.2143974
171	0xbd975b62	-0.07390477
172	0x3e4954e9	0.19661297
173	0x3cf2b5dc	0.029627733
174	0x3c52fc2a	0.012877503
175	0xbc9b7c4d	-0.01898017
176	0xbddd4eae	-0.108060226
177	0x3ddfa485	0.109200515
178	0x3d64102b	0.05567948
179	0x3e34e9c0	0.17667294
180	0xbddc2812	-0.1074983
181	0xbdaf05ce	-0.08546029
182	0xbe191aa5	-0.1495157
183	0x3cad5afd	0.02116155
184	0x3d598765	0.053107638
185	0x3e2f6c4b	0.17131154
186	0x3c59d38b	0.013295065
187	0x3dc46b93	0.09590831
188	0x3e5a51c1	0.21320249
189	0x3e09a997	0.134436
190	0x3e676e52	0.22600678
191	0xbe702102	-0.23450091
192	0x3deaf7cf	0.11473047
193	0x3e66c378	0.22535503
194	0x3d00378c	0.031302974
195	0x3e029536	0.12752232
196	0x3ed0265e	0.40654272
197	0xbb5cbaa2	-0.0033680578
198	0x3e4f5b9e	0.20249793
199	0x3ec34f63	0.38146505
200	0xbd03e2f3	-0.032198858
201	0x3e274bc9	0.16337503
202	0x3e80e14b	0.25171885
203	0x3cf37b10	0.029721767
204	0x3e8f7a2e	0.28022903
205	0xbda1a536	-0.078928396
206	0x3eae0b87	0.3399317
207	0x3e022459	0.12709178
208	0x3e786042	0.2425547
209	0x3eb02c53	0.34408817
210	0x3e35a2d0	0.1773789
211	0x3ec13706	0.37737292
212	0xbe7ea37c	-0.24867052
213	0x3eb4b229	0.35292175
214	0x3e9f3fca	0.31103355
215	0x3d27f951	0.04100925
216	0x3e505f63	0.20348887
217	0x3e074307	0.13209163
218	0x3e561346	0.2090579
219	0x3da4722b	0.08029588
220	0x3f05c0b3	0.5224716
221	0x3e3f8e4d	0.18706627
222	0x3d8190df	0.0632646
223	0x3d2eb190	0.042649806
224	0x3c6d271f	0.014474659
225	0x3e4ea66c	0.20180672
226	0x3eb06d69	0.34458473
227	0xbce179b0	-0.027523845
228	0x3e826be3	0.25472936
229	0x3d8bca4c	0.068256944
230	0x3d1db7a9	0.03850523
231	0x3e287498	0.16450727
232	0x3e984ef5	0.2974774
233	0xbd0cea63	-0.034403216
234	0x3e8c08fb	0.27350602
235	0xbc044e1e	-0.008075265
236	0x3e31a459	0.1734785
237	0x3e87736b	0.26455244
238	0x3f01550b	0.5052039
239	0x3e979e39	0.29612902
240	0x3cc6e7bf	0.024280427
241	0x3de966ad	0.11396537
242	0x3e3e8b25	0.18607767
243	0x3d46fac2	0.048578985
244	0xbd7b0d72	-0.06129212
245	0x3d704071	0.058655206
246	0x3d2a4443	0.041569006
247	0x3eaf8df7	0.34287998
248	0x3e3dd194	0.18536979
249	0x3e96c29c	0.2944535
250	0x3cfb7cb0	0.030699104
251	0x3ea03dae	0.31297058
252	0x3e2215fb	0.15828697
253	0x3ce42eb0	0.027854294
254	0x3bd08b3d	0.0063642547
255	0x3d015287	0.031572845
