streamlit/checkpoints/dcrkt_model_fold_0.pt (torch, 655181 bytes, 44 tensors)

memory_key f4 [98, 64]
00000000: 7f45 253e 6608 7f3f 2441 96be 23e1 d23f
00000010: f7e6 52bc a46b 0e3f 60f8 8fbf 5d1c 83bf
00000020: 459b 0fbf 8a32 1d3f 3f2d 263e ff92 51be
00000030: da2f 3fbe cbbd 193f 57e8 10bf 70cd d73d
00000040: 362b 0b3f 428f ca3f 5b10 d03e a325 a3bd
00000050: 5302 40bf 1f6b aabc cbc4 ce3e 6c9c 66be
00000060: 2cbe 35c0 c8cd 053f 5a7f 74bf 6124 e4bd
00000070: 6370 dd3d 775c 863e 6727 203f 148b 05c0
00000080: 360a 87bf 36d3 19bf 326f b8bf ddfa 703f
00000090: 39a4 d63f 13fc 0940 1664 623e fd59 d43d
000000a0: 1c6c a13e 03a0 1ebf da23 1c3f 9a1d 74bf
000000b0: a0fc f1bf 4905 efbe 051f 35bf c576 1240
000000c0: 449e 54bd e348 aa3e ff3c 35bf 391b 55bf
000000d0: 9c14 9dbf c9e4 f33e 8c67 90bf 287d 88be
000000e0: 40c3 17c0 649b 17bf 5e92 dbbe 081e 0ebe
000000f0: 946e 14be 869d f5bf 8761 293f 28d7 fabf
00000100: 60f1 2cbf 83b2 65bf 2b2f 823e 8255 9b3f
00000110: 6f57 edbf 1c8a 3abf 23f5 ebbd f12a 213f
00000120: 4222 d1bf 88d0 ba3f 45d8 6c3f 9344 91bf
00000130: 94ac 9fbf 62c1 9d3d 57c4 e4bf a66b 1dbf
00000140: 0547 273e adc2 0dbf 986d 343f 684e 32bb
00000150: e3d4 7abf c052 d83f 52ff 2c3f 2a1a d43e
00000160: 9c65 aebf 6bc5 1dbf 2530 86bf 2be3 c93f
00000170: ebab 7abc afaa 983e 050f 0bbf f3fe bfbe
00000180: 436f 3f3f cdef d43e b329 233d 0401 bfbe
00000190: cad7 9abe 5fb8 e7be 677b 943f f0b7 9c3f
000001a0: eaa2 babe 515e 1bbf 5e2b 33be e4ed 163e
000001b0: e23d 8cbe 093f bd3f ff8c a93e 48a5 e0be
000001c0: 64ea 7d3e 5f4f 97bf d7cf 273f 484e 5f3f
000001d0: bf2f 1bbe f7a5 86bf e0ed 303f 7a56 1c3f
000001e0: d4c0 dabf 3ba8 023f 4982 ad3e 5f0b 85bf
000001f0: 15c9 463f e177 2ebf 6156 debf fcba b13e
00000200: 0f42 9fbf 91b9 75bf e9c8 643f 828b f43f
00000210: 0f9d 7a3f 975a 75bf e63f 36bf 724f 6ebf
00000220: 4650 8abf 71dd 66bf 1bb6 9bbe 080d e33f
00000230: d4a3 843f ce57 1ebf 864d 80bf 66ce f5be
00000240: cfe7 9f3f c4f7 3fbe f81b d63d a34a 94bf
00000250: a0b0 41bf 42b8 67bf df8f f4bd d09f a93d
00000260: 9a0e 6e3f e5eb bb3f 88b1 1a3f 98ef d73f
00000270: 8433 5a3f cef7 8f3e fdcb 8bbf 4446 44bf
00000280: d180 85bd 0252 d5bb db08 58bf 35b6 2cbf
00000290: 750c 4a3f 4a66 2e3f bca0 b3be c145 443e
000002a0: aef3 2abf 1133 9f3f 7dbc f63e a575 e63c
000002b0: 7703 afbf 6dbe b03f 002c 8ebf 08e6 8ebf
000002c0: f4c2 003f bab6 3bbf f703 1140 529b e03e
000002d0: 50c5 c5bf 1103 3bbf 2148 d93e 2469 64be
000002e0: 9063 bebf 38c3 65bd 7567 3e3f 9829 72bf
000002f0: 3b50 f5be 3ed7 3b3f 788a 90bf 8829 14bf
00000300: cc27 04c0 62a0 cebf 0f0e 16bf 8bab f6be
00000310: d20f 853d 5c48 90bf 618e dcbf 04e3 8abf
00000320: 6ec6 e0be 502d 843e bdba 60bf 9ab6 c53f
00000330: ddc0 0d3f 776e f93f d168 aabf e848 1cbf
00000340: 7273 0240 cfa6 94bb 48cd 103f 5b46 42be
00000350: 4de9 8dbf 5f28 f0bf 7df0 8bbd f819 833f
00000360: 8a7c ff3f 477c fabe cbdb 29bf bbf1 1abf
00000370: 7ff7 fc3d 179e 5fbf ce9d d2bf 269e cebd
00000380: 79f1 72bf 8a26 99bf c14e a4bf f283 b7bf
00000390: 4f62 d4bd 44c0 4a3f b62f 5b3f 62ea 81bf
000003a0: 8a03 cbbe 159e 243f 300b 5dbf b989 55bf
000003b0: 921b 233f ae56 76bd ee91 b6bf 9240 283e
000003c0: bd5e e63e ac30 cdbe c14b cbbe 5bc2 07be
000003d0: 7a35 873f ddd1 933f 8ff3 0040 e7cd 8e3f
000003e0: 53dc c23f 7727 a3bf 57ed 9bbf 5f5d 23be
000003f0: a8e7 f63e 823e ad3f 033a 133f 21bb f43f
0.16139792 0.9962219 -0.29346573 1.6474956 -0.012872449 0.55632997 -1.1247673 -1.0243031
-0.560963 0.6140524 0.16228198 -0.20466231 -0.18670598 0.60055226 -0.5660452 0.10537231
0.5436281 1.5824969 0.40637478 -0.07966163 -0.75003546 -0.020803032 0.40384516 -0.22520608
-2.8397322 0.5226712 -0.95506823 -0.11139751 0.10812452 0.2624242 0.62560123 -2.0866137
-1.0549991 -0.6008791 -1.4408934 0.94132787 1.6768867 2.1560104 0.22108492 0.103687264
0.31527793 -0.6196291 0.60992205 -0.9535767 -1.890522 -0.4668372 -0.7075046 2.288499
-0.051908746 0.33258733 -0.707962 -0.83244663 -1.2271914 0.47635487 -1.12816 -0.26657987
-2.371292 -0.5922148 -0.42885107 -0.13878644 -0.14495307 -1.9188697 0.6616444 -1.959691
-0.6755581 -0.8972551 0.2542661 1.213547 -1.8542308 -0.7286699 -0.115213655 0.6295615
-1.633858 1.4594889 0.925175 -1.1349052 -1.2474542 0.077029005 -1.7872418 -0.61492383
0.16335686 -0.55375177 0.70479727 -0.0027207378 -0.9798109 1.6900253 0.6757709 0.41426212
-1.3624759 -0.6162936 -1.0483443 1.5772451 -0.0152997775 0.2981772 -0.54319793 -0.37499198
0.74779147 0.41589203 0.03983469 -0.37305462 -0.3024276 -0.4525785 1.160016 1.2243633
-0.3645242 -0.6069079 -0.17497012 0.14739186 -0.27390963 1.4784862 0.33115384 -0.438761
0.24796444 -1.1821097 0.65551513 0.8722882 -0.15154932 -1.0519398 0.6911297 0.6106945
-1.7090096 0.5103795 0.33888462 -1.0394095 0.77650577 -0.6815167 -1.7370111 0.3471297
-1.2442034 -0.95986277 0.89369065 1.9105074 0.978959 -0.95841354 -0.7119125 -0.93089974
-1.0805748 -0.9018164 -0.30412373 1.7738352 1.0362496 -0.6185273 -1.0023658 -0.48009032
1.2492617 -0.18746859 0.10454553 -1.1585277 -0.75660133 -0.9051553 -0.11941504 0.08282435
0.9299103 1.4681364 0.6042714 1.6869993 0.85234857 0.28118747 -1.0921627 -0.76669717
-0.065187104 -0.0065100202 -0.8438851 -0.67465526 0.7892526 0.6812483 -0.35083568 0.19167234
-0.66778076 1.2437459 0.4819068 0.02813227 -1.3672932 1.3808113 -1.1107178 -1.116395
0.50297475 -0.73325694 2.265867 0.438685 -1.545084 -0.73051554 0.42437842 -0.22305733
-1.4874134 -0.05609438 0.7437661 -0.9459472 -0.47912773 0.7337531 -1.1292257 -0.5787587
-2.064929 -1.6142695 -0.586152 -0.48177752 0.06497158 -1.1272082 -1.723095 -1.085053
-0.4390139 0.2581582 -0.8778494 1.544635 0.5537241 1.9486836 -1.3313237 -0.61048746
2.0382962 -0.0045364867 0.56563234 -0.18972151 -1.1086823 -1.876232 -0.06832979 1.02423
1.9959881 -0.4892294 -0.66351 -0.605251 0.12351894 -0.873506 -1.6454408 -0.10088758
-0.9489971 -1.1964886 -1.2836534 -1.4337142 -0.103703134 0.79199624 0.85619676 -1.0149653
-0.39651138 0.64303714 -0.86345196 -0.83413273 0.63713944 -0.060141258 -1.4263284 0.16430882
0.44994155 -0.40076196 -0.39706233 -0.13257734 1.0563195 1.154842 2.0148656 1.1156586
1.5223488 -1.2746419 -1.2181805 -0.15953587 0.48223615 1.3534701 0.57510394 1.9119607

question_emb.weight f4 [213, 64]
00000000: 568b 1abe 97ea 633d dcd1 a33f caa1 e7bf
00000010: ba0b c4be dcbf f33e 2f0f e4bd 033b 10bf
00000020: 6164 48bf a1b3 b7bf dd12 54bf 54bd eabc
00000030: b4c7 0ebd 35ac 0f3f 5d68 a2bf dcc8 943e
00000040: fe16 27c0 88a5 c6b9 2e4e 363e b4cb db3e
00000050: 1259 c93e 68dd ae3e a3a8 05c0 2089 64bf
00000060: 8742 5ebf 7fcd bf3f e007 6dbf b04a 493f
00000070: 4166 803f ab0c 1440 bfad bdbe 505f c0be
00000080: 3d50 463f 7ab8 953f 63a2 823f 0e6b 2dbf
00000090: 9124 2cbf 47cc 943f 4818 8ebf 06ee 38bd
000000a0: 4cf2 9a3f 496e d53e 3184 f6be a79a c9bf
000000b0: 5772 8ebf 6002 94bf ad48 473e cb8c 8abe
000000c0: 97d7 a9bf 791b 853e 4dd7 ea3f 16bc 07be
000000d0: 854a f23e 4601 35bf a225 2c3f e93e aa3f
000000e0: f790 60bf 0656 59bf 2b35 bd3e 3011 053f
000000f0: ac24 503f f32c 353f 9ce6 283f 79fe ac3f
00000100: e49b 83bf a6a6 9fbf c68d 1b3f 7b59 2c3f
00000110: 59ef ef3f f265 953f a6c2 25bd 0636 683c
00000120: fee9 5cbf f474 9f3e c768 9bbf 82de b23e
00000130: bc1e 8fbf 65a7 813f 7c26 9cbf acfc 993e
00000140: 5f83 6f3f 5841 ba3e 2284 f1be 3482 3d3f
00000150: 14a8 aebd deae d3be 1045 943f 7a54 cabb
00000160: 9ade edbe 677a f2be a141 2bbf 3811 0c3e
00000170: 668b 433e bfbb d13f ccd0 16bf b94a b5bd
00000180: 44b3 74bf 0a9d bb3f fd62 cb3e 3bf7 a9be
00000190: 2300 40be 2dc0 953e 2ca1 21be 619b 023f
000001a0: 0e5b 5cbf 83f0 0dbf e902 993f 2e19 93be
000001b0: d98c 32bf df52 1fc0 41e8 43bd 541b 1f40
000001c0: 2136 85bf b1ac 66bf 654c 20bd d06c 8d3f
000001d0: fb0b f03f e06e a03d 6c42 db3f c119 8a3e
000001e0: 4c67 393f 5c56 633f 81f7 58bf ebc7 94bf
000001f0: c3c2 84bf 95ef a9bf cd22 b6be ca20 0abf
00000200: 1414 233f 9219 9cbf 69d2 84bf acfa e13e
00000210: afdd be3f a637 e7be 8c36 88bf 53ab 9a3f
00000220: 473f 773f 9b9b 35bf 69e2 39bf 81c8 e63f
00000230: 017c 44bd 5087 8cbf 9a95 1a3f 535d 5fbd
00000240: 614a 09bf a569 cb3f a9fe 28bf c550 11be
00000250: 5589 80be 2e6f a83e 2c78 5a3f af4e 0dbf
00000260: 10b6 d53d 5a1f a73e ec64 99be 1cbc 323f
00000270: 22cc 863d c43d 00bf 29da 1640 802f 413f
00000280: 3661 c5bd 9505 bf3d 45bb e53f 0033 893f
00000290: f4e1 403e 02d4 01c0 0d92 ff3d 02a2 5bbf
000002a0: 9e9b 7cbf 750c 0440 a878 7bbe 3189 1bbf
000002b0: 9b0f 8d3e 95b6 08bf 60ee ba3f 4c59 3140
000002c0: 4779 fa3c b880 05c0 1303 00bf dc31 f63e
000002d0: cfe8 0540 efb1 4cbe ec06 a0bf 49a6 313f
000002e0: 77fc 6d3f 65cf cb3f f46d 603f 18df 923f
000002f0: 5286 a23f 68fc 83be 0dd3 c3be e076 81be
00000300: fd11 ee3d 3e23 afbf ac77 49bf 29ad e43e
00000310: 16bd a2bf 0089 0040 7d55 783f 0714 e53e
00000320: 7ee6 463f 87cc a73e 386a 173d ec42 2ebe
00000330: 7ae5 0140 3794 0fbf 9c1b 9a3d 8141 d3bd
00000340: 95cf 94be 1fe1 cabf dea1 743f 61a4 e83f
00000350: e160 ee3e ed04 a03f 9a14 9dbe a907 a7be
00000360: 40cb f7be cb80 a2be 16c5 eabf a3e3 813f
00000370: b45d 683c 8172 bcbf c29d 943f bdc9 95be
00000380: ba07 1a3f 54c8 a03f bddb 49be afc4 433f
00000390: 6baf e63f 3b47 0bbf 758b 3fbf bad1 31bc
000003a0: c700 6bbf 5f25 393f 8412 88bf 250b 253e
000003b0: 1016 4d3f 5690 713e 112b 45bf 0021 a13f
000003c0: 024d a6be 4380 babe b02b c03f 91f8 0d3f
000003d0: bd2d 6bbf 2165 a8bf 6d07 8c3e 49fd 63be
000003e0: eb78 88be 0473 983e f7e4 f83f e946 a13d
000003f0: 933b aa3f f9a1 b1bf 2169 ab3f b189 753f
-0.15092215 0.055643644 1.2798419 -1.8096249 -0.38290197 0.47607315 -0.111357085 -0.56340045
-0.78278166 -1.4351693 -0.82841283 -0.028654732 -0.03485842 0.5612214 -1.2688099 0.29059494
-2.6107783 -0.00037888833 0.1780326 0.4292885 0.39325768 0.34153295 -2.0884178 -0.89271736
-0.8682026 1.4984587 -0.9259014 0.7862959 1.0031205 2.3132732 -0.3704662 -0.37572718
0.77466184 1.1696923 1.0205806 -0.6774148 -0.67243296 1.162484 -1.110116 -0.04514887
1.2105193 0.41685703 -0.4814773 -1.5750321 -1.1128644 -1.1563225 0.19461317 -0.27060542
-1.3268918 0.25997522 1.8346955 -0.13255343 0.4732248 -0.7070507 0.67244923 1.3300449
-0.877212 -0.84896886 0.36954626 0.5197935 0.81305957 0.7077171 0.6597688 1.3515159
-1.0281949 -1.2472732 0.60763204 0.67324036 1.8744918 1.1671736 -0.040468834 0.014173036
-0.86294544 0.31143916 -1.214135 0.34935385 -1.1181254 1.012921 -1.2199244 0.30075586
0.9355983 0.36377978 -0.47171122 0.740268 -0.08528152 -0.4134435 1.1583576 -0.006174621
-0.46458894 -0.4735901 -0.66897017 0.13678443 0.19096145 1.638542 -0.5891235 -0.08852143
-0.9558604 1.46573 0.3972396 -0.33196434 -0.18750052 0.2924818 -0.15784138 0.5101834
-0.8607644 -0.55445117 1.1954013 -0.28730148 -0.69746166 -2.489433 -0.047828916 2.486043
-1.0407144 -0.90107256 -0.039135356 1.1048832 1.8753656 0.07833648 1.7129645 0.26972774
0.72423244 0.8880365 -0.8475266 -1.162351 -1.0371937 -1.327624 -0.35573426 -0.5395628
0.6370251 -1.2195303 -1.0376712 0.4413656 1.4911402 -0.45159644 -1.0641646 1.2083534
0.9658093 -0.7094056 -0.726111 1.8029939 -0.04796982 -1.0978794 0.60384524 -0.05453236
-0.5362912 1.5891615 -0.6601358 -0.14190967 -0.25104776 0.32897323 0.8533962 -0.55198187
0.10435116 0.32641107 -0.2995981 0.6981828 0.06581904 -0.50094247 2.3570654 0.75463104
-0.09637682 0.093272366 1.7947775 1.0718689 0.18836194 -2.028565 0.12479029 -0.8579408
-0.98674953 2.0632603 -0.24557745 -0.6075621 0.2755097 -0.534036 1.4603996 2.7710752
0.030575408 -2.0859814 -0.5000469 0.48084915 2.0923345 -0.19989751 -1.2502112 0.69394356
0.92963356 1.5922667 0.87667775 1.1474333 1.2697241 -0.25778508 -0.38246956 -0.25286007
0.11624525 -1.368263 -0.7869823 0.4466336 -1.2713954 2.0083618 0.97005445 0.44741842
0.77695453 0.3277323 0.036966532 -0.17017716 2.0296311 -0.5608553 0.07524797 -0.10315228
-0.29064623 -1.5849952 0.9555949 1.8175164 0.46558288 1.2501503 -0.3067978 -0.32623032
-0.48397255 -0.31738886 -1.8341396 1.0147594 0.014182497 -1.4722444 1.1610644 -0.29255477
0.6016804 1.2561135 -0.1971273 0.7647199 1.8022283 -0.54405564 -0.7482217 -0.010853225
-0.9179806 0.7232265 -1.063065 0.16117533 0.8011179 0.23590216 -0.7701884 1.2588196
-0.32480627 -0.3642598 1.5013332 0.5545741 -0.91866666 -1.3155862 0.27349415 -0.2226459
-0.26654753 0.2977525 1.9444875 0.07874853 1.3299431 -1.3877555 1.3391458 0.95913225

response_emb.weight f4 [1062, 64]
00000000: f847 1abe 78cb fcbb d845 a1be 14e9 63bf
00000010: 7e4b 86bc acc3 133f b4b6 153e 46bc 2d3e
00000020: 0931 37bf 8cca c3bf ecf9 98be 97bd 853f
00000030: 543d 5dbf a9ea 39bf 1b5c 9e3d 2bcf a43f
00000040: 6f5c 613f 7b19 87bd c6fb 2abd 99a8 193f
00000050: b686 21bf 0781 853e 1397 de3e b8ac 5a3c
00000060: 1472 1740 9bf7 603f 5b5f b33e f465 a43f
00000070: d6fe 9b3e 3531 033f 4977 4fbf 023c f5bf
00000080: 5769 c5bf 63d6 923f b124 123e a816 793f
00000090: 070c 82bd c78a 473f e925 8b3e 4eb4 a0bd
000000a0: bb28 343e 50f1 2cbf d56f ce3f 759c 5340
000000b0: 1f8d d03e 1d1f 0b3e 1a3c c7bf c64f 2dbf
000000c0: 8037 c4bf 7a58 cc3f e956 053e 8c5a 2f3f
000000d0: f3c2 b83d 2011 80bd 1efc 513f 0a30 453f
000000e0: 8cad 11bf 41b7 0e3f 8189 eebd 327b 1940
000000f0: 7215 58be 50fb 143f addc 68be 4d03 86be
00000100: baba ffbe 1472 8dbe 9ff3 0a3f 90cf 983f
00000110: 199e 9dbf 22d5 953f f4dd 39be 739a 14bf
00000120: 26b8 a9bf d866 d7bf d3a5 d13e 7dd4 a83f
00000130: d7bc 6f3e 4f3f 17bf 9545 9bbf b6be f93e
00000140: 25ea 3e3f b199 8cbf 094c 4dbf 87aa cdbe
00000150: 2b51 d13f f346 293f 7aee e03f a404 a53f
00000160: d920 1ebf 15e9 c73e 5654 66bf eacd 4c3f
00000170: 7a55 c93f 8fcd 3fbf 20ea 29bf c649 a6be
00000180: b002 d53d ee9d e03e d8fe c93f c5c5 233f
00000190: d688 88bf 28a5 81bf b3d3 d73e 0c4c 53be
000001a0: 6134 ab3f f0b8 d63e a45a 563f fa0d 0640
000001b0: 3a91 da3f 11cb 093f 5fe0 c03f 907b 67bd
000001c0: bb08 833f 46c5 983f d8b5 69be da04 763f
000001d0: 7b55 3a3f 4e5d a3bf 7c91 bebe 1be8 16bf
000001e0: 5a64 bbbf e464 373f 7e82 193f fcca a8be
000001f0: 5ee5 13bf 8826 65be dfab b8be 02ad 20bf
00000200: 3db5 f13c 8532 58bf a99a a23c 1ea3 bdbe
00000210: 4f97 6cbf 8ecf 8dbf 4708 793f 18f5 0bbf
00000220: a465 8fbf 8596 b8bf 62a6 a9be 1f18 62be
00000230: 53c8 6abf d3c6 303e 1422 6abf a231 603f
00000240: 1df1 0a3f 1eb7 e5be b60b f53f e42a 243f
00000250: 5e03 573e e65a 87bd eecd b5be 03e1 5dbf
00000260: d964 94be a417 b9bf 3b44 0c3f c6cf bebe
00000270: eb35 2abf 2efd 813f f418 763f 8a2b 3140
00000280: 282d 83bf 06fa 3bbf 6ae9 afbf f5d4 b2bd
00000290: 3923 73be 3b4a 803e 5979 9ebe e3ab 823f
000002a0: 7b56 753f bb1c bebf a559 703f aad1 84be
000002b0: 20e4 863f 81d7 ebbf f6bb c2bc 888b c2be
000002c0: 4346 123f 8683 bf3e 55cd 263e 8e19 dfbf
000002d0: 45f1 f8be df64 a53d 32ea 0cbf ff42 8fbe
000002e0: 03ee a6bc 36e7 893f df44 963f 09a8 9f3e
000002f0: b528 9bbf 7a8d bb3e 335c 12c0 1799 1dbd
00000300: 52a5 13c0 2c6c 2abe 7772 333f 52aa 5dbf
00000310: d235 a9be 20d4 edbe 0588 29c0 1b1c de3f
00000320: 4f91 213f 4954 e83e 437a 6f3f 52af 853e
00000330: f710 84bf 7b95 9cbf ec98 d63f 2db6 7e3f
00000340: 8036 803f 92dc 4f3f d4e4 92bf 2076 f7bd
00000350: fb57 be3f 11e2 a33f c663 fb3f dd15 afbf
00000360: a409 e4bc f8a3 c13f 62bf 15bf 3272 cf3f
00000370: 9320 fbbf c1db 80bf 8b5e 593f 7971 23be
00000380: 2fca 563f a977 8b3e cc50 173f 2919 b3bf
00000390: 5698 99bf bc26 9a3f 470a 1bc0 8f9d 9dbf
000003a0: 0ac0 573f 251d fbbf fa99 d1bf 2a76 a43d
000003b0: 470f b8bf e257 1cbe 18f4 283f 69da a5bf
000003c0: faca 953e 221a 55bf d2e1 593e 9eff 163e
000003d0: e1b3 f3bd 526b fd3d 207b cebf efea d33e
000003e0: bc50 51bf 1f8e 5740 8bd9 f3bf d7ae 54bf
000003f0: 9400 363e 9080 bfbf 5cab b83f b2c2 2e3f
-0.15066516 -0.007714685 -0.314986 -0.89027524 -0.01639342 0.57720447 0.14620477 0.16966352
-0.71559197 -1.5296187 -0.29878175 1.0448483 -0.86421704 -0.7262369 0.077324115 1.2875723
0.8803167 -0.06596657 -0.041744016 0.60022885 -0.6309618 0.26075003 0.43474635 0.013346843
2.3663378 0.87877816 0.35033688 1.2843614 0.30467862 0.5124696 -0.8104139 -1.9158938
-1.5422772 1.1471676 0.14271809 0.97300196 -0.0634995 0.7794613 0.2717736 -0.078468904
0.17593662 -0.67555714 1.6127878 3.3064244 0.40732667 0.13586088 -1.5565217 -0.6769985
-1.5329437 1.5964501 0.13021435 0.6849754 0.090215586 -0.06253266 0.82025325 0.77026427
-0.56905437 0.55748373 -0.116473205 2.3981442 -0.2110193 0.5819597 -0.22740431 -0.26174393
-0.4994715 -0.27626097 0.54277986 1.1938343 -1.2313873 1.1705668 -0.18151075 -0.5804817
-1.3259323 -1.682826 0.40946826 1.3189846 0.2341188 -0.59080976 -1.213061 0.48778313
0.74576026 -1.0984403 -0.80194145 -0.40169165 1.6352895 0.66123885 1.7572777 1.2892041
-0.6176887 0.39045015 -0.89972436 0.800017 1.572921 -0.7492303 -0.6637287 -0.3247816
0.10400903 0.4387049 1.5780897 0.6397365 -1.0666759 -1.0128527 0.421537 -0.20634478
1.337536 0.4193797 0.83732057 2.094603 1.707557 0.5382548 1.5068473 -0.056514323
1.0237039 1.1935203 -0.22823274 0.9610115 0.7278668 -1.2762849 -0.3722037 -0.58947915
-1.464 0.7163832 0.5996474 -0.32967365 -0.5777186 -0.2237798 -0.36068627 -0.6276399
0.029505366 -0.84452087 0.019849138 -0.3703851 -0.9241838 -1.1078966 0.97278255 -0.5467086
-1.1202893 -1.4420935 -0.33134753 -0.22079514 -0.9171192 0.17263345 -0.9145825 0.87575734
0.5427416 -0.4486627 1.9144199 0.64127946 0.20997378 -0.066091344 -0.35508674 -0.86671466
-0.2898319 -1.446034 0.5479161 -0.37267894 -0.6648852 1.0155389 0.96131825 2.7682824
-1.0248156 -0.7342838 -1.3743107 -0.087320246 -0.23743905 0.25056633 -0.30951956 1.0208706
0.95835084 -1.4852518 0.93886787 -0.2594121 1.0538368 -1.8425142 -0.023771267 -0.3799708
0.5713846 0.37405032 0.16289265 -1.7429674 -0.48621574 0.0807588 -0.55044854 -0.279808
-0.020377165 1.0773685 1.1739768 0.31182888 -1.2121798 0.36631376 -2.2868774 -0.038476076
-2.3069654 -0.16642827 0.70096534 -0.86588013 -0.33048874 -0.464509 -2.648927 1.7352327
0.6311235 0.45376804 0.9354593 0.2611032 -1.0317677 -1.2233118 1.6765418 0.9949673
1.0016632 0.8119594 -1.1476083 -0.120830774 1.48706 1.2803365 1.9639823 -1.3678547
-0.027836628 1.5128164 -0.5849515 1.6206725 -1.9619316 -1.0067064 0.84909886 -0.15961255
0.8390226 0.2723973 0.5910766 -1.3992053 -1.1999614 1.2043071 -2.4225023 -1.2313708
0.84277403 -1.9618269 -1.6375115 0.080303505 -1.4379662 -0.152679 0.6599746 -1.2957278
0.2925642 -0.83243 0.2127755 0.14745948 -0.118995436 0.12373985 -1.6131325 0.41390178
-0.81763816 3.3680494 -1.9050764 -0.83079284 0.17773658 -1.4961109 1.4427295 0.6826583

encoder.enc_correct.0.weight f4 [32, 64]
00000000: 3449 d93d 6c84 333d 938b e43c 6e3c f4bd
00000010: 72f9 a3bd 34a5 0e3d 17c0 e63c 3991 7fbd
00000020: 6e39 b9bd 8fb0 99bd 00e3 52bd 13e6 873d
00000030: ca1f 073e 4ac8 a33d 8cca 9cbd 5f92 ec3d
00000040: cbfe 57bd 9a6d 81bd 2c88 1fbd 4788 0f3c
00000050: cc6d be3d ba07 12be 1482 ffbd 0797 8d3c
00000060: c79d 413c bea2 bf3d d9c8 b83b ec33 96bd
00000070: 80c4 cdbd db5d 213e 33a9 b03d 9e1f 3cbd
00000080: acd5 593b f7d4 df3c ce16 79bc 50aa 8ebd
00000090: 098b 7dbd 8a18 cb3d 427f 25bb ea31 463d
000000a0: ba57 b73d 4535 6dbd 5e34 8d3b dcab 88bc
000000b0: 0423 113e f293 14bd d633 c73d 0b59 6f3d
000000c0: f2e0 52bc 232a f93d 98f6 c43d 5948 e23c
000000d0: 10f3 283d eddf 013e c86c 7bbd 2ff3 193d
000000e0: d4b4 b33d b6ab 413e 7d6a 213c 3d7c a43d
000000f0: 3bed bf3d 0f5c c5bc b85c 3e3c 5301 1cbe
00000100: 6721 16be 6381 22bd ef8a 4ebd 27d5 c43d
00000110: a25d 953c c328 cfbd fa23 8abc 32ca 94bd
00000120: 1d69 11bc 8e76 bfbc 17a9 123d 494f 7e3c
00000130: bab8 913d 25ad 8a3c 4956 8f3d c1ce 8dbd
00000140: 45a6 a6bd 759e bf3c 7b1a b43d 2437 b9bd
00000150: ba15 b53d d21c 4dbd ecd4 97bd 71d7 873d
00000160: 72cb f2bd d36b 64bc 4746 f03c c0d6 25be
00000170: 798d 73bd 2d36 cbbd aab9 8bbd 6e87 b03a
00000180: bc21 483d dd7d f9bb 148a a0bd 491d 83bd
00000190: ebf6 7b3d 0309 af3c 5d39 bbbc 88de 083e
000001a0: 0c55 8d3d e055 473d b329 60bc 7bd3 80bd
000001b0: 5a41 5d3b bc7f c53d c8a8 75bd 85f4 343d
000001c0: a950 e0bd 7989 2f3c e3ee b93d c790 0a3d
000001d0: bac4 0abe cdce e1bc f66c aabd e55a d53d
000001e0: 89b4 92bc edee a1bd a417 b1bd 932f 0fbd
000001f0: 1a2d 0c3e 1d1a 95bd 6d73 0d3b 34bf 8abd
00000200: 5cd8 0abe c72e 99bd 465f ba3b b69b d83c
00000210: 1353 cb3c 57ef aa3d 4997 61bd dac5 18be
00000220: f062 943d 9814 683d 0178 f13d d502 b63d
00000230: 260f 73bd 6567 c6bc 8130 f93c bc0e b03d
00000240: 5b66 7e3c 2fae 85bc 3f18 d1bd bdd6 1c3d
00000250: 9030 5f3c f1f9 073e 5b63 e2bc de4b a83d
00000260: b36b ab3d d74b 023e 1cd4 063d 74aa f03d
00000270: 99c4 043e 9247 183d 35e3 b6bd 4177 49bd
00000280: cd32 1a3d afc9 f33c 1279 3a3d 6cba a13b
00000290: facf c7bb 133f 613d 6e85 af3d 3641 29bd
000002a0: 731a b6bd eb1c 76bd 7d05 6a3b 7acc 9e3d
000002b0: 7f22 33bd 5db1 17be e7c3 87bd 1b1f 863d
000002c0: 6e4a 03be bc48 463d 8111 9bbd 0737 41bd
000002d0: f326 8cbd 255c 09bd 6929 893b 149a 8d3c
000002e0: 9e11 df3b d72e e6bd 4d59 6b3c 10de 723d
000002f0: 3521 2dbc fc29 0abe f49c 023e 0997 89bc
00000300: 3e15 0dbe 43c9 a83c efd9 01be 7cd4 033e
00000310: 5631 a1bc 79e6 21bd 59af 98bd 2f50 afbb
00000320: fbe8 793d fa90 ca3d c21d 84bd 1d99 3abd
00000330: d690 f9bd cee2 963d c3f3 d13d e320 ef3d
00000340: 9feb a73d 5974 163d 0aeb 5d3c 4b9a 45bd
00000350: 267d bd3d 0ed3 333c 0530 d8bc 23c5 2bbc
00000360: 3b86 85bc 186a 9abd 305b 263d 4eaa a8bd
00000370: 93a5 c6bc f2ea 273c 8d33 063e 0989 ffbc
00000380: cfb7 a03c 4217 863c 87d4 80bd c056 d1bd
00000390: 5580 003c a42b 28bd 64d4 69bd 70e6 af3d
000003a0: 85c1 4d3c 7691 0a3c c6d4 eb3b b451 ccbd
000003b0: 5ffb dd3d 67f2 78bd 3fd1 05be 14f8 773d
000003c0: ef88 5bbd 9feb 92bd 7fa6 583c 2f02 d0bc
000003d0: 7809 cbbc 58b8 163d 2bf1 c03b 00c1 c63d
000003e0: ee0b abbd d262 eb3b 3e33 f7bc 76b7 c5bd
000003f0: 5614 433d ff4c 8fbd c53c 0c3e e135 8e3d
0.106096655 0.04382746 0.027898585 -0.119255885 -0.08006562 0.03482552 0.028167767 -0.062394354
-0.09044157 -0.07504379 -0.051486015 0.0663568 0.1319572 0.079971865 -0.0765582 0.115513556
-0.052733224 -0.06319733 -0.038948223 0.008760518 0.09298286 -0.1426076 -0.12475982 0.01728393
0.011817402 0.093572125 0.0056391773 -0.07334122 -0.10047245 0.1575846 0.08626022 -0.04592859
0.003323893 0.02732323 -0.015203191 -0.06966078 -0.061900172 0.0991679 -0.0025252854 0.048387446
0.089522794 -0.05791213 0.004309221 -0.016683511 0.14173514 -0.036273904 0.09726684 0.058434527
-0.012871014 0.1216624 0.096173465 0.027622389 0.041247427 0.12683077 -0.06138304 0.037585434
0.087747246 0.18913159 0.009852049 0.08031509 0.0937142 -0.024091749 0.011618786 -0.1523488
-0.1466118 -0.039674174 -0.050425466 0.09610968 0.018233124 -0.101151966 -0.016862858 -0.07265128
-0.008875159 -0.023371961 0.035805788 0.015521833 0.07115312 0.016928265 0.069988795 -0.06924201
-0.08137182 0.023390988 0.08794113 -0.0904372 0.08842035 -0.050076313 -0.074136585 0.06632889
-0.1185521 -0.013941723 0.029330386 -0.16195202 -0.05946109 -0.099224426 -0.06822522 0.0013468096
0.048860297 -0.007613881 -0.07838836 -0.0640207 0.061514776 0.021366602 -0.022854501 0.13366139
0.06900987 0.04866588 -0.013681817 -0.06290337 0.0033760876 0.09643504 -0.059975415 0.044178504
-0.10952885 0.010713928 0.09078767 0.033829477 -0.13551608 -0.02756443 -0.08321564 0.104177274
-0.017908351 -0.079068996 -0.08647087 -0.03495748 0.1368908 -0.07280371 0.0021583692 -0.0677475
-0.13559097 -0.07479625 0.005687627 0.026441436 0.024819886 0.08346432 -0.055075917 -0.14919224
0.07245433 0.056660265 0.11790467 0.08887259 -0.05934062 -0.024219224 0.030418636 0.0859656
0.015527333 -0.016318409 -0.10209703 0.038290728 0.013622418 0.13278939 -0.027635267 0.082175955
0.08370151 0.12724243 0.032917127 0.11751261 0.12965621 0.03717763 -0.08930055 -0.049185995
0.037646104 0.029759256 0.045525618 0.0049355533 -0.006097791 0.054991793 0.085703716 -0.041321956
-0.088917635 -0.060086172 0.0035708838 0.077538446 -0.04373407 -0.14813752 -0.06629162 0.06548902
-0.12821361 0.04840921 -0.07571698 -0.04717162 -0.068433665 -0.03353514 0.0041858447 0.017285384
0.00680752 -0.11239403 0.014364553 0.059293807 -0.010566999 -0.13492578 0.12755185 -0.016795652
-0.13777635 0.020603782 -0.12680791 0.12874025 -0.019676846 -0.039526436 -0.0745532 -0.005350135
0.061013203 0.09890933 -0.06450988 -0.045556176 -0.121858284 0.07367478 0.10251572 0.116761945
0.08199238 0.03673205 0.013544807 -0.04824285 0.09252386 0.010975612 -0.026390085 -0.010484013
-0.016299358 -0.07539767 0.040614307 -0.08235608 -0.024248874 0.010248886 0.13105603 -0.031193273
0.019618897 0.016368512 -0.062905364 -0.102216244 0.007843097 -0.041057244 -0.057087317 0.08588874
0.012558346 0.008457532 0.0071969954 -0.09976521 0.10838961 -0.060778048 -0.13068102 0.06053932
-0.053597387 -0.071738474 0.0132232895 -0.025391666 -0.024784788 0.036796898 0.0058881245 0.097047806
-0.08351885 0.007183411 -0.030175801 -0.09654133 0.047626816 -0.06997108 0.13695057 0.0694387

encoder.enc_correct.0.bias f4 [32]
00000000: c01e 013e a008 95bd c407 cd3d 5f1c 39be
00000010: 6b5d 113d ae8e bfbc 7a8f 2bbe bc3d 5abd
00000020: 5063 11bd 35ec fa3d ce84 8fbc 7242 f83c
00000030: 67ff 98bd 2a9e 9ebd 5491 ae3d b7c3 a938
00000040: 93b8 ff3c 4c24 08be a951 a5bd 601a 163e
00000050: 24dc 61bd 6119 3bbd 0746 1e3e 541d bbbd
00000060: 50d8 18be 0374 293e c469 4c3b 9087 dcbc
00000070: 7bc9 a43d 4bc4 503d cf5e 533d 11c5 7d3d
0.12609386 -0.07277036 0.10011247 -0.18077229 0.03548948 -0.023383465 -0.1675395 -0.05328153
-0.035495102 0.12252084 -0.01751938 0.030305121 -0.07470589 -0.07745011 0.08523813 8.095003e-05
0.031215942 -0.13295096 -0.08072216 0.14658499 -0.055141583 -0.0456785 0.15456401 -0.09136453
-0.14926267 0.16548161 0.003119097 -0.02692011 0.08046242 0.05096845 0.05160409 0.061955515

encoder.enc_correct.3.weight f4 [64, 32]
00000000: 9eed 213e 222f 0cbd 029b 1bbe ddd5 4b3e
00000010: 322c 873d fd22 ed3d 20d2 ecbd 3ff2 b73c
00000020: 60ec 98bd b0ed d7bd f5b7 2f3e e8a6 03be
00000030: 8df9 07be 0044 5e3d d123 583e ff89 1fbe
00000040: b1f0 093e 7da9 053e 8c3e c93d 3fd0 11be
00000050: d2be 12bd e73c 263e fa26 2c3d 5c13 9bbd
00000060: 8d2c cebc 1707 7dbd 29ed e43c d41e a63d
00000070: 1ba1 643d df69 d8bd 0260 dcbd 629f ecbd
00000080: b5d4 1a3d 8ee0 dabd 9dfa f83d d5e4 15bb
00000090: 2cbd 1d3e a345 ffbc 3dbe 0abe 4e41 18bd
000000a0: d22a 083e d15c fdbd 8170 fdbd 7684 343d
000000b0: 48c5 88bd dd44 ba3d f0aa 793e 3675 263e
000000c0: 8914 143d a4df b53d e1aa cfbc d7e9 a7bc
000000d0: 506b db3d bb3a e4bd e81a 333e 6f04 f03d
000000e0: 2b41 5f3e 5254 85bd af67 013e 964c 613e
000000f0: 664b 96bd d996 adbc 6d58 14bd 7343 093c
00000100: ea50 56be 8eb0 58be 31fd 54be 46b8 3abd
00000110: 7d66 b6bd bbed 20be 7e03 81bd 59d9 323d
00000120: b405 d03d ee1a 3ebe 5e00 5ebd 12fc 83bd
00000130: 272d 233b 969f b13c 9a96 00be ebb9 64bd
00000140: a179 afbd 3589 44bc 44eb d2bd d039 373d
00000150: 28ee f4bd f02c 08be 74be 643c b8d5 53be
00000160: 1da2 1ebe fe1f 18bd 4ca7 003c a7be 8d3d
00000170: dafe a73d c349 1c3e 2bb1 f3bd 1409 c43c
00000180: 7050 e8bd a5a5 cebd 8524 243e 0034 e1bc
00000190: 7a73 663e eaf7 9fbd 8aa1 9bbd e295 f5ba
000001a0: 70b7 6bbd 2a21 b33d 65fe b9bc 71f6 44bd
000001b0: c41f 2d3d a12b d03d 9a17 783d 479d de3d
000001c0: 4ece c43d 308e f9bc fa00 06bc 2c94 bfbd
000001d0: 194c 1a3e 181e 853b 16fa 433e 4347 7f3d
000001e0: 306b 643c 2423 363c 685e e73d cfa2 f8bd
000001f0: 5769 cebd fbbf 3c3e 5aa4 cfbd b6ae 353d
00000200: 6084 f6bd dda9 ac3d 86e3 843d 41c2 b3bd
00000210: 1138 143d 0a02 c4bd 26e0 483e e4c1 113e
00000220: c460 3a3e f02c 6c3d ec2e 11be 9fb1 9c3d
00000230: 5402 913d b9e3 07bd 4e45 173d 556c e43d
00000240: 5525 bf3d 4145 d23c eec0 d53d a194 043e
00000250: 96e3 02be 2db1 d9bc 5050 cdbd 3a46 d9bd
00000260: 6fc8 f1bd bc3f 963d dbee 1d3e 4a07 a23c
00000270: f64f dfbc 811e 033d b589 41bd 624d 9f3d
00000280: 6704 4d3d affa 033d 19c9 a7bd 2193 de3c
00000290: 1240 c93d a55c 1ebe e8cf a9bd 7923 cb3d
000002a0: 832a dd3d a083 2e3e 9b82 343e 78b4 16bd
000002b0: 43e8 05be 3201 03bd c41f 2e3e 523a 423e
000002c0: 937b 14bd fa91 3f3c 63f3 51bd 181e eabd
000002d0: cba5 a43c dbca 843c 667c e03d dac9 143d
000002e0: 9fcf d93d 5826 fdbd 7467 6f3d 3dd3 093e
000002f0: a8c4 8cbd 916f b0bc f257 ba3d d9f8 0fbe
00000300: 6609 ea3d 29bb ec3b 0b5a e1bc 3934 00bd
00000310: f0be 6f3d 95ed e2bd 2c65 4cbe 8c20 08be
00000320: ef78 acbd 7923 89bd d096 af3d 85bc a03d
00000330: 2a98 22be b55b 4ebe acfc db3d 41cb 56be
00000340: 136b a4bc 3e1e 543e 3be0 0d3e 9545 adbd
00000350: 9cc4 843d 334d 3fbb 03aa 57bc 82a1 633d
00000360: 9867 d13d aeda 8e3c d1b1 a33d d731 b2bd
00000370: 026b bcbc 62ee 1dbe bee4 8d3d 679a b23d
00000380: 041c a03d e9f3 46be 605f 74be c95e 9fbb
00000390: 1b56 a43d b879 1cbe dcd5 8ebd 00ee f13d
000003a0: 712c 1ebe 6d61 8b3d 41cc 2abe 4153 b43d
000003b0: 6880 bbbd ebb7 00be 1137 2fbe 1176 36bd
000003c0: 37db 09be 82a3 73bd 0ff3 1fbe 2f7f aebd
000003d0: 8741 11be 490b c7bd fe48 1cbe 4c17 7639
000003e0: be50 db3d 8bb4 64bd afea d53d 1111 0fbe
000003f0: 80f1 703d 9c1b 78bd 2ea6 393c 610d d33c
0.158133 -0.034224637 -0.1519585 0.19905801 0.066002265 0.11578939 -0.11563516 0.02245438
-0.0746696 -0.10543382 0.17160018 -0.12856638 -0.1327879 0.05426407 0.21107413 -0.15579985
0.13470723 0.13052936 0.09826383 -0.14239596 -0.03582651 0.1623417 0.04202936 -0.07572052
-0.025167728 -0.06177434 0.027945118 0.08111349 0.055817705 -0.10567068 -0.107604995 -0.11553837
0.03780051 -0.10687362 0.12157176 -0.002287199 0.15404195 -0.031161135 -0.13549133 -0.037171654
0.13297585 -0.12371219 -0.12374974 0.044071637 -0.066782534 0.09095166 0.24381614 0.1625565
0.036152396 0.08880547 -0.025350036 -0.020497246 0.107138276 -0.111440144 0.17490733 0.11719596
0.21802203 -0.065102234 0.12637208 0.22001871 -0.073386 -0.021190094 -0.036217142 0.008377898
-0.20929304 -0.211611 -0.2079971 -0.045585893 -0.08906267 -0.15715687 -0.06299494 0.04366431
0.10157338 -0.1856496 -0.05419957 -0.06444563 0.002489874 0.021682542 -0.1255745 -0.055841368
-0.08568121 -0.011995603 -0.102987796 0.04473287 -0.11959487 -0.13298392 0.013961423 -0.20686996
-0.15491529 -0.037139885 0.007852387 0.0692113 0.08202906 0.15262513 -0.118990265 0.02393011
-0.11343467 -0.10090188 0.16029556 -0.027490616 0.22504988 -0.07810958 -0.075991705 -0.0018736685
-0.057547987 0.0874656 -0.022704313 -0.048086587 0.042266622 0.101645716 0.060569383 0.10869842
0.09609662 -0.030463308 -0.008178944 -0.093544334 0.15068091 0.0040624253 0.19138369 0.06232382
0.013941571 0.011116777 0.112973034 -0.12140428 -0.10078686 0.1843261 -0.101387694 0.04435607
-0.12036967 0.08430836 0.06488709 -0.08777285 0.03618628 -0.095707014 0.19616756 0.1423412
0.18200976 0.057660043 -0.14178056 0.07651066 0.07080522 -0.033176158 0.03693133 0.11153475
0.093332924 0.025667788 0.10437189 0.12947322 -0.1278213 -0.026573742 -0.10025084 -0.10609098
-0.11805808 0.07336375 0.15423147 0.019778866 -0.027259808 0.032011513 -0.04725047 0.077784315
0.050053027 0.032221492 -0.08192653 0.027169766 0.098266736 -0.15465029 -0.08291608 0.09918875
0.10799124 0.17042398 0.17627947 -0.036793202 -0.13076882 -0.03198356 0.17004305 0.1896756
-0.036250662 0.011692518 -0.051257502 -0.11431521 0.020098587 0.01621001 0.10961227 0.036325313
0.10635304 -0.12360829 0.05844827 0.13459487 -0.06873447 -0.021537574 0.090988055 -0.14059772
0.11427574 0.0072244597 -0.027508756 -0.031299803 0.0585317 -0.110804714 -0.19960469 -0.13293666
-0.08421504 -0.06696219 0.08573687 0.07848457 -0.15878358 -0.20152171 0.10741553 -0.20975973
-0.020070588 0.20714661 0.13855068 -0.08460537 0.06482813 -0.0029190301 -0.013163093 0.055573948
0.10224837 0.017438259 0.079929 -0.087009124 -0.023000244 -0.15422967 0.06928395 0.08720856
0.078178436 -0.19428982 -0.23864508 -0.004863594 0.08024236 -0.15280807 -0.06974384 0.11812973
-0.1544664 0.06805692 -0.16679479 0.08804942 -0.09155351 -0.12570159 -0.1711085 -0.04454619
-0.1346253 -0.059482105 -0.15620063 -0.08520352 -0.14185153 -0.09718949 -0.1526222 0.00023469067
0.1070876 -0.05583624 0.10445153 -0.13971354 0.058824062 -0.060573205 0.011331124 0.025763215

encoder.enc_correct.3.bias f4 [64]
00000000: 5b2e 333e 8500 803e cd6b c13c 87bc 153e
00000010: 5580 4dbe fa2b 8fbc 9417 cb3d 6da7 cfbc
00000020: 0ab7 30bd 7b8f 3d3d 4732 543d 5649 f63b
00000030: d0eb af3d 12f9 c83d a99e c5bd 1276 30be
00000040: 204b 0abe f1be 81be e77e ec3c 6ab9 85bd
00000050: 79b8 8fbe c656 cbb9 cbbb 52bc 8225 d0bd
00000060: e975 8a3e 29ca ae3d 48c8 293e a5d7 4bbe
00000070: 49bd 823e 3c93 99bd 1b5e 3ebe 0693 a6bd
00000080: 6097 1bbe 9b67 c53b cacd c4bd f5be 03bd
00000090: c21a 8a3b ae67 2a3d 72f4 55be d67d 8a3c
000000a0: 5c09 b3bd edf6 d83d cd7f 78bc b1fd 7f3e
000000b0: 888f 943e da78 433c bbee 143d be7f 403e
000000c0: a077 983d 0217 30bd 791e f6bd 6275 36bd
000000d0: 8967 323e 15ec a33d 347f 113d 768a 073d
000000e0: d61f 6fbc db28 183e ca32 273e 8347 1bbe
000000f0: 39a9 80be b477 343e 8d40 0dbe 471b 42be
0.17498152 0.25000396 0.023610974 0.14622699 -0.20068486 -0.017477024 0.099166065 -0.02534839
-0.04314331 0.04627941 0.05180576 0.0075160665 0.085898995 0.098131314 -0.09649403 -0.1723254
-0.1350522 -0.2534099 0.028869106 -0.065295056 -0.2807043 -0.00038783828 -0.012862156 -0.10163404
0.27043083 0.08534653 0.16580307 -0.1990648 0.25535038 -0.07498786 -0.18590586 -0.08133511
-0.15194464 0.0060243136 -0.09609564 -0.032164533 0.0042146156 0.041602783 -0.2089403 0.016905706
-0.087420195 0.10593972 -0.015167189 0.2499912 0.29015756 0.011930669 0.036360484 0.1879873
0.07444692 -0.042990692 -0.12017531 -0.04454554 0.17422308 0.080040134 0.0355217 0.03309103
-0.014594993 0.14859335 0.16327968 -0.15163998 -0.25129107 0.17623788 -0.13794155 -0.18955718

encoder.enc_wrong.0.weight f4 [32, 64]
00000000: 9b02 bc3d 98b9 0b3e 3c3f 18bd cb04 11bd
00000010: 1a0d 0bbe c122 443d 6ad5 963d b782 063e
00000020: 5441 6a3d e9bc 2abc 0380 a7b8 56aa 9d3d
00000030: 83ef 663d 0c0b a4bd e434 173b 1749 433d
00000040: 841e e13c 0160 cdbd 770f eebd cbbe e4bd
00000050: 91c1 0abe 8c5c 863c e6f5 c83d 0bfa cb3c
00000060: 06c8 76bb 1a22 053d 7b45 9bbd b179 003e
00000070: 3d79 bc3c fbdd 05be 43ec bebc b593 2cbd
00000080: 7d88 c4bb 25dc 193d dbab f9bd 28c4 603d
00000090: ae76 f43d e500 ccbc 7c53 bebd 36b3 aabd
000000a0: 9bd6 8abd d1ae 8cba 8213 63bd 853f 08be
000000b0: 9ba0 a63d 589c cfbb a529 f13d 9fe1 f2bd
000000c0: f6a9 503d a493 5fbd 11a5 63bd 47f3 cdbd
000000d0: d026 433d 9529 d13b 1815 193b 69ff ff3c
000000e0: 32fb c83d adcc b83d e953 86bd 9a22 e4bd
000000f0: 0e39 a13d 6ada 9f3d e92b efbc b0cb 5dbc
00000100: 1229 aa3d 41c4 aabd be79 073d 0588 3e3e
00000110: 9185 c03d 1a3c b4bd 50d5 42bd 6eeb 96bd
00000120: de60 003e 0f3c 98bd 9b0d 38bd 6c11 b7bc
00000130: 0bcf 2dbe bf8d 91bd e9f8 7fbd 71bf 74bd
00000140: 1381 e23d f5d3 d43d c5e2 e73d 760a 8ebd
00000150: 3a3e f43b 5d41 823d 2e41 923d 5df1 233c
00000160: 76a7 fdbd 000e 2abd 6847 193c 38c5 acbd
00000170: 8a35 fd3c e99b 2abe 47ce bf3d 67b0 eabb
00000180: e632 01be 5d5a cc3d 1892 68bd 9f54 e23c
00000190: 8a42 c73d d35f c1bd e3e8 6c3d 9874 83bc
000001a0: 90d9 443d f391 0a3e 26a5 bcbd 0e91 70bd
000001b0: a2bf c13d 347f 03be 0f8d b4bd f851 d13d
000001c0: 6a58 74bd 4bd4 483e bb6f aabb 352f 9d3d
000001d0: 970c 673d d189 043e af2b f2bd 03cd 0e3d
000001e0: fdaa 58bd 65f1 e0bd dc0f 0a3e 5faa 7fbd
000001f0: 9e25 d03d 2ee0 ddbd 8418 ca3d 5ade 933b
00000200: b384 deba 79d8 e8bd 49c2 8a3d 80fc d0bc
00000210: 18f2 7abd 792b df3c b4b0 04bd b956 87bd
00000220: ab40 a03d d27f 27bd 92e9 abbd 7a5a e3bd
00000230: 3ff9 083d f672 a13d af20 a83d 1f4d a7bd
00000240: e6c0 903c 0259 10be 8913 b23c a337 503d
00000250: 4d6e 4fbd 9fa3 75bd 3837 9ebc b35e c33c
00000260: d5b5 713b 2956 dfbc 3189 81bb d98b f7bc
00000270: 01a3 fabc f8c0 9ebd 9afc da3d 9698 1d3e
00000280: 9bb3 fbbc 9772 a63d 8c9b b63c 9008 54bd
00000290: 644d c43d e8a6 3bbc ed45 23bc 8a8b 0fbe
000002a0: 53f2 a63d 018d da3d 7f26 173d 3200 de3c
000002b0: aacc 74bd 3752 8bbd 999c eb3d 90c9 e83c
000002c0: cabb 9cbd 015f d9bd 1d45 d7bd 949f f2bd
000002d0: 3376 083e 91df 083e 4990 a13c b9f3 8c3d
000002e0: 6e1e 04bd 64a7 1abe f9aa ee3b 6de8 9ebc
000002f0: ec81 68bc d0d7 d4bc e7a4 d0bc 140c 423d
00000300: 15cc 353d 3a66 713b 6025 31bd f1f0 70bd
00000310: 91fe 72bd 0b55 363d eaab d5bc ec40 ab3c
00000320: f938 133e 3523 6bbd 044c d43d 19fe da3d
00000330: 07b1 a9bd 9419 d1bc 5581 abbc 3c2a fbbd
00000340: 2ae6 8dbc 6263 bd3c e06f a7bd 4375 273e
00000350: d426 863c b5e5 0b3e a69a 0c3e 53c2 013e
00000360: bb51 93bd 96f8 0a3d 9a81 be3d 40c6 773b
00000370: abee 043e fee0 413d 2158 d53c e34d fd3c
00000380: 164c eb3d c8bc 9f3c e513 febd 1884 863d
00000390: 8429 233d 6fe6 a53d 534f f83d 5ef9 033e
000003a0: ccc2 bc3c d09e f73d d1e6 23be 0f90 6ebd
000003b0: f37e 093c b140 2c3d 3079 273c e1e5 bcbd
000003c0: a0fb b23d 4e3b aebb cb58 e23d 2f61 a53d
000003d0: 41b2 babd 2b8e 08bd f631 f93d 6f94 d4bd
000003e0: 7a26 be3c 7474 d83c eb73 8d3d a290 b1bd
000003f0: 3c92 16be 38fc 0c3e 30e8 29be be00 b73d
0.091801845 0.13645017 -0.03716968 -0.03540496 -0.13579217 0.047884706 0.07364924 0.13135801
0.057191208 -0.010421016 -7.9870246e-05 0.076985046 0.05638076 -0.080099195 0.0023072297 0.047677126
0.027480371 -0.10028077 -0.116240434 -0.11169203 -0.13550402 0.016401552 0.098125264 0.024899503
-0.0037655844 0.032503225 -0.07581612 0.12546422 0.02300703 -0.1307296 -0.023306018 -0.042133052
-0.005997716 0.03756346 -0.12190982 0.05487457 0.11936699 -0.02490277 -0.09293267 -0.08334963
-0.06779214 -0.0010733252 -0.055438526 -0.13305481 0.08136102 -0.0063357763 0.11775521 -0.1185944
0.050943337 -0.05458416 -0.05557734 -0.10056167 0.047644436 0.006383131 0.002335852 0.031249719
0.09813537 0.09023414 -0.06558973 -0.11139412 0.078722104 0.07805331 -0.029195743 -0.013537332
0.08308615 -0.08338214 0.033075087 0.18606575 0.09400476 -0.08800526 -0.047566712 -0.073691234
0.12536952 -0.0743333 -0.04493485 -0.022347175 -0.16973512 -0.07107114 -0.06249324 -0.059752885
0.11059775 0.1039199 0.1132255 -0.06935589 0.007453707 0.06360123 0.07141338 0.010006276
-0.12385456 -0.041517258 0.0093554035 -0.08436054 0.030909318 -0.16661038 0.09365516 -0.007162142
-0.12617072 0.09978173 -0.05677995 0.027628241 0.09729488 -0.09442105 0.057839286 -0.016046807
0.048059046 0.13532238 -0.09211187 -0.058732085 0.09460379 -0.12841493 -0.08815967 0.102207124
-0.05965463 0.19612233 -0.0052013076 0.0767502 0.05640849 0.12943198 -0.11824738 0.034863483
-0.052897442 -0.10983542 0.13482612 -0.062418338 0.10163425 -0.108337745 0.09867957 0.0045125904
-0.0016976803 -0.11369414 0.06775338 -0.025511026 -0.061266035 0.027242409 -0.03239508 -0.06608338
0.078248344 -0.040893383 -0.083941594 -0.111012414 0.033440825 0.07883255 0.08209359 -0.081690066
0.017670106 -0.14096454 0.02173783 0.05083431 -0.0506423 -0.059970494 -0.01931344 0.023848867
0.0036882062 -0.027262764 -0.003953122 -0.030218052 -0.030595304 -0.077516496 0.10692711 0.15390238
-0.030725291 0.08127325 0.022290967 -0.05176598 0.095850736 -0.011453368 -0.009965402 -0.14018074
0.081516884 0.106714256 0.036901947 0.027099703 -0.059765495 -0.068027906 0.11504478 0.028416425
-0.076530054 -0.10613824 -0.10511229 -0.11846843 0.1332634 0.13366534 0.01972212 0.06882424
-0.032255583 -0.15102917 0.007283565 -0.019397939 -0.014191132 -0.025981814 -0.025469257 0.0473748
0.04438408 0.0036834613 -0.043248534 -0.05882353 -0.059324805 0.044514697 -0.026082952 0.02090498
0.14377202 -0.057406623 0.10366061 0.106929965 -0.082857184 -0.025524892 -0.020935694 -0.12263915
-0.017321665 0.023118678 -0.08175635 0.16353326 0.016375937 0.13661845 0.13730869 0.12671785
-0.07193323 0.033928476 0.09302063 0.0037807375 0.1298167 0.04733371 0.026043 0.030920928
0.114891216 0.019499198 -0.12406138 0.06568164 0.039834514 0.08100592 0.12124505 0.12888095
0.023042105 0.12090838 -0.16006018 -0.058242854 0.008392083 0.042053882 0.010221764 -0.092235334
0.087394 -0.0053171283 0.11052092 0.08075177 -0.091160305 -0.033338707 0.121677324 -0.10379874
0.023211706 0.026422717 0.06906875 -0.08670165 -0.14704221 0.13768089 -0.16592479 0.089356884

encoder.enc_wrong.0.bias f4 [32]
00000000: 8383 a83d c493 413d 7fb4 f83d 4520 c43d
00000010: bfdf c0bd 9e5e 91bd 640e 383b c3de cfbc
00000020: 5ea5 77bd 9861 4a3d 9f8b 85bc 88dc bc3c
00000030: c2b0 103e dc21 403d 79c7 313e 30aa 2b3e
00000040: 8cbb d13d 9493 80bd bb46 ed3d bd0e dfbc
00000050: baa1 95bd c98d b9bd f4ca 1b3e 3fa2 733c
00000060: 81ec d3bd 8f8e 0e3d 1898 9f3d 0a12 1d3e
00000070: abb0 903a 7e39 b53c bd97 f83d 8645 f63d
0.08228209 0.04726006 0.12143802 0.095764674 -0.09417676 -0.07098125 0.002808475 -0.025374776
-0.06046044 0.04940948 -0.016301928 0.023054376 0.14129928 0.04690729 0.17361249 0.1676414
0.1024085 -0.06278148 0.115857564 -0.027228707 -0.073062375 -0.090602465 0.15214139 0.014870225
-0.10347844 0.034803923 0.077926815 0.15338913 0.0011038979 0.022122141 0.12138317 0.12024979

encoder.enc_wrong.3.weight f4 [64, 32]
00000000: a575 293e 6021 25be bc72 2bbd 3036 17be
00000010: 66d3 663d 634e 3ebd 1fe2 05bd 9257 09bd
00000020: bd77 4dbd 7c21 29be 6584 2dbd f239 933d
00000030: 58a5 19be 2465 ecbb de1c 8f3d 2381 a0bd
00000040: e298 81bb ed82 1fbe a962 2dbe eb9b 6bbd
00000050: 0709 2cbe c320 f1bd b593 d43d a073 62bd
00000060: eaab c7bd 3a91 ebbd 10e3 993d d16f 2f3e
00000070: f7ff b4bd 39be db3d 3a43 56bc fd43 08be
00000080: 8111 b8bd f642 c43d 3a79 8ebd b55e 233d
00000090: 313c d1bd 8449 b7bd a3f1 33be 39b8 b7bd
000000a0: 38e6 813d 7f7a 61bd f81e 743b f575 cdbc
000000b0: b8f7 fc3d 6ebd f7bb a35a 3dbd db9e 78bd
000000c0: 30cc 20be 8683 82bd be6a 10be fdd3 0fbe
000000d0: dd11 3b3e 8dd1 f7bd 8485 5fbe ee44 d5bc
000000e0: 84ef 653d 7fe6 0fbd 9a59 923d 88af e4bc
000000f0: fcf8 1dbe 9176 0fbe e141 063d e270 8e3d
00000100: e1bc 39bd b746 bdbc 2d69 90bd de53 6dbc
00000110: a96c 0dbd 0f5e 123e 424f 113e 8942 57bd
00000120: 017e 823e 953a 3e3e 0547 a5bd c834 6b3e
00000130: 9cbd 02be 3249 5c3e 2069 0c3e 278a 193e
00000140: 9f9d 323e 995c 613c 9beb b23c c448 173d
00000150: 5a02 6a3d 36a0 a5bd 16c7 203c e6df 07be
00000160: 3809 b53d 70ed 293e 4203 a43d 448e 8a3d
00000170: 401a fabd 87bf 0bbe 6778 cc3d 63e2 163e
00000180: ae29 ac3b 222d f53d 96d7 1fbe 5113 14be
00000190: 0918 9bbd b19c 31be 65fe 03be 0cf4 f0bd
000001a0: 0ce6 d73d 9760 1d3e 00ed e03d 67c3 10be
000001b0: a618 313d 472d 6cbe ed54 cbbd 1b49 59be
000001c0: 503c 2dbe 2c65 113c e388 ac3d 58d4 1e3e
000001d0: 58fa 66bd 481d bcbd d606 00bd a133 1dbe
000001e0: dc44 cc3d 4dc6 40bd 86f4 43be 3b87 87be
000001f0: 9b7f 4bbe d00e 36be e30b 9b3d 3e64 183d
00000200: f19e cd3c 1adf 353d 37aa c0bd 43f0 723d
00000210: 38af fb3d 79f2 f33d dd20 0cbe c4b8 483e
00000220: 7922 58bd 9ee8 2c3e 0d15 313e dcc7 ecbd
00000230: 9b43 f43d 360e cebd e778 0f3d 52c3 aa3c
00000240: 2a86 593e 26c7 533e 08e7 af3d 9902 26bc
00000250: 80c1 0a3d 47d7 9fbd cbfb 853d 3b8a b8bd
00000260: 3927 0dbe 12b7 323e cefc 893c 88e6 443e
00000270: 8bea 6dbd 3df2 cebd c8e6 8d3a ac3a 3f3e
00000280: 3167 20be 44b1 fabd 0d18 5bbd 38e0 03bd
00000290: e800 5fbd c3fe e23d 11a8 56bd fcd3 cdbd
000002a0: 9138 a83d 9930 6b3d a05d e1b9 e652 75be
000002b0: 2e37 3bbd 1d6d 04be 6553 1abe 798b b33d
000002c0: f5c5 56be fc49 4cbe dd9f 49be 6fa6 41be
000002d0: 7e30 15be 1e41 57bd 4047 9b3d b49d c33d
000002e0: d471 cc3d 08fb debd 59ce 5a3d 8261 463b
000002f0: ab0d 1ebe 231d 3cbe fe04 15be 2f66 10be
00000300: ede2 e23c 04ca 08bd 5b2e 8b3d dfd6 ebbc
00000310: d1ca 373e 481d 273d ecc3 1bbe 860e b2bd
00000320: 54f2 cbbc d498 06be d372 af3c a6cb 053e
00000330: 8035 05be 74f6 d43d f1e0 183e 796a a9bb
00000340: 5b77 4a3e e4ef b73d 7ee9 f4bd 6f6d e43d
00000350: 52c5 a5bd 6c0a b9bd e7b3 3cbd 072f 4abd
00000360: 0137 2dbe 5f74 ba3d ad49 51bc 35e2 51bd
00000370: ed0c 493e 94ed 443d 8966 373e 8cdd 75bd
00000380: c651 bbbd d95e 703d f667 983d 3831 013e
00000390: 8cc6 38bd 516b 873d 6121 f13c 876b 09be
000003a0: 8c88 babd 2c76 ed3d 1b51 5fbd cd92 9a3d
000003b0: 9ad0 00be 5491 2fbd 1535 973d 2ac4 f6bd
000003c0: 18fa 973d 4ccd a5bc a729 d73c acb8 273e
000003d0: fb48 a8bd 8fd4 ce3c 7f96 2b3e cf0c 283e
000003e0: 011d 1f3e fb91 c9bd 7758 a53d 5baf 113e
000003f0: 6570 e1bd cedd 16be 55c0 8b3d 3654 843d
0.16548784 -0.16126013 -0.041857466 -0.14766765 0.05635395 -0.046461474 -0.03268635 -0.03353078
-0.05016302 -0.1651668 -0.04236259 0.071887866 -0.1500448 -0.0072142053 0.06987928 -0.07837131
-0.0039549926 -0.15577288 -0.16932167 -0.05752174 -0.16800319 -0.11773827 0.103797354 -0.05528605
-0.09749587 -0.11502309 0.07514012 0.17132498 -0.08837884 0.107296415 -0.0130775515 -0.13307185
-0.089877136 0.09583084 -0.06956716 0.03988524 -0.10216559 -0.08949569 -0.17572646 -0.089706846
0.06342739 -0.055048462 0.0037249904 -0.02508066 0.12351936 -0.0075604236 -0.046229016 -0.06069837
-0.15702891 -0.06372742 -0.14103219 -0.14045711 0.18268533 -0.121005155 -0.21828276 -0.026033845
0.056136623 -0.035131928 0.071459964 -0.027915731 -0.15427011 -0.14010073 0.03277767 0.069551244
-0.045346145 -0.023105009 -0.07051311 -0.0144853275 -0.034527455 0.14293693 0.1419039 -0.052553687
0.25486758 0.18577035 -0.080701865 0.22969353 -0.12767643 0.21512297 0.13711977 0.14994107
0.1744294 0.013754987 0.021840861 0.03693463 0.05713115 -0.080871984 0.009813091 -0.13269004
0.08839649 0.16594481 0.08008434 0.06765416 -0.12212038 -0.1364728 0.099839024 0.14734797
0.005253992 0.11971499 -0.15609583 -0.14460494 -0.07572944 -0.1734493 -0.12890013 -0.11765298
0.10541925 0.15368877 0.10982704 -0.1413704 0.043236397 -0.23064147 -0.09928308 -0.21219294
-0.16917539 0.008874219 0.084245466 0.1551069 -0.05639109 -0.091852725 -0.03125652 -0.15351726
0.099740714 -0.047064114 -0.19136247 -0.2647036 -0.19872896 -0.17779088 0.075706266 0.037204973
0.025100203 0.04440222 -0.09407466 0.059311163 0.1228928 0.11911482 -0.13684411 0.19601732
-0.05276725 0.16885611 0.17293186 -0.11561558 0.11926957 -0.10061304 0.03502741 0.02084509
0.21242586 0.20681438 0.085889876 -0.010132455 0.033875942 -0.07804733 0.06542166 -0.0901074
-0.13784494 0.17452648 0.01684418 0.19228566 -0.058085006 -0.10104797 0.0010826224 0.18674725
-0.15664364 -0.12240842 -0.053489733 -0.032196254 -0.054444224 0.11083748 -0.052406374 -0.100501984
0.08213914 0.057419393 -0.000429851 -0.23957404 -0.04570692 -0.12932248 -0.15070875 0.08766837
-0.20973952 -0.19950098 -0.19689889 -0.18911146 -0.1456928 -0.052552335 0.07581949 0.09551564
0.099826485 -0.10887724 0.053419445 0.0030270522 -0.15434901 -0.1837049 -0.14552686 -0.1410148
0.027696097 -0.033395782 0.06795951 -0.028788982 0.17948462 0.04079941 -0.15211457 -0.086941764
-0.024895824 -0.13144237 0.021417057 0.13065967 -0.1300869 0.1039857 0.14929558 -0.0051701632
0.19772093 0.089813024 -0.119585976 0.11153685 -0.080942765 -0.09035191 -0.046070006 -0.049361255
-0.16915514 0.09104227 -0.012773913 -0.05124112 0.19633837 0.048078135 0.17910208 -0.060025737
-0.091464564 0.058684204 0.07441704 0.12616432 -0.045111224 0.06612266 0.029434862 -0.13419925
-0.091080755 0.11594805 -0.054520708 0.07547531 -0.12579575 -0.042863205 0.073831715 -0.12049134
0.074207485 -0.020239495 0.026264979 0.1637904 -0.08217045 0.02524784 0.16756628 0.16411136
0.15538408 -0.09842297 0.08073514 0.14227049 -0.11007766 -0.1473305 0.06823794 0.064613745

encoder.enc_wrong.3.bias f4 [64]
00000000: 2b43 203d 9132 73be dec0 683e 5e8a c0bc
00000010: 2e5c 513e a636 34be 335b 9f3d 86dc 5a3d
00000020: 261f 7ebd 5989 96bd 3923 9c3c 3d87 5ebc
00000030: 1ffd e4bd 74ad 54be 02d0 403e 1b6e 20bd
00000040: 2669 383e f7cb 383e 56e2 ca3d 7cd3 01be
00000050: c9e6 3c3e 25af 35be 83ab 7a3c b326 ddbd
00000060: aab4 c0bd b865 19be 272b ac3c f31c 40bd
00000070: 7e64 30bd 2b0e 6cbd 33d3 35bd 3376 043d
00000080: 4052 f8bd 9fe3 a5bd 9c10 6ebc 0c6f edbd
00000090: 8f70 363c 3ce0 44be a950 453e 09ab 2abe
000000a0: e8b3 a13d c5b4 513e afed 68be f335 cebc
000000b0: 82cc 67be a3f3 9a3c a440 763e 7b70 12be
000000c0: 8429 67be eaff 33be 02da 9d3d c071 a4bd
000000d0: 42a5 e8bd c43e c7bd c4fa 1d3e e204 26be
000000e0: eb41 023d 55af 703d c170 f03d 9bc8 243e
000000f0: 5c0b b6bd ddd4 44be 8dcd 3b3e e00a 3d3e
0.039126556 -0.23749758 0.22729823 -0.023503479 0.2044532 -0.17598972 0.07781067 0.053432964
-0.062041424 -0.07350416 0.019059764 -0.013582048 -0.111810915 -0.20769292 0.18829349 -0.039167505
0.18008861 0.18046556 0.099064514 -0.12678331 0.18447413 -0.17742594 0.015299681 -0.10798397
-0.09409459 -0.14980209 0.02101667 -0.046902608 -0.043064587 -0.0576307 -0.04439087 0.032339286
-0.12125063 -0.08100056 -0.014530327 -0.11593446 0.0111352345 -0.19226164 0.1926905 -0.16666807
0.078956425 0.20479114 -0.22746919 -0.02517221 -0.22636607 0.018915003 0.24048096 -0.1430072
-0.2257443 -0.17578092 0.07707597 -0.080295086 -0.113596454 -0.097287685 0.1542769 -0.162128
0.031801146 0.05876096 0.11740256 0.1609215 -0.088888854 -0.19221826 0.1834013 0.1846118
